…
I0922 16:11:58.537708  8100 net.cpp:332] The NetState phase (0) differed from the phase (1) specified by a rule in layer data
I0922 16:11:58.538733  8100 net.cpp:58] Initializing net from parameters: 
name: "WFFN"
state {
  phase: TRAIN
  level: 0
  stage: ""
}
layer {
  name: "data"
  type: "Data"
  top: "data"
  top: "label"
  include {
    phase: TRAIN
  }
  transform_param {
    mirror: true
    crop_size: 256
    mean_file: "D:\\Profiles\\Huang-project\\WheatClass\\Train-File\\WFFN_img\\trainimgmean.binaryproto"
  }
  data_param {
    source: "D:\\Profiles\\Huang-project\\WheatClass\\Train-File\\WFFN_img\\trainldb"
    batch_size: 20
    backend: LEVELDB
  }
}
layer {
  name: "conv1"
  type: "Convolution"
  bottom: "data"
  top: "conv1"
  convolution_param {
    num_output: 64
    bias_term: false
    pad: 3
    kernel_size: 7
    stride: 2
    weight_filler {
      type: "msra"
    }
  }
}
layer {
  name: "bn_conv1"
  type: "BatchNorm"
  bottom: "conv1"
  top: "conv1"
  batch_norm_param {
    use_global_stats: false
  }
}
layer {
  name: "scale_conv1"
  type: "Scale"
  bottom: "conv1"
  top: "conv1"
  scale_param {
    bias_term: true
  }
}
layer {
  name: "conv1_relu"
  type: "ReLU"
  bottom: "conv1"
  top: "conv1"
}
layer {
  name: "pool1"
  type: "Pooling"
  bottom: "conv1"
  top: "pool1"
  pooling_param {
    pool: MAX
    kernel_size: 3
    stride: 2
  }
}
layer {
  name: "res2a_branch1"
  type: "Convolution"
  bottom: "pool1"
  top: "res2a_branch1"
  convolution_param {
    num_output: 64
    bias_term: false
    pad: 0
    kernel_size: 1
    stride: 1
    weight_filler {
      type: "msra"
    }
  }
}
layer {
  name: "bn2a_branch1"
  type: "BatchNorm"
  bottom: "res2a_branch1"
  top: "res2a_branch1"
  batch_norm_param {
    use_global_stats: false
  }
}
layer {
  name: "scale2a_branch1"
  type: "Scale"
  bottom: "res2a_branch1"
  top: "res2a_branch1"
  scale_param {
    bias_term: true
  }
}
layer {
  name: "res2a_branch2a"
  type: "Convolution"
  bottom: "pool1"
  top: "res2a_branch2a"
  convolution_param {
    num_output: 64
    bias_term: false
    pad: 1
    kernel_size: 3
    stride: 1
    weight_filler {
      type: "msra"
    }
  }
}
layer {
  name: "bn2a_branch2a"
  type: "BatchNorm"
  bottom: "res2a_branch2a"
  top: "res2a_branch2a"
  batch_norm_param {
    use_global_stats: false
  }
}
layer {
  name: "scale2a_branch2a"
  type: "Scale"
  bottom: "res2a_branch2a"
  top: "res2a_branch2a"
  scale_param {
    bias_term: true
  }
}
layer {
  name: "res2a_branch2a_relu"
  type: "ReLU"
  bottom: "res2a_branch2a"
  top: "res2a_branch2a"
}
layer {
  name: "res2a_branch2b"
  type: "Convolution"
  bottom: "res2a_branch2a"
  top: "res2a_branch2b"
  convolution_param {
    num_output: 64
    bias_term: false
    pad: 1
    kernel_size: 3
    stride: 1
    weight_filler {
      type: "msra"
    }
  }
}
layer {
  name: "bn2a_branch2b"
  type: "BatchNorm"
  bottom: "res2a_branch2b"
  top: "res2a_branch2b"
  batch_norm_param {
    use_global_stats: false
  }
}
layer {
  name: "scale2a_branch2b"
  type: "Scale"
  bottom: "res2a_branch2b"
  top: "res2a_branch2b"
  scale_param {
    bias_term: true
  }
}
layer {
  name: "res2a"
  type: "Eltwise"
  bottom: "res2a_branch1"
  bottom: "res2a_branch2b"
  top: "res2a"
  eltwise_param {
    operation: SUM
  }
}
layer {
  name: "res2a_relu"
  type: "ReLU"
  bottom: "res2a"
  top: "res2a"
}
layer {
  name: "res2b_branch2a"
  type: "Convolution"
  bottom: "res2a"
  top: "res2b_branch2a"
  convolution_param {
    num_output: 64
    bias_term: false
    pad: 1
    kernel_size: 3
    stride: 1
    weight_filler {
      type: "msra"
    }
  }
}
layer {
  name: "bn2b_branch2a"
  type: "BatchNorm"
  bottom: "res2b_branch2a"
  top: "res2b_branch2a"
  batch_norm_param {
    use_global_stats: false
  }
}
layer {
  name: "scale2b_branch2a"
  type: "Scale"
  bottom: "res2b_branch2a"
  top: "res2b_branch2a"
  scale_param {
    bias_term: true
  }
}
layer {
  name: "res2b_branch2a_relu"
  type: "ReLU"
  bottom: "res2b_branch2a"
  top: "res2b_branch2a"
}
layer {
  name: "res2b_branch2b"
  type: "Convolution"
  bottom: "res2b_branch2a"
  top: "res2b_branch2b"
  convolution_param {
    num_output: 64
    bias_term: false
    pad: 1
    kernel_size: 3
    stride: 1
    weight_filler {
      type: "msra"
    }
  }
}
layer {
  name: "bn2b_branch2b"
  type: "BatchNorm"
  bottom: "res2b_branch2b"
  top: "res2b_branch2b"
  batch_norm_param {
    use_global_stats: false
  }
}
layer {
  name: "scale2b_branch2b"
  type: "Scale"
  bottom: "res2b_branch2b"
  top: "res2b_branch2b"
  scale_param {
    bias_term: true
  }
}
layer {
  name: "res2b"
  type: "Eltwise"
  bottom: "res2a"
  bottom: "res2b_branch2b"
  top: "res2b"
  eltwise_param {
    operation: SUM
  }
}
layer {
  name: "res2b_relu"
  type: "ReLU"
  bottom: "res2b"
  top: "res2b"
}
layer {
  name: "res3a_branch1"
  type: "Convolution"
  bottom: "res2b"
  top: "res3a_branch1"
  convolution_param {
    num_output: 128
    bias_term: false
    pad: 0
    kernel_size: 1
    stride: 2
    weight_filler {
      type: "msra"
    }
  }
}
layer {
  name: "bn3a_branch1"
  type: "BatchNorm"
  bottom: "res3a_branch1"
  top: "res3a_branch1"
  batch_norm_param {
    use_global_stats: false
  }
}
layer {
  name: "scale3a_branch1"
  type: "Scale"
  bottom: "res3a_branch1"
  top: "res3a_branch1"
  scale_param {
    bias_term: true
  }
}
layer {
  name: "res3a_branch2a"
  type: "Convolution"
  bottom: "res2b"
  top: "res3a_branch2a"
  convolution_param {
    num_output: 128
    bias_term: false
    pad: 1
    kernel_size: 3
    stride: 2
    weight_filler {
      type: "msra"
    }
  }
}
layer {
  name: "bn3a_branch2a"
  type: "BatchNorm"
  bottom: "res3a_branch2a"
  top: "res3a_branch2a"
  batch_norm_param {
    use_global_stats: false
  }
}
layer {
  name: "scale3a_branch2a"
  type: "Scale"
  bottom: "res3a_branch2a"
  top: "res3a_branch2a"
  scale_param {
    bias_term: true
  }
}
layer {
  name: "res3a_branch2a_relu"
  type: "ReLU"
  bottom: "res3a_branch2a"
  top: "res3a_branch2a"
}
layer {
  name: "res3a_branch2b"
  type: "Convolution"
  bottom: "res3a_branch2a"
  top: "res3a_branch2b"
  convolution_param {
    num_output: 128
    bias_term: false
    pad: 1
    kernel_size: 3
    stride: 1
    weight_filler {
      type: "msra"
    }
  }
}
layer {
  name: "bn3a_branch2b"
  type: "BatchNorm"
  bottom: "res3a_branch2b"
  top: "res3a_branch2b"
  batch_norm_param {
    use_global_stats: false
  }
}
layer {
  name: "scale3a_branch2b"
  type: "Scale"
  bottom: "res3a_branch2b"
  top: "res3a_branch2b"
  scale_param {
    bias_term: true
  }
}
layer {
  name: "res3a"
  type: "Eltwise"
  bottom: "res3a_branch1"
  bottom: "res3a_branch2b"
  top: "res3a"
  eltwise_param {
    operation: SUM
  }
}
layer {
  name: "res3a_relu"
  type: "ReLU"
  bottom: "res3a"
  top: "res3a"
}
layer {
  name: "res3b_branch2a"
  type: "Convolution"
  bottom: "res3a"
  top: "res3b_branch2a"
  convolution_param {
    num_output: 128
    bias_term: false
    pad: 1
    kernel_size: 3
    stride: 1
    weight_filler {
      type: "msra"
    }
  }
}
layer {
  name: "bn3b_branch2a"
  type: "BatchNorm"
  bottom: "res3b_branch2a"
  top: "res3b_branch2a"
  batch_norm_param {
    use_global_stats: false
  }
}
layer {
  name: "scale3b_branch2a"
  type: "Scale"
  bottom: "res3b_branch2a"
  top: "res3b_branch2a"
  scale_param {
    bias_term: true
  }
}
layer {
  name: "res3b_branch2a_relu"
  type: "ReLU"
  bottom: "res3b_branch2a"
  top: "res3b_branch2a"
}
layer {
  name: "res3b_branch2b"
  type: "Convolution"
  bottom: "res3b_branch2a"
  top: "res3b_branch2b"
  convolution_param {
    num_output: 128
    bias_term: false
    pad: 1
    kernel_size: 3
    stride: 1
    weight_filler {
      type: "msra"
    }
  }
}
layer {
  name: "bn3b_branch2b"
  type: "BatchNorm"
  bottom: "res3b_branch2b"
  top: "res3b_branch2b"
  batch_norm_param {
    use_global_stats: false
  }
}
layer {
  name: "scale3b_branch2b"
  type: "Scale"
  bottom: "res3b_branch2b"
  top: "res3b_branch2b"
  scale_param {
    bias_term: true
  }
}
layer {
  name: "res3b"
  type: "Eltwise"
  bottom: "res3a"
  bottom: "res3b_branch2b"
  top: "res3b"
  eltwise_param {
    operation: SUM
  }
}
layer {
  name: "res3b_relu"
  type: "ReLU"
  bottom: "res3b"
  top: "res3b"
}
layer {
  name: "res4a_branch1"
  type: "Convolution"
  bottom: "res3b"
  top: "res4a_branch1"
  convolution_param {
    num_output: 256
    bias_term: false
    pad: 0
    kernel_size: 1
    stride: 2
    weight_filler {
      type: "msra"
    }
  }
}
layer {
  name: "bn4a_branch1"
  type: "BatchNorm"
  bottom: "res4a_branch1"
  top: "res4a_branch1"
  batch_norm_param {
    use_global_stats: false
  }
}
layer {
  name: "scale4a_branch1"
  type: "Scale"
  bottom: "res4a_branch1"
  top: "res4a_branch1"
  scale_param {
    bias_term: true
  }
}
layer {
  name: "res4a_branch2a"
  type: "Convolution"
  bottom: "res3b"
  top: "res4a_branch2a"
  convolution_param {
    num_output: 256
    bias_term: false
    pad: 1
    kernel_size: 3
    stride: 2
    weight_filler {
      type: "msra"
    }
  }
}
layer {
  name: "bn4a_branch2a"
  type: "BatchNorm"
  bottom: "res4a_branch2a"
  top: "res4a_branch2a"
  batch_norm_param {
    use_global_stats: false
  }
}
layer {
  name: "scale4a_branch2a"
  type: "Scale"
  bottom: "res4a_branch2a"
  top: "res4a_branch2a"
  scale_param {
    bias_term: true
  }
}
layer {
  name: "res4a_branch2a_relu"
  type: "ReLU"
  bottom: "res4a_branch2a"
  top: "res4a_branch2a"
}
layer {
  name: "res4a_branch2b"
  type: "Convolution"
  bottom: "res4a_branch2a"
  top: "res4a_branch2b"
  convolution_param {
    num_output: 256
    bias_term: false
    pad: 1
    kernel_size: 3
    stride: 1
    weight_filler {
      type: "msra"
    }
  }
}
layer {
  name: "bn4a_branch2b"
  type: "BatchNorm"
  bottom: "res4a_branch2b"
  top: "res4a_branch2b"
  batch_norm_param {
    use_global_stats: false
  }
}
layer {
  name: "scale4a_branch2b"
  type: "Scale"
  bottom: "res4a_branch2b"
  top: "res4a_branch2b"
  scale_param {
    bias_term: true
  }
}
layer {
  name: "res4a"
  type: "Eltwise"
  bottom: "res4a_branch1"
  bottom: "res4a_branch2b"
  top: "res4a"
  eltwise_param {
    operation: SUM
  }
}
layer {
  name: "res4a_relu"
  type: "ReLU"
  bottom: "res4a"
  top: "res4a"
}
layer {
  name: "res4b_branch2a"
  type: "Convolution"
  bottom: "res4a"
  top: "res4b_branch2a"
  convolution_param {
    num_output: 256
    bias_term: false
    pad: 1
    kernel_size: 3
    stride: 1
    weight_filler {
      type: "msra"
    }
  }
}
layer {
  name: "bn4b_branch2a"
  type: "BatchNorm"
  bottom: "res4b_branch2a"
  top: "res4b_branch2a"
  batch_norm_param {
    use_global_stats: false
  }
}
layer {
  name: "scale4b_branch2a"
  type: "Scale"
  bottom: "res4b_branch2a"
  top: "res4b_branch2a"
  scale_param {
    bias_term: true
  }
}
layer {
  name: "res4b_branch2a_relu"
  type: "ReLU"
  bottom: "res4b_branch2a"
  top: "res4b_branch2a"
}
layer {
  name: "res4b_branch2b"
  type: "Convolution"
  bottom: "res4b_branch2a"
  top: "res4b_branch2b"
  convolution_param {
    num_output: 256
    bias_term: false
    pad: 1
    kernel_size: 3
    stride: 1
    weight_filler {
      type: "msra"
    }
  }
}
layer {
  name: "bn4b_branch2b"
  type: "BatchNorm"
  bottom: "res4b_branch2b"
  top: "res4b_branch2b"
  batch_norm_param {
    use_global_stats: false
  }
}
layer {
  name: "scale4b_branch2b"
  type: "Scale"
  bottom: "res4b_branch2b"
  top: "res4b_branch2b"
  scale_param {
    bias_term: true
  }
}
layer {
  name: "res4b"
  type: "Eltwise"
  bottom: "res4a"
  bottom: "res4b_branch2b"
  top: "res4b"
  eltwise_param {
    operation: SUM
  }
}
layer {
  name: "res4b_relu"
  type: "ReLU"
  bottom: "res4b"
  top: "res4b"
}
layer {
  name: "res5a_branch1"
  type: "Convolution"
  bottom: "res4b"
  top: "res5a_branch1"
  convolution_param {
    num_output: 512
    bias_term: false
    pad: 0
    kernel_size: 1
    stride: 2
    weight_filler {
      type: "msra"
    }
  }
}
layer {
  name: "bn5a_branch1"
  type: "BatchNorm"
  bottom: "res5a_branch1"
  top: "res5a_branch1"
  batch_norm_param {
    use_global_stats: false
  }
}
layer {
  name: "scale5a_branch1"
  type: "Scale"
  bottom: "res5a_branch1"
  top: "res5a_branch1"
  scale_param {
    bias_term: true
  }
}
layer {
  name: "res5a_branch2a"
  type: "Convolution"
  bottom: "res4b"
  top: "res5a_branch2a"
  convolution_param {
    num_output: 512
    bias_term: false
    pad: 1
    kernel_size: 3
    stride: 2
    weight_filler {
      type: "msra"
    }
  }
}
layer {
  name: "bn5a_branch2a"
  type: "BatchNorm"
  bottom: "res5a_branch2a"
  top: "res5a_branch2a"
  batch_norm_param {
    use_global_stats: false
  }
}
layer {
  name: "scale5a_branch2a"
  type: "Scale"
  bottom: "res5a_branch2a"
  top: "res5a_branch2a"
  scale_param {
    bias_term: true
  }
}
layer {
  name: "res5a_branch2a_relu"
  type: "ReLU"
  bottom: "res5a_branch2a"
  top: "res5a_branch2a"
}
layer {
  name: "res5a_branch2b"
  type: "Convolution"
  bottom: "res5a_branch2a"
  top: "res5a_branch2b"
  convolution_param {
    num_output: 512
    bias_term: false
    pad: 1
    kernel_size: 3
    stride: 1
    weight_filler {
      type: "msra"
    }
  }
}
layer {
  name: "bn5a_branch2b"
  type: "BatchNorm"
  bottom: "res5a_branch2b"
  top: "res5a_branch2b"
  batch_norm_param {
    use_global_stats: false
  }
}
layer {
  name: "scale5a_branch2b"
  type: "Scale"
  bottom: "res5a_branch2b"
  top: "res5a_branch2b"
  scale_param {
    bias_term: true
  }
}
layer {
  name: "res5a"
  type: "Eltwise"
  bottom: "res5a_branch1"
  bottom: "res5a_branch2b"
  top: "res5a"
  eltwise_param {
    operation: SUM
  }
}
layer {
  name: "res5a_relu"
  type: "ReLU"
  bottom: "res5a"
  top: "res5a"
}
layer {
  name: "res5b_branch2a"
  type: "Convolution"
  bottom: "res5a"
  top: "res5b_branch2a"
  convolution_param {
    num_output: 512
    bias_term: false
    pad: 1
    kernel_size: 3
    stride: 1
    weight_filler {
      type: "msra"
    }
  }
}
layer {
  name: "bn5b_branch2a"
  type: "BatchNorm"
  bottom: "res5b_branch2a"
  top: "res5b_branch2a"
  batch_norm_param {
    use_global_stats: false
  }
}
layer {
  name: "scale5b_branch2a"
  type: "Scale"
  bottom: "res5b_branch2a"
  top: "res5b_branch2a"
  scale_param {
    bias_term: true
  }
}
layer {
  name: "res5b_branch2a_relu"
  type: "ReLU"
  bottom: "res5b_branch2a"
  top: "res5b_branch2a"
}
layer {
  name: "res5b_branch2b"
  type: "Convolution"
  bottom: "res5b_branch2a"
  top: "res5b_branch2b"
  convolution_param {
    num_output: 512
    bias_term: false
    pad: 1
    kernel_size: 3
    stride: 1
    weight_filler {
      type: "msra"
    }
  }
}
layer {
  name: "bn5b_branch2b"
  type: "BatchNorm"
  bottom: "res5b_branch2b"
  top: "res5b_branch2b"
  batch_norm_param {
    use_global_stats: false
  }
}
layer {
  name: "scale5b_branch2b"
  type: "Scale"
  bottom: "res5b_branch2b"
  top: "res5b_branch2b"
  scale_param {
    bias_term: true
  }
}
layer {
  name: "res5b"
  type: "Eltwise"
  bottom: "res5a"
  bottom: "res5b_branch2b"
  top: "res5b"
  eltwise_param {
    operation: SUM
  }
}
layer {
  name: "res5b_relu"
  type: "ReLU"
  bottom: "res5b"
  top: "res5b"
}
layer {
  name: "pool_s"
  type: "Pooling"
  bottom: "res5b"
  top: "pool_s"
  pooling_param {
    pool: AVE
    kernel_size: 8
    stride: 1
  }
}
layer {
  name: "net_6"
  type: "InnerProduct"
  bottom: "pool_s"
  top: "net_6"
  param {
    lr_mult: 1
    decay_mult: 1
  }
  param {
    lr_mult: 2
    decay_mult: 1
  }
  inner_product_param {
    num_output: 6
    weight_filler {
      type: "xavier"
    }
    bias_filler {
      type: "constant"
      value: 0
    }
  }
}
layer {
  name: "scale1_loss"
  type: "SoftmaxWithLoss"
  bottom: "net_6"
  bottom: "label"
  top: "scale1_loss"
}
layer {
  name: "c5"
  type: "Convolution"
  bottom: "res5b"
  top: "c5"
  convolution_param {
    num_output: 6
    bias_term: false
    kernel_size: 1
    weight_filler {
      type: "msra"
    }
  }
}
layer {
  name: "upP5"
  type: "Deconvolution"
  bottom: "c5"
  top: "upP5"
  convolution_param {
    num_output: 3
    bias_term: false
    weight_filler {
      type: "bilinear"
    }
    pad_h: 2
    pad_w: 2
    kernel_h: 64
    kernel_w: 64
    stride_h: 28
    stride_w: 28
  }
}
layer {
  name: "upP5_Sig"
  type: "Sigmoid"
  bottom: "upP5"
  top: "upP5"
}
layer {
  name: "mul"
  type: "Eltwise"
  bottom: "data"
  bottom: "upP5"
  top: "mul"
  eltwise_param {
    operation: PROD
  }
}
layer {
  name: "conv11"
  type: "Convolution"
  bottom: "mul"
  top: "conv11"
  convolution_param {
    num_output: 64
    bias_term: false
    pad: 3
    kernel_size: 7
    stride: 2
    weight_filler {
      type: "msra"
    }
  }
}
layer {
  name: "bn_conv11"
  type: "BatchNorm"
  bottom: "conv11"
  top: "conv11"
  batch_norm_param {
    use_global_stats: false
  }
}
layer {
  name: "scale_conv11"
  type: "Scale"
  bottom: "conv11"
  top: "conv11"
  scale_param {
    bias_term: true
  }
}
layer {
  name: "conv11_relu"
  type: "ReLU"
  bottom: "conv11"
  top: "conv11"
}
layer {
  name: "pool11"
  type: "Pooling"
  bottom: "conv11"
  top: "pool11"
  pooling_param {
    pool: MAX
    kernel_size: 3
    stride: 2
  }
}
layer {
  name: "res2a_branch11"
  type: "Convolution"
  bottom: "pool11"
  top: "res2a_branch11"
  convolution_param {
    num_output: 64
    bias_term: false
    pad: 0
    kernel_size: 1
    stride: 1
    weight_filler {
      type: "msra"
    }
  }
}
layer {
  name: "bn2a_branch11"
  type: "BatchNorm"
  bottom: "res2a_branch11"
  top: "res2a_branch11"
  batch_norm_param {
    use_global_stats: false
  }
}
layer {
  name: "scale2a_branch11"
  type: "Scale"
  bottom: "res2a_branch11"
  top: "res2a_branch11"
  scale_param {
    bias_term: true
  }
}
layer {
  name: "res2a_branch2a1"
  type: "Convolution"
  bottom: "pool11"
  top: "res2a_branch2a1"
  convolution_param {
    num_output: 64
    bias_term: false
    pad: 1
    kernel_size: 3
    stride: 1
    weight_filler {
      type: "msra"
    }
  }
}
layer {
  name: "bn2a_branch2a1"
  type: "BatchNorm"
  bottom: "res2a_branch2a1"
  top: "res2a_branch2a1"
  batch_norm_param {
    use_global_stats: false
  }
}
layer {
  name: "scale2a_branch2a1"
  type: "Scale"
  bottom: "res2a_branch2a1"
  top: "res2a_branch2a1"
  scale_param {
    bias_term: true
  }
}
layer {
  name: "res2a_branch2a_relu1"
  type: "ReLU"
  bottom: "res2a_branch2a1"
  top: "res2a_branch2a1"
}
layer {
  name: "res2a_branch2b1"
  type: "Convolution"
  bottom: "res2a_branch2a1"
  top: "res2a_branch2b1"
  convolution_param {
    num_output: 64
    bias_term: false
    pad: 1
    kernel_size: 3
    stride: 1
    weight_filler {
      type: "msra"
    }
  }
}
layer {
  name: "bn2a_branch2b1"
  type: "BatchNorm"
  bottom: "res2a_branch2b1"
  top: "res2a_branch2b1"
  batch_norm_param {
    use_global_stats: false
  }
}
layer {
  name: "scale2a_branch2b1"
  type: "Scale"
  bottom: "res2a_branch2b1"
  top: "res2a_branch2b1"
  scale_param {
    bias_term: true
  }
}
layer {
  name: "res2a1"
  type: "Eltwise"
  bottom: "res2a_branch11"
  bottom: "res2a_branch2b1"
  top: "res2a1"
  eltwise_param {
    operation: SUM
  }
}
layer {
  name: "res2a_relu1"
  type: "ReLU"
  bottom: "res2a1"
  top: "res2a1"
}
layer {
  name: "res2b_branch2a1"
  type: "Convolution"
  bottom: "res2a1"
  top: "res2b_branch2a1"
  convolution_param {
    num_output: 64
    bias_term: false
    pad: 1
    kernel_size: 3
    stride: 1
    weight_filler {
      type: "msra"
    }
  }
}
layer {
  name: "bn2b_branch2a1"
  type: "BatchNorm"
  bottom: "res2b_branch2a1"
  top: "res2b_branch2a1"
  batch_norm_param {
    use_global_stats: false
  }
}
layer {
  name: "scale2b_branch2a1"
  type: "Scale"
  bottom: "res2b_branch2a1"
  top: "res2b_branch2a1"
  scale_param {
    bias_term: true
  }
}
layer {
  name: "res2b_branch2a_relu1"
  type: "ReLU"
  bottom: "res2b_branch2a1"
  top: "res2b_branch2a1"
}
layer {
  name: "res2b_branch2b1"
  type: "Convolution"
  bottom: "res2b_branch2a1"
  top: "res2b_branch2b1"
  convolution_param {
    num_output: 64
    bias_term: false
    pad: 1
    kernel_size: 3
    stride: 1
    weight_filler {
      type: "msra"
    }
  }
}
layer {
  name: "bn2b_branch2b1"
  type: "BatchNorm"
  bottom: "res2b_branch2b1"
  top: "res2b_branch2b1"
  batch_norm_param {
    use_global_stats: false
  }
}
layer {
  name: "scale2b_branch2b1"
  type: "Scale"
  bottom: "res2b_branch2b1"
  top: "res2b_branch2b1"
  scale_param {
    bias_term: true
  }
}
layer {
  name: "res2b1"
  type: "Eltwise"
  bottom: "res2a1"
  bottom: "res2b_branch2b1"
  top: "res2b1"
  eltwise_param {
    operation: SUM
  }
}
layer {
  name: "res2b_relu1"
  type: "ReLU"
  bottom: "res2b1"
  top: "res2b1"
}
layer {
  name: "res3a_branch11"
  type: "Convolution"
  bottom: "res2b1"
  top: "res3a_branch11"
  convolution_param {
    num_output: 128
    bias_term: false
    pad: 0
    kernel_size: 1
    stride: 2
    weight_filler {
      type: "msra"
    }
  }
}
layer {
  name: "bn3a_branch11"
  type: "BatchNorm"
  bottom: "res3a_branch11"
  top: "res3a_branch11"
  batch_norm_param {
    use_global_stats: false
  }
}
layer {
  name: "scale3a_branch11"
  type: "Scale"
  bottom: "res3a_branch11"
  top: "res3a_branch11"
  scale_param {
    bias_term: true
  }
}
layer {
  name: "res3a_branch2a1"
  type: "Convolution"
  bottom: "res2b1"
  top: "res3a_branch2a1"
  convolution_param {
    num_output: 128
    bias_term: false
    pad: 1
    kernel_size: 3
    stride: 2
    weight_filler {
      type: "msra"
    }
  }
}
layer {
  name: "bn3a_branch2a1"
  type: "BatchNorm"
  bottom: "res3a_branch2a1"
  top: "res3a_branch2a1"
  batch_norm_param {
    use_global_stats: false
  }
}
layer {
  name: "scale3a_branch2a1"
  type: "Scale"
  bottom: "res3a_branch2a1"
  top: "res3a_branch2a1"
  scale_param {
    bias_term: true
  }
}
layer {
  name: "res3a_branch2a_relu1"
  type: "ReLU"
  bottom: "res3a_branch2a1"
  top: "res3a_branch2a1"
}
layer {
  name: "res3a_branch2b1"
  type: "Convolution"
  bottom: "res3a_branch2a1"
  top: "res3a_branch2b1"
  convolution_param {
    num_output: 128
    bias_term: false
    pad: 1
    kernel_size: 3
    stride: 1
    weight_filler {
      type: "msra"
    }
  }
}
layer {
  name: "bn3a_branch2b1"
  type: "BatchNorm"
  bottom: "res3a_branch2b1"
  top: "res3a_branch2b1"
  batch_norm_param {
    use_global_stats: false
  }
}
layer {
  name: "scale3a_branch2b1"
  type: "Scale"
  bottom: "res3a_branch2b1"
  top: "res3a_branch2b1"
  scale_param {
    bias_term: true
  }
}
layer {
  name: "res3a1"
  type: "Eltwise"
  bottom: "res3a_branch11"
  bottom: "res3a_branch2b1"
  top: "res3a1"
  eltwise_param {
    operation: SUM
  }
}
layer {
  name: "res3a_relu1"
  type: "ReLU"
  bottom: "res3a1"
  top: "res3a1"
}
layer {
  name: "res3b_branch2a1"
  type: "Convolution"
  bottom: "res3a1"
  top: "res3b_branch2a1"
  convolution_param {
    num_output: 128
    bias_term: false
    pad: 1
    kernel_size: 3
    stride: 1
    weight_filler {
      type: "msra"
    }
  }
}
layer {
  name: "bn3b_branch2a1"
  type: "BatchNorm"
  bottom: "res3b_branch2a1"
  top: "res3b_branch2a1"
  batch_norm_param {
    use_global_stats: false
  }
}
layer {
  name: "scale3b_branch2a1"
  type: "Scale"
  bottom: "res3b_branch2a1"
  top: "res3b_branch2a1"
  scale_param {
    bias_term: true
  }
}
layer {
  name: "res3b_branch2a_relu1"
  type: "ReLU"
  bottom: "res3b_branch2a1"
  top: "res3b_branch2a1"
}
layer {
  name: "res3b_branch2b1"
  type: "Convolution"
  bottom: "res3b_branch2a1"
  top: "res3b_branch2b1"
  convolution_param {
    num_output: 128
    bias_term: false
    pad: 1
    kernel_size: 3
    stride: 1
    weight_filler {
      type: "msra"
    }
  }
}
layer {
  name: "bn3b_branch2b1"
  type: "BatchNorm"
  bottom: "res3b_branch2b1"
  top: "res3b_branch2b1"
  batch_norm_param {
    use_global_stats: false
  }
}
layer {
  name: "scale3b_branch2b1"
  type: "Scale"
  bottom: "res3b_branch2b1"
  top: "res3b_branch2b1"
  scale_param {
    bias_term: true
  }
}
layer {
  name: "res3b1"
  type: "Eltwise"
  bottom: "res3a1"
  bottom: "res3b_branch2b1"
  top: "res3b1"
  eltwise_param {
    operation: SUM
  }
}
layer {
  name: "res3b_relu1"
  type: "ReLU"
  bottom: "res3b1"
  top: "res3b1"
}
layer {
  name: "res4a_branch11"
  type: "Convolution"
  bottom: "res3b1"
  top: "res4a_branch11"
  convolution_param {
    num_output: 256
    bias_term: false
    pad: 0
    kernel_size: 1
    stride: 2
    weight_filler {
      type: "msra"
    }
  }
}
layer {
  name: "bn4a_branch11"
  type: "BatchNorm"
  bottom: "res4a_branch11"
  top: "res4a_branch11"
  batch_norm_param {
    use_global_stats: false
  }
}
layer {
  name: "scale4a_branch11"
  type: "Scale"
  bottom: "res4a_branch11"
  top: "res4a_branch11"
  scale_param {
    bias_term: true
  }
}
layer {
  name: "res4a_branch2a1"
  type: "Convolution"
  bottom: "res3b1"
  top: "res4a_branch2a1"
  convolution_param {
    num_output: 256
    bias_term: false
    pad: 1
    kernel_size: 3
    stride: 2
    weight_filler {
      type: "msra"
    }
  }
}
layer {
  name: "bn4a_branch2a1"
  type: "BatchNorm"
  bottom: "res4a_branch2a1"
  top: "res4a_branch2a1"
  batch_norm_param {
    use_global_stats: false
  }
}
layer {
  name: "scale4a_branch2a1"
  type: "Scale"
  bottom: "res4a_branch2a1"
  top: "res4a_branch2a1"
  scale_param {
    bias_term: true
  }
}
layer {
  name: "res4a_branch2a_relu1"
  type: "ReLU"
  bottom: "res4a_branch2a1"
  top: "res4a_branch2a1"
}
layer {
  name: "res4a_branch2b1"
  type: "Convolution"
  bottom: "res4a_branch2a1"
  top: "res4a_branch2b1"
  convolution_param {
    num_output: 256
    bias_term: false
    pad: 1
    kernel_size: 3
    stride: 1
    weight_filler {
      type: "msra"
    }
  }
}
layer {
  name: "bn4a_branch2b1"
  type: "BatchNorm"
  bottom: "res4a_branch2b1"
  top: "res4a_branch2b1"
  batch_norm_param {
    use_global_stats: false
  }
}
layer {
  name: "scale4a_branch2b1"
  type: "Scale"
  bottom: "res4a_branch2b1"
  top: "res4a_branch2b1"
  scale_param {
    bias_term: true
  }
}
layer {
  name: "res4a1"
  type: "Eltwise"
  bottom: "res4a_branch11"
  bottom: "res4a_branch2b1"
  top: "res4a1"
  eltwise_param {
    operation: SUM
  }
}
layer {
  name: "res4a_relu1"
  type: "ReLU"
  bottom: "res4a1"
  top: "res4a1"
}
layer {
  name: "res4b_branch2a1"
  type: "Convolution"
  bottom: "res4a1"
  top: "res4b_branch2a1"
  convolution_param {
    num_output: 256
    bias_term: false
    pad: 1
    kernel_size: 3
    stride: 1
    weight_filler {
      type: "msra"
    }
  }
}
layer {
  name: "bn4b_branch2a1"
  type: "BatchNorm"
  bottom: "res4b_branch2a1"
  top: "res4b_branch2a1"
  batch_norm_param {
    use_global_stats: false
  }
}
layer {
  name: "scale4b_branch2a1"
  type: "Scale"
  bottom: "res4b_branch2a1"
  top: "res4b_branch2a1"
  scale_param {
    bias_term: true
  }
}
layer {
  name: "res4b_branch2a_relu1"
  type: "ReLU"
  bottom: "res4b_branch2a1"
  top: "res4b_branch2a1"
}
layer {
  name: "res4b_branch2b1"
  type: "Convolution"
  bottom: "res4b_branch2a1"
  top: "res4b_branch2b1"
  convolution_param {
    num_output: 256
    bias_term: false
    pad: 1
    kernel_size: 3
    stride: 1
    weight_filler {
      type: "msra"
    }
  }
}
layer {
  name: "bn4b_branch2b1"
  type: "BatchNorm"
  bottom: "res4b_branch2b1"
  top: "res4b_branch2b1"
  batch_norm_param {
    use_global_stats: false
  }
}
layer {
  name: "scale4b_branch2b1"
  type: "Scale"
  bottom: "res4b_branch2b1"
  top: "res4b_branch2b1"
  scale_param {
    bias_term: true
  }
}
layer {
  name: "res4b1"
  type: "Eltwise"
  bottom: "res4a1"
  bottom: "res4b_branch2b1"
  top: "res4b1"
  eltwise_param {
    operation: SUM
  }
}
layer {
  name: "res4b_relu1"
  type: "ReLU"
  bottom: "res4b1"
  top: "res4b1"
}
layer {
  name: "res5a_branch11"
  type: "Convolution"
  bottom: "res4b1"
  top: "res5a_branch11"
  convolution_param {
    num_output: 512
    bias_term: false
    pad: 0
    kernel_size: 1
    stride: 2
    weight_filler {
      type: "msra"
    }
  }
}
layer {
  name: "bn5a_branch11"
  type: "BatchNorm"
  bottom: "res5a_branch11"
  top: "res5a_branch11"
  batch_norm_param {
    use_global_stats: false
  }
}
layer {
  name: "scale5a_branch11"
  type: "Scale"
  bottom: "res5a_branch11"
  top: "res5a_branch11"
  scale_param {
    bias_term: true
  }
}
layer {
  name: "res5a_branch2a1"
  type: "Convolution"
  bottom: "res4b1"
  top: "res5a_branch2a1"
  convolution_param {
    num_output: 512
    bias_term: false
    pad: 1
    kernel_size: 3
    stride: 2
    weight_filler {
      type: "msra"
    }
  }
}
layer {
  name: "bn5a_branch2a1"
  type: "BatchNorm"
  bottom: "res5a_branch2a1"
  top: "res5a_branch2a1"
  batch_norm_param {
    use_global_stats: false
  }
}
layer {
  name: "scale5a_branch2a1"
  type: "Scale"
  bottom: "res5a_branch2a1"
  top: "res5a_branch2a1"
  scale_param {
    bias_term: true
  }
}
layer {
  name: "res5a_branch2a_relu1"
  type: "ReLU"
  bottom: "res5a_branch2a1"
  top: "res5a_branch2a1"
}
layer {
  name: "res5a_branch2b1"
  type: "Convolution"
  bottom: "res5a_branch2a1"
  top: "res5a_branch2b1"
  convolution_param {
    num_output: 512
    bias_term: false
    pad: 1
    kernel_size: 3
    stride: 1
    weight_filler {
      type: "msra"
    }
  }
}
layer {
  name: "bn5a_branch2b1"
  type: "BatchNorm"
  bottom: "res5a_branch2b1"
  top: "res5a_branch2b1"
  batch_norm_param {
    use_global_stats: false
  }
}
layer {
  name: "scale5a_branch2b1"
  type: "Scale"
  bottom: "res5a_branch2b1"
  top: "res5a_branch2b1"
  scale_param {
    bias_term: true
  }
}
layer {
  name: "res5a1"
  type: "Eltwise"
  bottom: "res5a_branch11"
  bottom: "res5a_branch2b1"
  top: "res5a1"
  eltwise_param {
    operation: SUM
  }
}
layer {
  name: "res5a_relu1"
  type: "ReLU"
  bottom: "res5a1"
  top: "res5a1"
}
layer {
  name: "res5b_branch2a1"
  type: "Convolution"
  bottom: "res5a1"
  top: "res5b_branch2a1"
  convolution_param {
    num_output: 512
    bias_term: false
    pad: 1
    kernel_size: 3
    stride: 1
    weight_filler {
      type:
I0922 16:11:58.555660  8100 layer_factory.hpp:77] Creating layer data
I0922 16:11:58.557654  8100 net.cpp:100] Creating Layer data
I0922 16:11:58.558660  8100 net.cpp:418] data -> data
I0922 16:11:58.558660  8100 net.cpp:418] data -> label
I0922 16:11:58.558660  8100 data_transformer.cpp:25] Loading mean file from: D:\Profiles\Huang-project\WheatClass\Train-File\WFFN_img\trainimgmean.binaryproto
I0922 16:11:58.563650  6596 db_leveldb.cpp:18] Opened leveldb D:\Profiles\Huang-project\WheatClass\Train-File\WFFN_img\trainldb
I0922 16:11:58.581619  8100 data_layer.cpp:41] output data size: 20,3,256,256
I0922 16:11:58.607522  8100 net.cpp:150] Setting up data
I0922 16:11:58.608520  8100 net.cpp:157] Top shape: 20 3 256 256 (3932160)
I0922 16:11:58.608520  8100 net.cpp:157] Top shape: 20 (20)
I0922 16:11:58.609515  8100 net.cpp:165] Memory required for data: 15728720
I0922 16:11:58.610512  8100 layer_factory.hpp:77] Creating layer data_data_0_split
I0922 16:11:58.611510  8100 net.cpp:100] Creating Layer data_data_0_split
I0922 16:11:58.611510  8100 net.cpp:444] data_data_0_split <- data
I0922 16:11:58.612507  8100 net.cpp:418] data_data_0_split -> data_data_0_split_0
I0922 16:11:58.612507  8100 net.cpp:418] data_data_0_split -> data_data_0_split_1
I0922 16:11:58.612507  8100 net.cpp:150] Setting up data_data_0_split
I0922 16:11:58.613505  8100 net.cpp:157] Top shape: 20 3 256 256 (3932160)
I0922 16:11:58.613505  8100 net.cpp:157] Top shape: 20 3 256 256 (3932160)
I0922 16:11:58.614502  8100 net.cpp:165] Memory required for data: 47186000
I0922 16:11:58.615500  8100 layer_factory.hpp:77] Creating layer label_data_1_split
I0922 16:11:58.617496  8100 net.cpp:100] Creating Layer label_data_1_split
I0922 16:11:58.618492  8100 net.cpp:444] label_data_1_split <- label
I0922 16:11:58.619490  8100 net.cpp:418] label_data_1_split -> label_data_1_split_0
I0922 16:11:58.620487  8100 net.cpp:418] label_data_1_split -> label_data_1_split_1
I0922 16:11:58.620487  8100 net.cpp:418] label_data_1_split -> label_data_1_split_2
I0922 16:11:58.621484  8100 net.cpp:150] Setting up label_data_1_split
I0922 16:11:58.621484  8100 net.cpp:157] Top shape: 20 (20)
I0922 16:11:58.622481  8100 net.cpp:157] Top shape: 20 (20)
I0922 16:11:58.623478  8100 net.cpp:157] Top shape: 20 (20)
I0922 16:11:58.623478  8100 net.cpp:165] Memory required for data: 47186240
I0922 16:11:58.624475  8100 layer_factory.hpp:77] Creating layer conv1
I0922 16:11:58.624475  8100 net.cpp:100] Creating Layer conv1
I0922 16:11:58.625473  8100 net.cpp:444] conv1 <- data_data_0_split_0
I0922 16:11:58.625473  8100 net.cpp:418] conv1 -> conv1
I0922 16:11:59.374469  8100 net.cpp:150] Setting up conv1
I0922 16:11:59.374469  8100 net.cpp:157] Top shape: 20 64 128 128 (20971520)
I0922 16:11:59.375468  8100 net.cpp:165] Memory required for data: 131072320
I0922 16:11:59.375468  8100 layer_factory.hpp:77] Creating layer bn_conv1
I0922 16:11:59.376464  8100 net.cpp:100] Creating Layer bn_conv1
I0922 16:11:59.376464  8100 net.cpp:444] bn_conv1 <- conv1
I0922 16:11:59.377461  8100 net.cpp:405] bn_conv1 -> conv1 (in-place)
I0922 16:11:59.377461  8100 net.cpp:150] Setting up bn_conv1
I0922 16:11:59.377461  8100 net.cpp:157] Top shape: 20 64 128 128 (20971520)
I0922 16:11:59.378458  8100 net.cpp:165] Memory required for data: 214958400
I0922 16:11:59.378458  8100 layer_factory.hpp:77] Creating layer scale_conv1
I0922 16:11:59.379456  8100 net.cpp:100] Creating Layer scale_conv1
I0922 16:11:59.379456  8100 net.cpp:444] scale_conv1 <- conv1
I0922 16:11:59.380453  8100 net.cpp:405] scale_conv1 -> conv1 (in-place)
I0922 16:11:59.381451  8100 layer_factory.hpp:77] Creating layer scale_conv1
I0922 16:11:59.382447  8100 net.cpp:150] Setting up scale_conv1
I0922 16:11:59.382447  8100 net.cpp:157] Top shape: 20 64 128 128 (20971520)
I0922 16:11:59.385440  8100 net.cpp:165] Memory required for data: 298844480
I0922 16:11:59.385440  8100 layer_factory.hpp:77] Creating layer conv1_relu
I0922 16:11:59.386438  8100 net.cpp:100] Creating Layer conv1_relu
I0922 16:11:59.386438  8100 net.cpp:444] conv1_relu <- conv1
I0922 16:11:59.387436  8100 net.cpp:405] conv1_relu -> conv1 (in-place)
I0922 16:11:59.388432  8100 net.cpp:150] Setting up conv1_relu
I0922 16:11:59.389430  8100 net.cpp:157] Top shape: 20 64 128 128 (20971520)
I0922 16:11:59.389430  8100 net.cpp:165] Memory required for data: 382730560
I0922 16:11:59.390426  8100 layer_factory.hpp:77] Creating layer pool1
I0922 16:11:59.391435  8100 net.cpp:100] Creating Layer pool1
I0922 16:11:59.391435  8100 net.cpp:444] pool1 <- conv1
I0922 16:11:59.391435  8100 net.cpp:418] pool1 -> pool1
I0922 16:11:59.392421  8100 net.cpp:150] Setting up pool1
I0922 16:11:59.392421  8100 net.cpp:157] Top shape: 20 64 64 64 (5242880)
I0922 16:11:59.394443  8100 net.cpp:165] Memory required for data: 403702080
I0922 16:11:59.394443  8100 layer_factory.hpp:77] Creating layer pool1_pool1_0_split
I0922 16:11:59.395412  8100 net.cpp:100] Creating Layer pool1_pool1_0_split
I0922 16:11:59.395412  8100 net.cpp:444] pool1_pool1_0_split <- pool1
I0922 16:11:59.396411  8100 net.cpp:418] pool1_pool1_0_split -> pool1_pool1_0_split_0
I0922 16:11:59.397408  8100 net.cpp:418] pool1_pool1_0_split -> pool1_pool1_0_split_1
I0922 16:11:59.397408  8100 net.cpp:150] Setting up pool1_pool1_0_split
I0922 16:11:59.397408  8100 net.cpp:157] Top shape: 20 64 64 64 (5242880)
I0922 16:11:59.398406  8100 net.cpp:157] Top shape: 20 64 64 64 (5242880)
I0922 16:11:59.398406  8100 net.cpp:165] Memory required for data: 445645120
I0922 16:11:59.399402  8100 layer_factory.hpp:77] Creating layer res2a_branch1
I0922 16:11:59.399402  8100 net.cpp:100] Creating Layer res2a_branch1
I0922 16:11:59.400404  8100 net.cpp:444] res2a_branch1 <- pool1_pool1_0_split_0
I0922 16:11:59.400404  8100 net.cpp:418] res2a_branch1 -> res2a_branch1
I0922 16:11:59.406384  8100 net.cpp:150] Setting up res2a_branch1
I0922 16:11:59.406384  8100 net.cpp:157] Top shape: 20 64 64 64 (5242880)
I0922 16:11:59.407385  8100 net.cpp:165] Memory required for data: 466616640
I0922 16:11:59.407385  8100 layer_factory.hpp:77] Creating layer bn2a_branch1
I0922 16:11:59.408380  8100 net.cpp:100] Creating Layer bn2a_branch1
I0922 16:11:59.408380  8100 net.cpp:444] bn2a_branch1 <- res2a_branch1
I0922 16:11:59.409376  8100 net.cpp:405] bn2a_branch1 -> res2a_branch1 (in-place)
I0922 16:11:59.410374  8100 net.cpp:150] Setting up bn2a_branch1
I0922 16:11:59.410374  8100 net.cpp:157] Top shape: 20 64 64 64 (5242880)
I0922 16:11:59.411371  8100 net.cpp:165] Memory required for data: 487588160
I0922 16:11:59.411371  8100 layer_factory.hpp:77] Creating layer scale2a_branch1
I0922 16:11:59.412367  8100 net.cpp:100] Creating Layer scale2a_branch1
I0922 16:11:59.412367  8100 net.cpp:444] scale2a_branch1 <- res2a_branch1
I0922 16:11:59.412367  8100 net.cpp:405] scale2a_branch1 -> res2a_branch1 (in-place)
I0922 16:11:59.414363  8100 layer_factory.hpp:77] Creating layer scale2a_branch1
I0922 16:11:59.414363  8100 net.cpp:150] Setting up scale2a_branch1
I0922 16:11:59.414363  8100 net.cpp:157] Top shape: 20 64 64 64 (5242880)
I0922 16:11:59.416357  8100 net.cpp:165] Memory required for data: 508559680
I0922 16:11:59.416357  8100 layer_factory.hpp:77] Creating layer res2a_branch2a
I0922 16:11:59.416357  8100 net.cpp:100] Creating Layer res2a_branch2a
I0922 16:11:59.417356  8100 net.cpp:444] res2a_branch2a <- pool1_pool1_0_split_1
I0922 16:11:59.418352  8100 net.cpp:418] res2a_branch2a -> res2a_branch2a
I0922 16:11:59.423339  8100 net.cpp:150] Setting up res2a_branch2a
I0922 16:11:59.424336  8100 net.cpp:157] Top shape: 20 64 64 64 (5242880)
I0922 16:11:59.424336  8100 net.cpp:165] Memory required for data: 529531200
I0922 16:11:59.425334  8100 layer_factory.hpp:77] Creating layer bn2a_branch2a
I0922 16:11:59.425334  8100 net.cpp:100] Creating Layer bn2a_branch2a
I0922 16:11:59.426331  8100 net.cpp:444] bn2a_branch2a <- res2a_branch2a
I0922 16:11:59.426331  8100 net.cpp:405] bn2a_branch2a -> res2a_branch2a (in-place)
I0922 16:11:59.427328  8100 net.cpp:150] Setting up bn2a_branch2a
I0922 16:11:59.427328  8100 net.cpp:157] Top shape: 20 64 64 64 (5242880)
I0922 16:11:59.427328  8100 net.cpp:165] Memory required for data: 550502720
I0922 16:11:59.428325  8100 layer_factory.hpp:77] Creating layer scale2a_branch2a
I0922 16:11:59.429323  8100 net.cpp:100] Creating Layer scale2a_branch2a
I0922 16:11:59.429323  8100 net.cpp:444] scale2a_branch2a <- res2a_branch2a
I0922 16:11:59.430325  8100 net.cpp:405] scale2a_branch2a -> res2a_branch2a (in-place)
I0922 16:11:59.430325  8100 layer_factory.hpp:77] Creating layer scale2a_branch2a
I0922 16:11:59.431318  8100 net.cpp:150] Setting up scale2a_branch2a
I0922 16:11:59.431318  8100 net.cpp:157] Top shape: 20 64 64 64 (5242880)
I0922 16:11:59.431318  8100 net.cpp:165] Memory required for data: 571474240
I0922 16:11:59.433312  8100 layer_factory.hpp:77] Creating layer res2a_branch2a_relu
I0922 16:11:59.434311  8100 net.cpp:100] Creating Layer res2a_branch2a_relu
I0922 16:11:59.434311  8100 net.cpp:444] res2a_branch2a_relu <- res2a_branch2a
I0922 16:11:59.435307  8100 net.cpp:405] res2a_branch2a_relu -> res2a_branch2a (in-place)
I0922 16:11:59.437301  8100 net.cpp:150] Setting up res2a_branch2a_relu
I0922 16:11:59.437301  8100 net.cpp:157] Top shape: 20 64 64 64 (5242880)
I0922 16:11:59.438299  8100 net.cpp:165] Memory required for data: 592445760
I0922 16:11:59.438299  8100 layer_factory.hpp:77] Creating layer res2a_branch2b
I0922 16:11:59.440294  8100 net.cpp:100] Creating Layer res2a_branch2b
I0922 16:11:59.440294  8100 net.cpp:444] res2a_branch2b <- res2a_branch2a
I0922 16:11:59.441292  8100 net.cpp:418] res2a_branch2b -> res2a_branch2b
I0922 16:11:59.446276  8100 net.cpp:150] Setting up res2a_branch2b
I0922 16:11:59.446276  8100 net.cpp:157] Top shape: 20 64 64 64 (5242880)
I0922 16:11:59.447275  8100 net.cpp:165] Memory required for data: 613417280
I0922 16:11:59.448278  8100 layer_factory.hpp:77] Creating layer bn2a_branch2b
I0922 16:11:59.448278  8100 net.cpp:100] Creating Layer bn2a_branch2b
I0922 16:11:59.449270  8100 net.cpp:444] bn2a_branch2b <- res2a_branch2b
I0922 16:11:59.450266  8100 net.cpp:405] bn2a_branch2b -> res2a_branch2b (in-place)
I0922 16:11:59.450266  8100 net.cpp:150] Setting up bn2a_branch2b
I0922 16:11:59.452261  8100 net.cpp:157] Top shape: 20 64 64 64 (5242880)
I0922 16:11:59.452261  8100 net.cpp:165] Memory required for data: 634388800
I0922 16:11:59.453258  8100 layer_factory.hpp:77] Creating layer scale2a_branch2b
I0922 16:11:59.453258  8100 net.cpp:100] Creating Layer scale2a_branch2b
I0922 16:11:59.454255  8100 net.cpp:444] scale2a_branch2b <- res2a_branch2b
I0922 16:11:59.456250  8100 net.cpp:405] scale2a_branch2b -> res2a_branch2b (in-place)
I0922 16:11:59.457248  8100 layer_factory.hpp:77] Creating layer scale2a_branch2b
I0922 16:11:59.457248  8100 net.cpp:150] Setting up scale2a_branch2b
I0922 16:11:59.458246  8100 net.cpp:157] Top shape: 20 64 64 64 (5242880)
I0922 16:11:59.458246  8100 net.cpp:165] Memory required for data: 655360320
I0922 16:11:59.459244  8100 layer_factory.hpp:77] Creating layer res2a
I0922 16:11:59.459244  8100 net.cpp:100] Creating Layer res2a
I0922 16:11:59.460242  8100 net.cpp:444] res2a <- res2a_branch1
I0922 16:11:59.460242  8100 net.cpp:444] res2a <- res2a_branch2b
I0922 16:11:59.461266  8100 net.cpp:418] res2a -> res2a
I0922 16:11:59.462234  8100 net.cpp:150] Setting up res2a
I0922 16:11:59.462234  8100 net.cpp:157] Top shape: 20 64 64 64 (5242880)
I0922 16:11:59.463232  8100 net.cpp:165] Memory required for data: 676331840
I0922 16:11:59.463232  8100 layer_factory.hpp:77] Creating layer res2a_relu
I0922 16:11:59.464229  8100 net.cpp:100] Creating Layer res2a_relu
I0922 16:11:59.464229  8100 net.cpp:444] res2a_relu <- res2a
I0922 16:11:59.466224  8100 net.cpp:405] res2a_relu -> res2a (in-place)
I0922 16:11:59.467221  8100 net.cpp:150] Setting up res2a_relu
I0922 16:11:59.467221  8100 net.cpp:157] Top shape: 20 64 64 64 (5242880)
I0922 16:11:59.467221  8100 net.cpp:165] Memory required for data: 697303360
I0922 16:11:59.468219  8100 layer_factory.hpp:77] Creating layer res2a_res2a_relu_0_split
I0922 16:11:59.468219  8100 net.cpp:100] Creating Layer res2a_res2a_relu_0_split
I0922 16:11:59.469216  8100 net.cpp:444] res2a_res2a_relu_0_split <- res2a
I0922 16:11:59.469216  8100 net.cpp:418] res2a_res2a_relu_0_split -> res2a_res2a_relu_0_split_0
I0922 16:11:59.471210  8100 net.cpp:418] res2a_res2a_relu_0_split -> res2a_res2a_relu_0_split_1
I0922 16:11:59.472208  8100 net.cpp:150] Setting up res2a_res2a_relu_0_split
I0922 16:11:59.473206  8100 net.cpp:157] Top shape: 20 64 64 64 (5242880)
I0922 16:11:59.473206  8100 net.cpp:157] Top shape: 20 64 64 64 (5242880)
I0922 16:11:59.474202  8100 net.cpp:165] Memory required for data: 739246400
I0922 16:11:59.474202  8100 layer_factory.hpp:77] Creating layer res2b_branch2a
I0922 16:11:59.475201  8100 net.cpp:100] Creating Layer res2b_branch2a
I0922 16:11:59.475201  8100 net.cpp:444] res2b_branch2a <- res2a_res2a_relu_0_split_0
I0922 16:11:59.476197  8100 net.cpp:418] res2b_branch2a -> res2b_branch2a
I0922 16:11:59.479189  8100 net.cpp:150] Setting up res2b_branch2a
I0922 16:11:59.479189  8100 net.cpp:157] Top shape: 20 64 64 64 (5242880)
I0922 16:11:59.480186  8100 net.cpp:165] Memory required for data: 760217920
I0922 16:11:59.481184  8100 layer_factory.hpp:77] Creating layer bn2b_branch2a
I0922 16:11:59.481184  8100 net.cpp:100] Creating Layer bn2b_branch2a
I0922 16:11:59.482187  8100 net.cpp:444] bn2b_branch2a <- res2b_branch2a
I0922 16:11:59.483180  8100 net.cpp:405] bn2b_branch2a -> res2b_branch2a (in-place)
I0922 16:11:59.484176  8100 net.cpp:150] Setting up bn2b_branch2a
I0922 16:11:59.484176  8100 net.cpp:157] Top shape: 20 64 64 64 (5242880)
I0922 16:11:59.485184  8100 net.cpp:165] Memory required for data: 781189440
I0922 16:11:59.486172  8100 layer_factory.hpp:77] Creating layer scale2b_branch2a
I0922 16:11:59.486172  8100 net.cpp:100] Creating Layer scale2b_branch2a
I0922 16:11:59.487169  8100 net.cpp:444] scale2b_branch2a <- res2b_branch2a
I0922 16:11:59.487169  8100 net.cpp:405] scale2b_branch2a -> res2b_branch2a (in-place)
I0922 16:11:59.488165  8100 layer_factory.hpp:77] Creating layer scale2b_branch2a
I0922 16:11:59.492156  8100 net.cpp:150] Setting up scale2b_branch2a
I0922 16:11:59.492156  8100 net.cpp:157] Top shape: 20 64 64 64 (5242880)
I0922 16:11:59.492156  8100 net.cpp:165] Memory required for data: 802160960
I0922 16:11:59.493152  8100 layer_factory.hpp:77] Creating layer res2b_branch2a_relu
I0922 16:11:59.493152  8100 net.cpp:100] Creating Layer res2b_branch2a_relu
I0922 16:11:59.495146  8100 net.cpp:444] res2b_branch2a_relu <- res2b_branch2a
I0922 16:11:59.495146  8100 net.cpp:405] res2b_branch2a_relu -> res2b_branch2a (in-place)
I0922 16:11:59.497143  8100 net.cpp:150] Setting up res2b_branch2a_relu
I0922 16:11:59.497143  8100 net.cpp:157] Top shape: 20 64 64 64 (5242880)
I0922 16:11:59.497143  8100 net.cpp:165] Memory required for data: 823132480
I0922 16:11:59.498138  8100 layer_factory.hpp:77] Creating layer res2b_branch2b
I0922 16:11:59.498138  8100 net.cpp:100] Creating Layer res2b_branch2b
I0922 16:11:59.499136  8100 net.cpp:444] res2b_branch2b <- res2b_branch2a
I0922 16:11:59.500134  8100 net.cpp:418] res2b_branch2b -> res2b_branch2b
I0922 16:11:59.504122  8100 net.cpp:150] Setting up res2b_branch2b
I0922 16:11:59.504122  8100 net.cpp:157] Top shape: 20 64 64 64 (5242880)
I0922 16:11:59.505128  8100 net.cpp:165] Memory required for data: 844104000
I0922 16:11:59.507114  8100 layer_factory.hpp:77] Creating layer bn2b_branch2b
I0922 16:11:59.507114  8100 net.cpp:100] Creating Layer bn2b_branch2b
I0922 16:11:59.508112  8100 net.cpp:444] bn2b_branch2b <- res2b_branch2b
I0922 16:11:59.509110  8100 net.cpp:405] bn2b_branch2b -> res2b_branch2b (in-place)
I0922 16:11:59.510107  8100 net.cpp:150] Setting up bn2b_branch2b
I0922 16:11:59.510107  8100 net.cpp:157] Top shape: 20 64 64 64 (5242880)
I0922 16:11:59.510107  8100 net.cpp:165] Memory required for data: 865075520
I0922 16:11:59.511104  8100 layer_factory.hpp:77] Creating layer scale2b_branch2b
I0922 16:11:59.511104  8100 net.cpp:100] Creating Layer scale2b_branch2b
I0922 16:11:59.512101  8100 net.cpp:444] scale2b_branch2b <- res2b_branch2b
I0922 16:11:59.512101  8100 net.cpp:405] scale2b_branch2b -> res2b_branch2b (in-place)
I0922 16:11:59.513111  8100 layer_factory.hpp:77] Creating layer scale2b_branch2b
I0922 16:11:59.513111  8100 net.cpp:150] Setting up scale2b_branch2b
I0922 16:11:59.513111  8100 net.cpp:157] Top shape: 20 64 64 64 (5242880)
I0922 16:11:59.514096  8100 net.cpp:165] Memory required for data: 886047040
I0922 16:11:59.514096  8100 layer_factory.hpp:77] Creating layer res2b
I0922 16:11:59.514096  8100 net.cpp:100] Creating Layer res2b
I0922 16:11:59.515094  8100 net.cpp:444] res2b <- res2a_res2a_relu_0_split_1
I0922 16:11:59.515094  8100 net.cpp:444] res2b <- res2b_branch2b
I0922 16:11:59.516091  8100 net.cpp:418] res2b -> res2b
I0922 16:11:59.516091  8100 net.cpp:150] Setting up res2b
I0922 16:11:59.518085  8100 net.cpp:157] Top shape: 20 64 64 64 (5242880)
I0922 16:11:59.518085  8100 net.cpp:165] Memory required for data: 907018560
I0922 16:11:59.519083  8100 layer_factory.hpp:77] Creating layer res2b_relu
I0922 16:11:59.519083  8100 net.cpp:100] Creating Layer res2b_relu
I0922 16:11:59.520079  8100 net.cpp:444] res2b_relu <- res2b
I0922 16:11:59.520079  8100 net.cpp:405] res2b_relu -> res2b (in-place)
I0922 16:11:59.522075  8100 net.cpp:150] Setting up res2b_relu
I0922 16:11:59.523072  8100 net.cpp:157] Top shape: 20 64 64 64 (5242880)
I0922 16:11:59.523072  8100 net.cpp:165] Memory required for data: 927990080
I0922 16:11:59.523072  8100 layer_factory.hpp:77] Creating layer res2b_res2b_relu_0_split
I0922 16:11:59.524070  8100 net.cpp:100] Creating Layer res2b_res2b_relu_0_split
I0922 16:11:59.524070  8100 net.cpp:444] res2b_res2b_relu_0_split <- res2b
I0922 16:11:59.525066  8100 net.cpp:418] res2b_res2b_relu_0_split -> res2b_res2b_relu_0_split_0
I0922 16:11:59.525066  8100 net.cpp:418] res2b_res2b_relu_0_split -> res2b_res2b_relu_0_split_1
I0922 16:11:59.526063  8100 net.cpp:150] Setting up res2b_res2b_relu_0_split
I0922 16:11:59.526063  8100 net.cpp:157] Top shape: 20 64 64 64 (5242880)
I0922 16:11:59.526063  8100 net.cpp:157] Top shape: 20 64 64 64 (5242880)
I0922 16:11:59.528059  8100 net.cpp:165] Memory required for data: 969933120
I0922 16:11:59.528059  8100 layer_factory.hpp:77] Creating layer res3a_branch1
I0922 16:11:59.528059  8100 net.cpp:100] Creating Layer res3a_branch1
I0922 16:11:59.529057  8100 net.cpp:444] res3a_branch1 <- res2b_res2b_relu_0_split_0
I0922 16:11:59.529057  8100 net.cpp:418] res3a_branch1 -> res3a_branch1
I0922 16:11:59.532047  8100 net.cpp:150] Setting up res3a_branch1
I0922 16:11:59.532047  8100 net.cpp:157] Top shape: 20 128 32 32 (2621440)
I0922 16:11:59.533046  8100 net.cpp:165] Memory required for data: 980418880
I0922 16:11:59.533046  8100 layer_factory.hpp:77] Creating layer bn3a_branch1
I0922 16:11:59.534042  8100 net.cpp:100] Creating Layer bn3a_branch1
I0922 16:11:59.534042  8100 net.cpp:444] bn3a_branch1 <- res3a_branch1
I0922 16:11:59.535039  8100 net.cpp:405] bn3a_branch1 -> res3a_branch1 (in-place)
I0922 16:11:59.537035  8100 net.cpp:150] Setting up bn3a_branch1
I0922 16:11:59.538033  8100 net.cpp:157] Top shape: 20 128 32 32 (2621440)
I0922 16:11:59.541024  8100 net.cpp:165] Memory required for data: 990904640
I0922 16:11:59.541024  8100 layer_factory.hpp:77] Creating layer scale3a_branch1
I0922 16:11:59.542021  8100 net.cpp:100] Creating Layer scale3a_branch1
I0922 16:11:59.542021  8100 net.cpp:444] scale3a_branch1 <- res3a_branch1
I0922 16:11:59.543018  8100 net.cpp:405] scale3a_branch1 -> res3a_branch1 (in-place)
I0922 16:11:59.544024  8100 layer_factory.hpp:77] Creating layer scale3a_branch1
I0922 16:11:59.544024  8100 net.cpp:150] Setting up scale3a_branch1
I0922 16:11:59.545013  8100 net.cpp:157] Top shape: 20 128 32 32 (2621440)
I0922 16:11:59.545013  8100 net.cpp:165] Memory required for data: 1001390400
I0922 16:11:59.545013  8100 layer_factory.hpp:77] Creating layer res3a_branch2a
I0922 16:11:59.547008  8100 net.cpp:100] Creating Layer res3a_branch2a
I0922 16:11:59.547008  8100 net.cpp:444] res3a_branch2a <- res2b_res2b_relu_0_split_1
I0922 16:11:59.547008  8100 net.cpp:418] res3a_branch2a -> res3a_branch2a
I0922 16:11:59.551995  8100 net.cpp:150] Setting up res3a_branch2a
I0922 16:11:59.551995  8100 net.cpp:157] Top shape: 20 128 32 32 (2621440)
I0922 16:11:59.552991  8100 net.cpp:165] Memory required for data: 1011876160
I0922 16:11:59.552991  8100 layer_factory.hpp:77] Creating layer bn3a_branch2a
I0922 16:11:59.553989  8100 net.cpp:100] Creating Layer bn3a_branch2a
I0922 16:11:59.555984  8100 net.cpp:444] bn3a_branch2a <- res3a_branch2a
I0922 16:11:59.555984  8100 net.cpp:405] bn3a_branch2a -> res3a_branch2a (in-place)
I0922 16:11:59.556982  8100 net.cpp:150] Setting up bn3a_branch2a
I0922 16:11:59.556982  8100 net.cpp:157] Top shape: 20 128 32 32 (2621440)
I0922 16:11:59.557978  8100 net.cpp:165] Memory required for data: 1022361920
I0922 16:11:59.557978  8100 layer_factory.hpp:77] Creating layer scale3a_branch2a
I0922 16:11:59.558976  8100 net.cpp:100] Creating Layer scale3a_branch2a
I0922 16:11:59.558976  8100 net.cpp:444] scale3a_branch2a <- res3a_branch2a
I0922 16:11:59.559973  8100 net.cpp:405] scale3a_branch2a -> res3a_branch2a (in-place)
I0922 16:11:59.559973  8100 layer_factory.hpp:77] Creating layer scale3a_branch2a
I0922 16:11:59.559973  8100 net.cpp:150] Setting up scale3a_branch2a
I0922 16:11:59.560971  8100 net.cpp:157] Top shape: 20 128 32 32 (2621440)
I0922 16:11:59.560971  8100 net.cpp:165] Memory required for data: 1032847680
I0922 16:11:59.560971  8100 layer_factory.hpp:77] Creating layer res3a_branch2a_relu
I0922 16:11:59.561967  8100 net.cpp:100] Creating Layer res3a_branch2a_relu
I0922 16:11:59.561967  8100 net.cpp:444] res3a_branch2a_relu <- res3a_branch2a
I0922 16:11:59.562965  8100 net.cpp:405] res3a_branch2a_relu -> res3a_branch2a (in-place)
I0922 16:11:59.563962  8100 net.cpp:150] Setting up res3a_branch2a_relu
I0922 16:11:59.564960  8100 net.cpp:157] Top shape: 20 128 32 32 (2621440)
I0922 16:11:59.564960  8100 net.cpp:165] Memory required for data: 1043333440
I0922 16:11:59.564960  8100 layer_factory.hpp:77] Creating layer res3a_branch2b
I0922 16:11:59.565956  8100 net.cpp:100] Creating Layer res3a_branch2b
I0922 16:11:59.565956  8100 net.cpp:444] res3a_branch2b <- res3a_branch2a
I0922 16:11:59.566954  8100 net.cpp:418] res3a_branch2b -> res3a_branch2b
I0922 16:11:59.573935  8100 net.cpp:150] Setting up res3a_branch2b
I0922 16:11:59.573935  8100 net.cpp:157] Top shape: 20 128 32 32 (2621440)
I0922 16:11:59.574934  8100 net.cpp:165] Memory required for data: 1053819200
I0922 16:11:59.574934  8100 layer_factory.hpp:77] Creating layer bn3a_branch2b
I0922 16:11:59.574934  8100 net.cpp:100] Creating Layer bn3a_branch2b
I0922 16:11:59.575930  8100 net.cpp:444] bn3a_branch2b <- res3a_branch2b
I0922 16:11:59.575930  8100 net.cpp:405] bn3a_branch2b -> res3a_branch2b (in-place)
I0922 16:11:59.576927  8100 net.cpp:150] Setting up bn3a_branch2b
I0922 16:11:59.576927  8100 net.cpp:157] Top shape: 20 128 32 32 (2621440)
I0922 16:11:59.576927  8100 net.cpp:165] Memory required for data: 1064304960
I0922 16:11:59.577925  8100 layer_factory.hpp:77] Creating layer scale3a_branch2b
I0922 16:11:59.577925  8100 net.cpp:100] Creating Layer scale3a_branch2b
I0922 16:11:59.577925  8100 net.cpp:444] scale3a_branch2b <- res3a_branch2b
I0922 16:11:59.578922  8100 net.cpp:405] scale3a_branch2b -> res3a_branch2b (in-place)
I0922 16:11:59.578922  8100 layer_factory.hpp:77] Creating layer scale3a_branch2b
I0922 16:11:59.579919  8100 net.cpp:150] Setting up scale3a_branch2b
I0922 16:11:59.579919  8100 net.cpp:157] Top shape: 20 128 32 32 (2621440)
I0922 16:11:59.579919  8100 net.cpp:165] Memory required for data: 1074790720
I0922 16:11:59.580916  8100 layer_factory.hpp:77] Creating layer res3a
I0922 16:11:59.580916  8100 net.cpp:100] Creating Layer res3a
I0922 16:11:59.580916  8100 net.cpp:444] res3a <- res3a_branch1
I0922 16:11:59.581914  8100 net.cpp:444] res3a <- res3a_branch2b
I0922 16:11:59.581914  8100 net.cpp:418] res3a -> res3a
I0922 16:11:59.584906  8100 net.cpp:150] Setting up res3a
I0922 16:11:59.584906  8100 net.cpp:157] Top shape: 20 128 32 32 (2621440)
I0922 16:11:59.584906  8100 net.cpp:165] Memory required for data: 1085276480
I0922 16:11:59.585903  8100 layer_factory.hpp:77] Creating layer res3a_relu
I0922 16:11:59.585903  8100 net.cpp:100] Creating Layer res3a_relu
I0922 16:11:59.586901  8100 net.cpp:444] res3a_relu <- res3a
I0922 16:11:59.587898  8100 net.cpp:405] res3a_relu -> res3a (in-place)
I0922 16:11:59.589893  8100 net.cpp:150] Setting up res3a_relu
I0922 16:11:59.589893  8100 net.cpp:157] Top shape: 20 128 32 32 (2621440)
I0922 16:11:59.590890  8100 net.cpp:165] Memory required for data: 1095762240
I0922 16:11:59.590890  8100 layer_factory.hpp:77] Creating layer res3a_res3a_relu_0_split
I0922 16:11:59.591887  8100 net.cpp:100] Creating Layer res3a_res3a_relu_0_split
I0922 16:11:59.591887  8100 net.cpp:444] res3a_res3a_relu_0_split <- res3a
I0922 16:11:59.592885  8100 net.cpp:418] res3a_res3a_relu_0_split -> res3a_res3a_relu_0_split_0
I0922 16:11:59.593883  8100 net.cpp:418] res3a_res3a_relu_0_split -> res3a_res3a_relu_0_split_1
I0922 16:11:59.593883  8100 net.cpp:150] Setting up res3a_res3a_relu_0_split
I0922 16:11:59.594879  8100 net.cpp:157] Top shape: 20 128 32 32 (2621440)
I0922 16:11:59.594879  8100 net.cpp:157] Top shape: 20 128 32 32 (2621440)
I0922 16:11:59.595877  8100 net.cpp:165] Memory required for data: 1116733760
I0922 16:11:59.595877  8100 layer_factory.hpp:77] Creating layer res3b_branch2a
I0922 16:11:59.595877  8100 net.cpp:100] Creating Layer res3b_branch2a
I0922 16:11:59.596874  8100 net.cpp:444] res3b_branch2a <- res3a_res3a_relu_0_split_0
I0922 16:11:59.596874  8100 net.cpp:418] res3b_branch2a -> res3b_branch2a
I0922 16:11:59.603855  8100 net.cpp:150] Setting up res3b_branch2a
I0922 16:11:59.603855  8100 net.cpp:157] Top shape: 20 128 32 32 (2621440)
I0922 16:11:59.605850  8100 net.cpp:165] Memory required for data: 1127219520
I0922 16:11:59.605850  8100 layer_factory.hpp:77] Creating layer bn3b_branch2a
I0922 16:11:59.606848  8100 net.cpp:100] Creating Layer bn3b_branch2a
I0922 16:11:59.606848  8100 net.cpp:444] bn3b_branch2a <- res3b_branch2a
I0922 16:11:59.607844  8100 net.cpp:405] bn3b_branch2a -> res3b_branch2a (in-place)
I0922 16:11:59.607844  8100 net.cpp:150] Setting up bn3b_branch2a
I0922 16:11:59.608842  8100 net.cpp:157] Top shape: 20 128 32 32 (2621440)
I0922 16:11:59.608842  8100 net.cpp:165] Memory required for data: 1137705280
I0922 16:11:59.608842  8100 layer_factory.hpp:77] Creating layer scale3b_branch2a
I0922 16:11:59.609839  8100 net.cpp:100] Creating Layer scale3b_branch2a
I0922 16:11:59.609839  8100 net.cpp:444] scale3b_branch2a <- res3b_branch2a
I0922 16:11:59.609839  8100 net.cpp:405] scale3b_branch2a -> res3b_branch2a (in-place)
I0922 16:11:59.610837  8100 layer_factory.hpp:77] Creating layer scale3b_branch2a
I0922 16:11:59.610837  8100 net.cpp:150] Setting up scale3b_branch2a
I0922 16:11:59.611835  8100 net.cpp:157] Top shape: 20 128 32 32 (2621440)
I0922 16:11:59.612831  8100 net.cpp:165] Memory required for data: 1148191040
I0922 16:11:59.612831  8100 layer_factory.hpp:77] Creating layer res3b_branch2a_relu
I0922 16:11:59.613829  8100 net.cpp:100] Creating Layer res3b_branch2a_relu
I0922 16:11:59.613829  8100 net.cpp:444] res3b_branch2a_relu <- res3b_branch2a
I0922 16:11:59.613829  8100 net.cpp:405] res3b_branch2a_relu -> res3b_branch2a (in-place)
I0922 16:11:59.615824  8100 net.cpp:150] Setting up res3b_branch2a_relu
I0922 16:11:59.615824  8100 net.cpp:157] Top shape: 20 128 32 32 (2621440)
I0922 16:11:59.615824  8100 net.cpp:165] Memory required for data: 1158676800
I0922 16:11:59.616822  8100 layer_factory.hpp:77] Creating layer res3b_branch2b
I0922 16:11:59.617818  8100 net.cpp:100] Creating Layer res3b_branch2b
I0922 16:11:59.617818  8100 net.cpp:444] res3b_branch2b <- res3b_branch2a
I0922 16:11:59.617818  8100 net.cpp:418] res3b_branch2b -> res3b_branch2b
I0922 16:11:59.625797  8100 net.cpp:150] Setting up res3b_branch2b
I0922 16:11:59.625797  8100 net.cpp:157] Top shape: 20 128 32 32 (2621440)
I0922 16:11:59.626794  8100 net.cpp:165] Memory required for data: 1169162560
I0922 16:11:59.626794  8100 layer_factory.hpp:77] Creating layer bn3b_branch2b
I0922 16:11:59.626794  8100 net.cpp:100] Creating Layer bn3b_branch2b
I0922 16:11:59.627791  8100 net.cpp:444] bn3b_branch2b <- res3b_branch2b
I0922 16:11:59.627791  8100 net.cpp:405] bn3b_branch2b -> res3b_branch2b (in-place)
I0922 16:11:59.628789  8100 net.cpp:150] Setting up bn3b_branch2b
I0922 16:11:59.628789  8100 net.cpp:157] Top shape: 20 128 32 32 (2621440)
I0922 16:11:59.628789  8100 net.cpp:165] Memory required for data: 1179648320
I0922 16:11:59.629786  8100 layer_factory.hpp:77] Creating layer scale3b_branch2b
I0922 16:11:59.629786  8100 net.cpp:100] Creating Layer scale3b_branch2b
I0922 16:11:59.629786  8100 net.cpp:444] scale3b_branch2b <- res3b_branch2b
I0922 16:11:59.630784  8100 net.cpp:405] scale3b_branch2b -> res3b_branch2b (in-place)
I0922 16:11:59.630784  8100 layer_factory.hpp:77] Creating layer scale3b_branch2b
I0922 16:11:59.632779  8100 net.cpp:150] Setting up scale3b_branch2b
I0922 16:11:59.632779  8100 net.cpp:157] Top shape: 20 128 32 32 (2621440)
I0922 16:11:59.633778  8100 net.cpp:165] Memory required for data: 1190134080
I0922 16:11:59.634773  8100 layer_factory.hpp:77] Creating layer res3b
I0922 16:11:59.634773  8100 net.cpp:100] Creating Layer res3b
I0922 16:11:59.635771  8100 net.cpp:444] res3b <- res3a_res3a_relu_0_split_1
I0922 16:11:59.635771  8100 net.cpp:444] res3b <- res3b_branch2b
I0922 16:11:59.636768  8100 net.cpp:418] res3b -> res3b
I0922 16:11:59.636768  8100 net.cpp:150] Setting up res3b
I0922 16:11:59.637765  8100 net.cpp:157] Top shape: 20 128 32 32 (2621440)
I0922 16:11:59.640758  8100 net.cpp:165] Memory required for data: 1200619840
I0922 16:11:59.640758  8100 layer_factory.hpp:77] Creating layer res3b_relu
I0922 16:11:59.640758  8100 net.cpp:100] Creating Layer res3b_relu
I0922 16:11:59.642752  8100 net.cpp:444] res3b_relu <- res3b
I0922 16:11:59.642752  8100 net.cpp:405] res3b_relu -> res3b (in-place)
I0922 16:11:59.644758  8100 net.cpp:150] Setting up res3b_relu
I0922 16:11:59.644758  8100 net.cpp:157] Top shape: 20 128 32 32 (2621440)
I0922 16:11:59.645743  8100 net.cpp:165] Memory required for data: 1211105600
I0922 16:11:59.645743  8100 layer_factory.hpp:77] Creating layer res3b_res3b_relu_0_split
I0922 16:11:59.645743  8100 net.cpp:100] Creating Layer res3b_res3b_relu_0_split
I0922 16:11:59.646740  8100 net.cpp:444] res3b_res3b_relu_0_split <- res3b
I0922 16:11:59.646740  8100 net.cpp:418] res3b_res3b_relu_0_split -> res3b_res3b_relu_0_split_0
I0922 16:11:59.647738  8100 net.cpp:418] res3b_res3b_relu_0_split -> res3b_res3b_relu_0_split_1
I0922 16:11:59.647738  8100 net.cpp:150] Setting up res3b_res3b_relu_0_split
I0922 16:11:59.647738  8100 net.cpp:157] Top shape: 20 128 32 32 (2621440)
I0922 16:11:59.648736  8100 net.cpp:157] Top shape: 20 128 32 32 (2621440)
I0922 16:11:59.648736  8100 net.cpp:165] Memory required for data: 1232077120
I0922 16:11:59.649732  8100 layer_factory.hpp:77] Creating layer res4a_branch1
I0922 16:11:59.649732  8100 net.cpp:100] Creating Layer res4a_branch1
I0922 16:11:59.649732  8100 net.cpp:444] res4a_branch1 <- res3b_res3b_relu_0_split_0
I0922 16:11:59.650730  8100 net.cpp:418] res4a_branch1 -> res4a_branch1
I0922 16:11:59.656714  8100 net.cpp:150] Setting up res4a_branch1
I0922 16:11:59.656714  8100 net.cpp:157] Top shape: 20 256 16 16 (1310720)
I0922 16:11:59.656714  8100 net.cpp:165] Memory required for data: 1237320000
I0922 16:11:59.657718  8100 layer_factory.hpp:77] Creating layer bn4a_branch1
I0922 16:11:59.657718  8100 net.cpp:100] Creating Layer bn4a_branch1
I0922 16:11:59.658708  8100 net.cpp:444] bn4a_branch1 <- res4a_branch1
I0922 16:11:59.658708  8100 net.cpp:405] bn4a_branch1 -> res4a_branch1 (in-place)
I0922 16:11:59.659706  8100 net.cpp:150] Setting up bn4a_branch1
I0922 16:11:59.659706  8100 net.cpp:157] Top shape: 20 256 16 16 (1310720)
I0922 16:11:59.659706  8100 net.cpp:165] Memory required for data: 1242562880
I0922 16:11:59.660703  8100 layer_factory.hpp:77] Creating layer scale4a_branch1
I0922 16:11:59.660703  8100 net.cpp:100] Creating Layer scale4a_branch1
I0922 16:11:59.660703  8100 net.cpp:444] scale4a_branch1 <- res4a_branch1
I0922 16:11:59.662698  8100 net.cpp:405] scale4a_branch1 -> res4a_branch1 (in-place)
I0922 16:11:59.662698  8100 layer_factory.hpp:77] Creating layer scale4a_branch1
I0922 16:11:59.662698  8100 net.cpp:150] Setting up scale4a_branch1
I0922 16:11:59.663695  8100 net.cpp:157] Top shape: 20 256 16 16 (1310720)
I0922 16:11:59.663695  8100 net.cpp:165] Memory required for data: 1247805760
I0922 16:11:59.663695  8100 layer_factory.hpp:77] Creating layer res4a_branch2a
I0922 16:11:59.664693  8100 net.cpp:100] Creating Layer res4a_branch2a
I0922 16:11:59.664693  8100 net.cpp:444] res4a_branch2a <- res3b_res3b_relu_0_split_1
I0922 16:11:59.665690  8100 net.cpp:418] res4a_branch2a -> res4a_branch2a
I0922 16:11:59.674666  8100 net.cpp:150] Setting up res4a_branch2a
I0922 16:11:59.674666  8100 net.cpp:157] Top shape: 20 256 16 16 (1310720)
I0922 16:11:59.674666  8100 net.cpp:165] Memory required for data: 1253048640
I0922 16:11:59.675663  8100 layer_factory.hpp:77] Creating layer bn4a_branch2a
I0922 16:11:59.675663  8100 net.cpp:100] Creating Layer bn4a_branch2a
I0922 16:11:59.676661  8100 net.cpp:444] bn4a_branch2a <- res4a_branch2a
I0922 16:11:59.676661  8100 net.cpp:405] bn4a_branch2a -> res4a_branch2a (in-place)
I0922 16:11:59.677659  8100 net.cpp:150] Setting up bn4a_branch2a
I0922 16:11:59.677659  8100 net.cpp:157] Top shape: 20 256 16 16 (1310720)
I0922 16:11:59.677659  8100 net.cpp:165] Memory required for data: 1258291520
I0922 16:11:59.678655  8100 layer_factory.hpp:77] Creating layer scale4a_branch2a
I0922 16:11:59.678655  8100 net.cpp:100] Creating Layer scale4a_branch2a
I0922 16:11:59.679653  8100 net.cpp:444] scale4a_branch2a <- res4a_branch2a
I0922 16:11:59.679653  8100 net.cpp:405] scale4a_branch2a -> res4a_branch2a (in-place)
I0922 16:11:59.679653  8100 layer_factory.hpp:77] Creating layer scale4a_branch2a
I0922 16:11:59.681648  8100 net.cpp:150] Setting up scale4a_branch2a
I0922 16:11:59.681648  8100 net.cpp:157] Top shape: 20 256 16 16 (1310720)
I0922 16:11:59.681648  8100 net.cpp:165] Memory required for data: 1263534400
I0922 16:11:59.682646  8100 layer_factory.hpp:77] Creating layer res4a_branch2a_relu
I0922 16:11:59.683643  8100 net.cpp:100] Creating Layer res4a_branch2a_relu
I0922 16:11:59.683643  8100 net.cpp:444] res4a_branch2a_relu <- res4a_branch2a
I0922 16:11:59.684640  8100 net.cpp:405] res4a_branch2a_relu -> res4a_branch2a (in-place)
I0922 16:11:59.685638  8100 net.cpp:150] Setting up res4a_branch2a_relu
I0922 16:11:59.686635  8100 net.cpp:157] Top shape: 20 256 16 16 (1310720)
I0922 16:11:59.686635  8100 net.cpp:165] Memory required for data: 1268777280
I0922 16:11:59.687633  8100 layer_factory.hpp:77] Creating layer res4a_branch2b
I0922 16:11:59.688629  8100 net.cpp:100] Creating Layer res4a_branch2b
I0922 16:11:59.689626  8100 net.cpp:444] res4a_branch2b <- res4a_branch2a
I0922 16:11:59.690624  8100 net.cpp:418] res4a_branch2b -> res4a_branch2b
I0922 16:11:59.699599  8100 net.cpp:150] Setting up res4a_branch2b
I0922 16:11:59.699599  8100 net.cpp:157] Top shape: 20 256 16 16 (1310720)
I0922 16:11:59.700597  8100 net.cpp:165] Memory required for data: 1274020160
I0922 16:11:59.701593  8100 layer_factory.hpp:77] Creating layer bn4a_branch2b
I0922 16:11:59.701593  8100 net.cpp:100] Creating Layer bn4a_branch2b
I0922 16:11:59.701593  8100 net.cpp:444] bn4a_branch2b <- res4a_branch2b
I0922 16:11:59.702592  8100 net.cpp:405] bn4a_branch2b -> res4a_branch2b (in-place)
I0922 16:11:59.703588  8100 net.cpp:150] Setting up bn4a_branch2b
I0922 16:11:59.703588  8100 net.cpp:157] Top shape: 20 256 16 16 (1310720)
I0922 16:11:59.703588  8100 net.cpp:165] Memory required for data: 1279263040
I0922 16:11:59.704586  8100 layer_factory.hpp:77] Creating layer scale4a_branch2b
I0922 16:11:59.705585  8100 net.cpp:100] Creating Layer scale4a_branch2b
I0922 16:11:59.705585  8100 net.cpp:444] scale4a_branch2b <- res4a_branch2b
I0922 16:11:59.706581  8100 net.cpp:405] scale4a_branch2b -> res4a_branch2b (in-place)
I0922 16:11:59.706581  8100 layer_factory.hpp:77] Creating layer scale4a_branch2b
I0922 16:11:59.707578  8100 net.cpp:150] Setting up scale4a_branch2b
I0922 16:11:59.707578  8100 net.cpp:157] Top shape: 20 256 16 16 (1310720)
I0922 16:11:59.707578  8100 net.cpp:165] Memory required for data: 1284505920
I0922 16:11:59.709573  8100 layer_factory.hpp:77] Creating layer res4a
I0922 16:11:59.709573  8100 net.cpp:100] Creating Layer res4a
I0922 16:11:59.710570  8100 net.cpp:444] res4a <- res4a_branch1
I0922 16:11:59.710570  8100 net.cpp:444] res4a <- res4a_branch2b
I0922 16:11:59.710570  8100 net.cpp:418] res4a -> res4a
I0922 16:11:59.711567  8100 net.cpp:150] Setting up res4a
I0922 16:11:59.711567  8100 net.cpp:157] Top shape: 20 256 16 16 (1310720)
I0922 16:11:59.711567  8100 net.cpp:165] Memory required for data: 1289748800
I0922 16:11:59.712564  8100 layer_factory.hpp:77] Creating layer res4a_relu
I0922 16:11:59.712564  8100 net.cpp:100] Creating Layer res4a_relu
I0922 16:11:59.712564  8100 net.cpp:444] res4a_relu <- res4a
I0922 16:11:59.713562  8100 net.cpp:405] res4a_relu -> res4a (in-place)
I0922 16:11:59.714560  8100 net.cpp:150] Setting up res4a_relu
I0922 16:11:59.714560  8100 net.cpp:157] Top shape: 20 256 16 16 (1310720)
I0922 16:11:59.714560  8100 net.cpp:165] Memory required for data: 1294991680
I0922 16:11:59.715557  8100 layer_factory.hpp:77] Creating layer res4a_res4a_relu_0_split
I0922 16:11:59.715557  8100 net.cpp:100] Creating Layer res4a_res4a_relu_0_split
I0922 16:11:59.716554  8100 net.cpp:444] res4a_res4a_relu_0_split <- res4a
I0922 16:11:59.716554  8100 net.cpp:418] res4a_res4a_relu_0_split -> res4a_res4a_relu_0_split_0
I0922 16:11:59.717551  8100 net.cpp:418] res4a_res4a_relu_0_split -> res4a_res4a_relu_0_split_1
I0922 16:11:59.717551  8100 net.cpp:150] Setting up res4a_res4a_relu_0_split
I0922 16:11:59.719547  8100 net.cpp:157] Top shape: 20 256 16 16 (1310720)
I0922 16:11:59.720543  8100 net.cpp:157] Top shape: 20 256 16 16 (1310720)
I0922 16:11:59.720543  8100 net.cpp:165] Memory required for data: 1305477440
I0922 16:11:59.721541  8100 layer_factory.hpp:77] Creating layer res4b_branch2a
I0922 16:11:59.722538  8100 net.cpp:100] Creating Layer res4b_branch2a
I0922 16:11:59.723536  8100 net.cpp:444] res4b_branch2a <- res4a_res4a_relu_0_split_0
I0922 16:11:59.723536  8100 net.cpp:418] res4b_branch2a -> res4b_branch2a
I0922 16:11:59.735504  8100 net.cpp:150] Setting up res4b_branch2a
I0922 16:11:59.735504  8100 net.cpp:157] Top shape: 20 256 16 16 (1310720)
I0922 16:11:59.736501  8100 net.cpp:165] Memory required for data: 1310720320
I0922 16:11:59.736501  8100 layer_factory.hpp:77] Creating layer bn4b_branch2a
I0922 16:11:59.737498  8100 net.cpp:100] Creating Layer bn4b_branch2a
I0922 16:11:59.740490  8100 net.cpp:444] bn4b_branch2a <- res4b_branch2a
I0922 16:11:59.740490  8100 net.cpp:405] bn4b_branch2a -> res4b_branch2a (in-place)
I0922 16:11:59.741499  8100 net.cpp:150] Setting up bn4b_branch2a
I0922 16:11:59.741499  8100 net.cpp:157] Top shape: 20 256 16 16 (1310720)
I0922 16:11:59.742486  8100 net.cpp:165] Memory required for data: 1315963200
I0922 16:11:59.742486  8100 layer_factory.hpp:77] Creating layer scale4b_branch2a
I0922 16:11:59.742486  8100 net.cpp:100] Creating Layer scale4b_branch2a
I0922 16:11:59.743482  8100 net.cpp:444] scale4b_branch2a <- res4b_branch2a
I0922 16:11:59.743482  8100 net.cpp:405] scale4b_branch2a -> res4b_branch2a (in-place)
I0922 16:11:59.744479  8100 layer_factory.hpp:77] Creating layer scale4b_branch2a
I0922 16:11:59.744479  8100 net.cpp:150] Setting up scale4b_branch2a
I0922 16:11:59.745476  8100 net.cpp:157] Top shape: 20 256 16 16 (1310720)
I0922 16:11:59.745476  8100 net.cpp:165] Memory required for data: 1321206080
I0922 16:11:59.745476  8100 layer_factory.hpp:77] Creating layer res4b_branch2a_relu
I0922 16:11:59.747472  8100 net.cpp:100] Creating Layer res4b_branch2a_relu
I0922 16:11:59.747472  8100 net.cpp:444] res4b_branch2a_relu <- res4b_branch2a
I0922 16:11:59.747472  8100 net.cpp:405] res4b_branch2a_relu -> res4b_branch2a (in-place)
I0922 16:11:59.749466  8100 net.cpp:150] Setting up res4b_branch2a_relu
I0922 16:11:59.749466  8100 net.cpp:157] Top shape: 20 256 16 16 (1310720)
I0922 16:11:59.749466  8100 net.cpp:165] Memory required for data: 1326448960
I0922 16:11:59.750463  8100 layer_factory.hpp:77] Creating layer res4b_branch2b
I0922 16:11:59.750463  8100 net.cpp:100] Creating Layer res4b_branch2b
I0922 16:11:59.751461  8100 net.cpp:444] res4b_branch2b <- res4b_branch2a
I0922 16:11:59.751461  8100 net.cpp:418] res4b_branch2b -> res4b_branch2b
I0922 16:11:59.763432  8100 net.cpp:150] Setting up res4b_branch2b
I0922 16:11:59.763432  8100 net.cpp:157] Top shape: 20 256 16 16 (1310720)
I0922 16:11:59.763432  8100 net.cpp:165] Memory required for data: 1331691840
I0922 16:11:59.764426  8100 layer_factory.hpp:77] Creating layer bn4b_branch2b
I0922 16:11:59.764426  8100 net.cpp:100] Creating Layer bn4b_branch2b
I0922 16:11:59.765424  8100 net.cpp:444] bn4b_branch2b <- res4b_branch2b
I0922 16:11:59.766422  8100 net.cpp:405] bn4b_branch2b -> res4b_branch2b (in-place)
I0922 16:11:59.766422  8100 net.cpp:150] Setting up bn4b_branch2b
I0922 16:11:59.766422  8100 net.cpp:157] Top shape: 20 256 16 16 (1310720)
I0922 16:11:59.767418  8100 net.cpp:165] Memory required for data: 1336934720
I0922 16:11:59.768416  8100 layer_factory.hpp:77] Creating layer scale4b_branch2b
I0922 16:11:59.768416  8100 net.cpp:100] Creating Layer scale4b_branch2b
I0922 16:11:59.769413  8100 net.cpp:444] scale4b_branch2b <- res4b_branch2b
I0922 16:11:59.769413  8100 net.cpp:405] scale4b_branch2b -> res4b_branch2b (in-place)
I0922 16:11:59.770411  8100 layer_factory.hpp:77] Creating layer scale4b_branch2b
I0922 16:11:59.771407  8100 net.cpp:150] Setting up scale4b_branch2b
I0922 16:11:59.772405  8100 net.cpp:157] Top shape: 20 256 16 16 (1310720)
I0922 16:11:59.772405  8100 net.cpp:165] Memory required for data: 1342177600
I0922 16:11:59.773402  8100 layer_factory.hpp:77] Creating layer res4b
I0922 16:11:59.773402  8100 net.cpp:100] Creating Layer res4b
I0922 16:11:59.775396  8100 net.cpp:444] res4b <- res4a_res4a_relu_0_split_1
I0922 16:11:59.775396  8100 net.cpp:444] res4b <- res4b_branch2b
I0922 16:11:59.776398  8100 net.cpp:418] res4b -> res4b
I0922 16:11:59.776398  8100 net.cpp:150] Setting up res4b
I0922 16:11:59.776398  8100 net.cpp:157] Top shape: 20 256 16 16 (1310720)
I0922 16:11:59.777391  8100 net.cpp:165] Memory required for data: 1347420480
I0922 16:11:59.777391  8100 layer_factory.hpp:77] Creating layer res4b_relu
I0922 16:11:59.778388  8100 net.cpp:100] Creating Layer res4b_relu
I0922 16:11:59.778388  8100 net.cpp:444] res4b_relu <- res4b
I0922 16:11:59.778388  8100 net.cpp:405] res4b_relu -> res4b (in-place)
I0922 16:11:59.780383  8100 net.cpp:150] Setting up res4b_relu
I0922 16:11:59.780383  8100 net.cpp:157] Top shape: 20 256 16 16 (1310720)
I0922 16:11:59.780383  8100 net.cpp:165] Memory required for data: 1352663360
I0922 16:11:59.781380  8100 layer_factory.hpp:77] Creating layer res4b_res4b_relu_0_split
I0922 16:11:59.781380  8100 net.cpp:100] Creating Layer res4b_res4b_relu_0_split
I0922 16:11:59.782378  8100 net.cpp:444] res4b_res4b_relu_0_split <- res4b
I0922 16:11:59.782378  8100 net.cpp:418] res4b_res4b_relu_0_split -> res4b_res4b_relu_0_split_0
I0922 16:11:59.783375  8100 net.cpp:418] res4b_res4b_relu_0_split -> res4b_res4b_relu_0_split_1
I0922 16:11:59.783375  8100 net.cpp:150] Setting up res4b_res4b_relu_0_split
I0922 16:11:59.785370  8100 net.cpp:157] Top shape: 20 256 16 16 (1310720)
I0922 16:11:59.786367  8100 net.cpp:157] Top shape: 20 256 16 16 (1310720)
I0922 16:11:59.786367  8100 net.cpp:165] Memory required for data: 1363149120
I0922 16:11:59.787364  8100 layer_factory.hpp:77] Creating layer res5a_branch1
I0922 16:11:59.787364  8100 net.cpp:100] Creating Layer res5a_branch1
I0922 16:11:59.788363  8100 net.cpp:444] res5a_branch1 <- res4b_res4b_relu_0_split_0
I0922 16:11:59.789360  8100 net.cpp:418] res5a_branch1 -> res5a_branch1
I0922 16:11:59.793349  8100 net.cpp:150] Setting up res5a_branch1
I0922 16:11:59.793349  8100 net.cpp:157] Top shape: 20 512 8 8 (655360)
I0922 16:11:59.793349  8100 net.cpp:165] Memory required for data: 1365770560
I0922 16:11:59.794347  8100 layer_factory.hpp:77] Creating layer bn5a_branch1
I0922 16:11:59.795343  8100 net.cpp:100] Creating Layer bn5a_branch1
I0922 16:11:59.795343  8100 net.cpp:444] bn5a_branch1 <- res5a_branch1
I0922 16:11:59.796340  8100 net.cpp:405] bn5a_branch1 -> res5a_branch1 (in-place)
I0922 16:11:59.796340  8100 net.cpp:150] Setting up bn5a_branch1
I0922 16:11:59.796340  8100 net.cpp:157] Top shape: 20 512 8 8 (655360)
I0922 16:11:59.797339  8100 net.cpp:165] Memory required for data: 1368392000
I0922 16:11:59.797339  8100 layer_factory.hpp:77] Creating layer scale5a_branch1
I0922 16:11:59.797339  8100 net.cpp:100] Creating Layer scale5a_branch1
I0922 16:11:59.798336  8100 net.cpp:444] scale5a_branch1 <- res5a_branch1
I0922 16:11:59.798336  8100 net.cpp:405] scale5a_branch1 -> res5a_branch1 (in-place)
I0922 16:11:59.799332  8100 layer_factory.hpp:77] Creating layer scale5a_branch1
I0922 16:11:59.799332  8100 net.cpp:150] Setting up scale5a_branch1
I0922 16:11:59.800329  8100 net.cpp:157] Top shape: 20 512 8 8 (655360)
I0922 16:11:59.800329  8100 net.cpp:165] Memory required for data: 1371013440
I0922 16:11:59.801328  8100 layer_factory.hpp:77] Creating layer res5a_branch2a
I0922 16:11:59.801328  8100 net.cpp:100] Creating Layer res5a_branch2a
I0922 16:11:59.802325  8100 net.cpp:444] res5a_branch2a <- res4b_res4b_relu_0_split_1
I0922 16:11:59.802325  8100 net.cpp:418] res5a_branch2a -> res5a_branch2a
I0922 16:11:59.819280  8100 net.cpp:150] Setting up res5a_branch2a
I0922 16:11:59.820276  8100 net.cpp:157] Top shape: 20 512 8 8 (655360)
I0922 16:11:59.822273  8100 net.cpp:165] Memory required for data: 1373634880
I0922 16:11:59.823269  8100 layer_factory.hpp:77] Creating layer bn5a_branch2a
I0922 16:11:59.823269  8100 net.cpp:100] Creating Layer bn5a_branch2a
I0922 16:11:59.823269  8100 net.cpp:444] bn5a_branch2a <- res5a_branch2a
I0922 16:11:59.824266  8100 net.cpp:405] bn5a_branch2a -> res5a_branch2a (in-place)
I0922 16:11:59.825263  8100 net.cpp:150] Setting up bn5a_branch2a
I0922 16:11:59.825263  8100 net.cpp:157] Top shape: 20 512 8 8 (655360)
I0922 16:11:59.825263  8100 net.cpp:165] Memory required for data: 1376256320
I0922 16:11:59.826261  8100 layer_factory.hpp:77] Creating layer scale5a_branch2a
I0922 16:11:59.826261  8100 net.cpp:100] Creating Layer scale5a_branch2a
I0922 16:11:59.826261  8100 net.cpp:444] scale5a_branch2a <- res5a_branch2a
I0922 16:11:59.827257  8100 net.cpp:405] scale5a_branch2a -> res5a_branch2a (in-place)
I0922 16:11:59.827257  8100 layer_factory.hpp:77] Creating layer scale5a_branch2a
I0922 16:11:59.828255  8100 net.cpp:150] Setting up scale5a_branch2a
I0922 16:11:59.828255  8100 net.cpp:157] Top shape: 20 512 8 8 (655360)
I0922 16:11:59.828255  8100 net.cpp:165] Memory required for data: 1378877760
I0922 16:11:59.829252  8100 layer_factory.hpp:77] Creating layer res5a_branch2a_relu
I0922 16:11:59.830250  8100 net.cpp:100] Creating Layer res5a_branch2a_relu
I0922 16:11:59.830250  8100 net.cpp:444] res5a_branch2a_relu <- res5a_branch2a
I0922 16:11:59.831246  8100 net.cpp:405] res5a_branch2a_relu -> res5a_branch2a (in-place)
I0922 16:11:59.832245  8100 net.cpp:150] Setting up res5a_branch2a_relu
I0922 16:11:59.832245  8100 net.cpp:157] Top shape: 20 512 8 8 (655360)
I0922 16:11:59.833242  8100 net.cpp:165] Memory required for data: 1381499200
I0922 16:11:59.833242  8100 layer_factory.hpp:77] Creating layer res5a_branch2b
I0922 16:11:59.835237  8100 net.cpp:100] Creating Layer res5a_branch2b
I0922 16:11:59.835237  8100 net.cpp:444] res5a_branch2b <- res5a_branch2a
I0922 16:11:59.835237  8100 net.cpp:418] res5a_branch2b -> res5a_branch2b
I0922 16:11:59.863162  8100 net.cpp:150] Setting up res5a_branch2b
I0922 16:11:59.863162  8100 net.cpp:157] Top shape: 20 512 8 8 (655360)
I0922 16:11:59.863162  8100 net.cpp:165] Memory required for data: 1384120640
I0922 16:11:59.864159  8100 layer_factory.hpp:77] Creating layer bn5a_branch2b
I0922 16:11:59.864159  8100 net.cpp:100] Creating Layer bn5a_branch2b
I0922 16:11:59.865156  8100 net.cpp:444] bn5a_branch2b <- res5a_branch2b
I0922 16:11:59.866166  8100 net.cpp:405] bn5a_branch2b -> res5a_branch2b (in-place)
I0922 16:11:59.867151  8100 net.cpp:150] Setting up bn5a_branch2b
I0922 16:11:59.867151  8100 net.cpp:157] Top shape: 20 512 8 8 (655360)
I0922 16:11:59.867151  8100 net.cpp:165] Memory required for data: 1386742080
I0922 16:11:59.868149  8100 layer_factory.hpp:77] Creating layer scale5a_branch2b
I0922 16:11:59.868149  8100 net.cpp:100] Creating Layer scale5a_branch2b
I0922 16:11:59.869146  8100 net.cpp:444] scale5a_branch2b <- res5a_branch2b
I0922 16:11:59.869146  8100 net.cpp:405] scale5a_branch2b -> res5a_branch2b (in-place)
I0922 16:11:59.870143  8100 layer_factory.hpp:77] Creating layer scale5a_branch2b
I0922 16:11:59.871140  8100 net.cpp:150] Setting up scale5a_branch2b
I0922 16:11:59.873136  8100 net.cpp:157] Top shape: 20 512 8 8 (655360)
I0922 16:11:59.873136  8100 net.cpp:165] Memory required for data: 1389363520
I0922 16:11:59.873136  8100 layer_factory.hpp:77] Creating layer res5a
I0922 16:11:59.874132  8100 net.cpp:100] Creating Layer res5a
I0922 16:11:59.874132  8100 net.cpp:444] res5a <- res5a_branch1
I0922 16:11:59.875130  8100 net.cpp:444] res5a <- res5a_branch2b
I0922 16:11:59.875130  8100 net.cpp:418] res5a -> res5a
I0922 16:11:59.875130  8100 net.cpp:150] Setting up res5a
I0922 16:11:59.876127  8100 net.cpp:157] Top shape: 20 512 8 8 (655360)
I0922 16:11:59.876127  8100 net.cpp:165] Memory required for data: 1391984960
I0922 16:11:59.876127  8100 layer_factory.hpp:77] Creating layer res5a_relu
I0922 16:11:59.877125  8100 net.cpp:100] Creating Layer res5a_relu
I0922 16:11:59.877125  8100 net.cpp:444] res5a_relu <- res5a
I0922 16:11:59.877125  8100 net.cpp:405] res5a_relu -> res5a (in-place)
I0922 16:11:59.879119  8100 net.cpp:150] Setting up res5a_relu
I0922 16:11:59.879119  8100 net.cpp:157] Top shape: 20 512 8 8 (655360)
I0922 16:11:59.879119  8100 net.cpp:165] Memory required for data: 1394606400
I0922 16:11:59.879119  8100 layer_factory.hpp:77] Creating layer res5a_res5a_relu_0_split
I0922 16:11:59.880116  8100 net.cpp:100] Creating Layer res5a_res5a_relu_0_split
I0922 16:11:59.880116  8100 net.cpp:444] res5a_res5a_relu_0_split <- res5a
I0922 16:11:59.880116  8100 net.cpp:418] res5a_res5a_relu_0_split -> res5a_res5a_relu_0_split_0
I0922 16:11:59.881114  8100 net.cpp:418] res5a_res5a_relu_0_split -> res5a_res5a_relu_0_split_1
I0922 16:11:59.882112  8100 net.cpp:150] Setting up res5a_res5a_relu_0_split
I0922 16:11:59.884107  8100 net.cpp:157] Top shape: 20 512 8 8 (655360)
I0922 16:11:59.884107  8100 net.cpp:157] Top shape: 20 512 8 8 (655360)
I0922 16:11:59.885103  8100 net.cpp:165] Memory required for data: 1399849280
I0922 16:11:59.885103  8100 layer_factory.hpp:77] Creating layer res5b_branch2a
I0922 16:11:59.886101  8100 net.cpp:100] Creating Layer res5b_branch2a
I0922 16:11:59.886101  8100 net.cpp:444] res5b_branch2a <- res5a_res5a_relu_0_split_0
I0922 16:11:59.887097  8100 net.cpp:418] res5b_branch2a -> res5b_branch2a
I0922 16:11:59.915024  8100 net.cpp:150] Setting up res5b_branch2a
I0922 16:11:59.916023  8100 net.cpp:157] Top shape: 20 512 8 8 (655360)
I0922 16:11:59.916023  8100 net.cpp:165] Memory required for data: 1402470720
I0922 16:11:59.917018  8100 layer_factory.hpp:77] Creating layer bn5b_branch2a
I0922 16:11:59.918015  8100 net.cpp:100] Creating Layer bn5b_branch2a
I0922 16:11:59.918015  8100 net.cpp:444] bn5b_branch2a <- res5b_branch2a
I0922 16:11:59.919013  8100 net.cpp:405] bn5b_branch2a -> res5b_branch2a (in-place)
I0922 16:11:59.919013  8100 net.cpp:150] Setting up bn5b_branch2a
I0922 16:11:59.920011  8100 net.cpp:157] Top shape: 20 512 8 8 (655360)
I0922 16:11:59.920011  8100 net.cpp:165] Memory required for data: 1405092160
I0922 16:11:59.920011  8100 layer_factory.hpp:77] Creating layer scale5b_branch2a
I0922 16:11:59.921007  8100 net.cpp:100] Creating Layer scale5b_branch2a
I0922 16:11:59.921007  8100 net.cpp:444] scale5b_branch2a <- res5b_branch2a
I0922 16:11:59.922004  8100 net.cpp:405] scale5b_branch2a -> res5b_branch2a (in-place)
I0922 16:11:59.922004  8100 layer_factory.hpp:77] Creating layer scale5b_branch2a
I0922 16:11:59.923002  8100 net.cpp:150] Setting up scale5b_branch2a
I0922 16:11:59.923002  8100 net.cpp:157] Top shape: 20 512 8 8 (655360)
I0922 16:11:59.923002  8100 net.cpp:165] Memory required for data: 1407713600
I0922 16:11:59.924000  8100 layer_factory.hpp:77] Creating layer res5b_branch2a_relu
I0922 16:11:59.924000  8100 net.cpp:100] Creating Layer res5b_branch2a_relu
I0922 16:11:59.925993  8100 net.cpp:444] res5b_branch2a_relu <- res5b_branch2a
I0922 16:11:59.925993  8100 net.cpp:405] res5b_branch2a_relu -> res5b_branch2a (in-place)
I0922 16:11:59.926991  8100 net.cpp:150] Setting up res5b_branch2a_relu
I0922 16:11:59.926991  8100 net.cpp:157] Top shape: 20 512 8 8 (655360)
I0922 16:11:59.927989  8100 net.cpp:165] Memory required for data: 1410335040
I0922 16:11:59.927989  8100 layer_factory.hpp:77] Creating layer res5b_branch2b
I0922 16:11:59.927989  8100 net.cpp:100] Creating Layer res5b_branch2b
I0922 16:11:59.928985  8100 net.cpp:444] res5b_branch2b <- res5b_branch2a
I0922 16:11:59.928985  8100 net.cpp:418] res5b_branch2b -> res5b_branch2b
I0922 16:11:59.957908  8100 net.cpp:150] Setting up res5b_branch2b
I0922 16:11:59.957908  8100 net.cpp:157] Top shape: 20 512 8 8 (655360)
I0922 16:11:59.957908  8100 net.cpp:165] Memory required for data: 1412956480
I0922 16:11:59.958905  8100 layer_factory.hpp:77] Creating layer bn5b_branch2b
I0922 16:11:59.958905  8100 net.cpp:100] Creating Layer bn5b_branch2b
I0922 16:11:59.959903  8100 net.cpp:444] bn5b_branch2b <- res5b_branch2b
I0922 16:11:59.959903  8100 net.cpp:405] bn5b_branch2b -> res5b_branch2b (in-place)
I0922 16:11:59.960901  8100 net.cpp:150] Setting up bn5b_branch2b
I0922 16:11:59.960901  8100 net.cpp:157] Top shape: 20 512 8 8 (655360)
I0922 16:11:59.960901  8100 net.cpp:165] Memory required for data: 1415577920
I0922 16:11:59.961897  8100 layer_factory.hpp:77] Creating layer scale5b_branch2b
I0922 16:11:59.961897  8100 net.cpp:100] Creating Layer scale5b_branch2b
I0922 16:11:59.961897  8100 net.cpp:444] scale5b_branch2b <- res5b_branch2b
I0922 16:11:59.962895  8100 net.cpp:405] scale5b_branch2b -> res5b_branch2b (in-place)
I0922 16:11:59.962895  8100 layer_factory.hpp:77] Creating layer scale5b_branch2b
I0922 16:11:59.963892  8100 net.cpp:150] Setting up scale5b_branch2b
I0922 16:11:59.963892  8100 net.cpp:157] Top shape: 20 512 8 8 (655360)
I0922 16:11:59.963892  8100 net.cpp:165] Memory required for data: 1418199360
I0922 16:11:59.964890  8100 layer_factory.hpp:77] Creating layer res5b
I0922 16:11:59.964890  8100 net.cpp:100] Creating Layer res5b
I0922 16:11:59.965888  8100 net.cpp:444] res5b <- res5a_res5a_relu_0_split_1
I0922 16:11:59.965888  8100 net.cpp:444] res5b <- res5b_branch2b
I0922 16:11:59.965888  8100 net.cpp:418] res5b -> res5b
I0922 16:11:59.967882  8100 net.cpp:150] Setting up res5b
I0922 16:11:59.968879  8100 net.cpp:157] Top shape: 20 512 8 8 (655360)
I0922 16:11:59.968879  8100 net.cpp:165] Memory required for data: 1420820800
I0922 16:11:59.968879  8100 layer_factory.hpp:77] Creating layer res5b_relu
I0922 16:11:59.969877  8100 net.cpp:100] Creating Layer res5b_relu
I0922 16:11:59.970875  8100 net.cpp:444] res5b_relu <- res5b
I0922 16:11:59.970875  8100 net.cpp:405] res5b_relu -> res5b (in-place)
I0922 16:11:59.972868  8100 net.cpp:150] Setting up res5b_relu
I0922 16:11:59.972868  8100 net.cpp:157] Top shape: 20 512 8 8 (655360)
I0922 16:11:59.972868  8100 net.cpp:165] Memory required for data: 1423442240
I0922 16:11:59.973865  8100 layer_factory.hpp:77] Creating layer res5b_res5b_relu_0_split
I0922 16:11:59.973865  8100 net.cpp:100] Creating Layer res5b_res5b_relu_0_split
I0922 16:11:59.973865  8100 net.cpp:444] res5b_res5b_relu_0_split <- res5b
I0922 16:11:59.974864  8100 net.cpp:418] res5b_res5b_relu_0_split -> res5b_res5b_relu_0_split_0
I0922 16:11:59.974864  8100 net.cpp:418] res5b_res5b_relu_0_split -> res5b_res5b_relu_0_split_1
I0922 16:11:59.975860  8100 net.cpp:150] Setting up res5b_res5b_relu_0_split
I0922 16:11:59.975860  8100 net.cpp:157] Top shape: 20 512 8 8 (655360)
I0922 16:11:59.975860  8100 net.cpp:157] Top shape: 20 512 8 8 (655360)
I0922 16:11:59.977855  8100 net.cpp:165] Memory required for data: 1428685120
I0922 16:11:59.977855  8100 layer_factory.hpp:77] Creating layer pool_s
I0922 16:11:59.977855  8100 net.cpp:100] Creating Layer pool_s
I0922 16:11:59.978852  8100 net.cpp:444] pool_s <- res5b_res5b_relu_0_split_0
I0922 16:11:59.978852  8100 net.cpp:418] pool_s -> pool_s
I0922 16:11:59.979849  8100 net.cpp:150] Setting up pool_s
I0922 16:11:59.979849  8100 net.cpp:157] Top shape: 20 512 1 1 (10240)
I0922 16:11:59.980847  8100 net.cpp:165] Memory required for data: 1428726080
I0922 16:11:59.980847  8100 layer_factory.hpp:77] Creating layer net_6
I0922 16:11:59.981844  8100 net.cpp:100] Creating Layer net_6
I0922 16:11:59.981844  8100 net.cpp:444] net_6 <- pool_s
I0922 16:11:59.982843  8100 net.cpp:418] net_6 -> net_6
I0922 16:11:59.982843  8100 net.cpp:150] Setting up net_6
I0922 16:11:59.983839  8100 net.cpp:157] Top shape: 20 6 (120)
I0922 16:11:59.983839  8100 net.cpp:165] Memory required for data: 1428726560
I0922 16:11:59.984838  8100 layer_factory.hpp:77] Creating layer scale1_loss
I0922 16:11:59.984838  8100 net.cpp:100] Creating Layer scale1_loss
I0922 16:11:59.985834  8100 net.cpp:444] scale1_loss <- net_6
I0922 16:11:59.985834  8100 net.cpp:444] scale1_loss <- label_data_1_split_0
I0922 16:11:59.985834  8100 net.cpp:418] scale1_loss -> scale1_loss
I0922 16:11:59.989823  8100 layer_factory.hpp:77] Creating layer scale1_loss
I0922 16:11:59.991817  8100 net.cpp:150] Setting up scale1_loss
I0922 16:11:59.991817  8100 net.cpp:157] Top shape: (1)
I0922 16:11:59.991817  8100 net.cpp:160]     with loss weight 1
I0922 16:11:59.992815  8100 net.cpp:165] Memory required for data: 1428726564
I0922 16:11:59.992815  8100 layer_factory.hpp:77] Creating layer c5
I0922 16:11:59.993813  8100 net.cpp:100] Creating Layer c5
I0922 16:11:59.993813  8100 net.cpp:444] c5 <- res5b_res5b_relu_0_split_1
I0922 16:11:59.993813  8100 net.cpp:418] c5 -> c5
I0922 16:11:59.996804  8100 net.cpp:150] Setting up c5
I0922 16:11:59.996804  8100 net.cpp:157] Top shape: 20 6 8 8 (7680)
I0922 16:11:59.997802  8100 net.cpp:165] Memory required for data: 1428757284
I0922 16:11:59.997802  8100 layer_factory.hpp:77] Creating layer c5_c5_0_split
I0922 16:11:59.998800  8100 net.cpp:100] Creating Layer c5_c5_0_split
I0922 16:11:59.998800  8100 net.cpp:444] c5_c5_0_split <- c5
I0922 16:11:59.999797  8100 net.cpp:418] c5_c5_0_split -> c5_c5_0_split_0
I0922 16:11:59.999797  8100 net.cpp:418] c5_c5_0_split -> c5_c5_0_split_1
I0922 16:12:00.001791  8100 net.cpp:150] Setting up c5_c5_0_split
I0922 16:12:00.003787  8100 net.cpp:157] Top shape: 20 6 8 8 (7680)
I0922 16:12:00.006778  8100 net.cpp:157] Top shape: 20 6 8 8 (7680)
I0922 16:12:00.006778  8100 net.cpp:165] Memory required for data: 1428818724
I0922 16:12:00.007776  8100 layer_factory.hpp:77] Creating layer upP5
I0922 16:12:00.007776  8100 net.cpp:100] Creating Layer upP5
I0922 16:12:00.007776  8100 net.cpp:444] upP5 <- c5_c5_0_split_0
I0922 16:12:00.008772  8100 net.cpp:418] upP5 -> upP5
I0922 16:12:00.011765  8100 net.cpp:150] Setting up upP5
I0922 16:12:00.011765  8100 net.cpp:157] Top shape: 20 3 256 256 (3932160)
I0922 16:12:00.012764  8100 net.cpp:165] Memory required for data: 1444547364
I0922 16:12:00.012764  8100 layer_factory.hpp:77] Creating layer upP5_Sig
I0922 16:12:00.013759  8100 net.cpp:100] Creating Layer upP5_Sig
I0922 16:12:00.013759  8100 net.cpp:444] upP5_Sig <- upP5
I0922 16:12:00.013759  8100 net.cpp:405] upP5_Sig -> upP5 (in-place)
I0922 16:12:00.015754  8100 net.cpp:150] Setting up upP5_Sig
I0922 16:12:00.016752  8100 net.cpp:157] Top shape: 20 3 256 256 (3932160)
I0922 16:12:00.016752  8100 net.cpp:165] Memory required for data: 1460276004
I0922 16:12:00.017748  8100 layer_factory.hpp:77] Creating layer mul
I0922 16:12:00.017748  8100 net.cpp:100] Creating Layer mul
I0922 16:12:00.018746  8100 net.cpp:444] mul <- data_data_0_split_1
I0922 16:12:00.019743  8100 net.cpp:444] mul <- upP5
I0922 16:12:00.019743  8100 net.cpp:418] mul -> mul
I0922 16:12:00.020740  8100 net.cpp:150] Setting up mul
I0922 16:12:00.020740  8100 net.cpp:157] Top shape: 20 3 256 256 (3932160)
I0922 16:12:00.021739  8100 net.cpp:165] Memory required for data: 1476004644
I0922 16:12:00.022735  8100 layer_factory.hpp:77] Creating layer conv11
I0922 16:12:00.022735  8100 net.cpp:100] Creating Layer conv11
I0922 16:12:00.022735  8100 net.cpp:444] conv11 <- mul
I0922 16:12:00.023732  8100 net.cpp:418] conv11 -> conv11
I0922 16:12:00.026724  8100 net.cpp:150] Setting up conv11
I0922 16:12:00.026724  8100 net.cpp:157] Top shape: 20 64 128 128 (20971520)
I0922 16:12:00.027721  8100 net.cpp:165] Memory required for data: 1559890724
I0922 16:12:00.027721  8100 layer_factory.hpp:77] Creating layer bn_conv11
I0922 16:12:00.027721  8100 net.cpp:100] Creating Layer bn_conv11
I0922 16:12:00.028719  8100 net.cpp:444] bn_conv11 <- conv11
I0922 16:12:00.028719  8100 net.cpp:405] bn_conv11 -> conv11 (in-place)
I0922 16:12:00.029717  8100 net.cpp:150] Setting up bn_conv11
I0922 16:12:00.029717  8100 net.cpp:157] Top shape: 20 64 128 128 (20971520)
I0922 16:12:00.029717  8100 net.cpp:165] Memory required for data: 1643776804
I0922 16:12:00.030714  8100 layer_factory.hpp:77] Creating layer scale_conv11
I0922 16:12:00.030714  8100 net.cpp:100] Creating Layer scale_conv11
I0922 16:12:00.030714  8100 net.cpp:444] scale_conv11 <- conv11
I0922 16:12:00.031711  8100 net.cpp:405] scale_conv11 -> conv11 (in-place)
I0922 16:12:00.032709  8100 layer_factory.hpp:77] Creating layer scale_conv11
I0922 16:12:00.032709  8100 net.cpp:150] Setting up scale_conv11
I0922 16:12:00.033706  8100 net.cpp:157] Top shape: 20 64 128 128 (20971520)
I0922 16:12:00.033706  8100 net.cpp:165] Memory required for data: 1727662884
I0922 16:12:00.035701  8100 layer_factory.hpp:77] Creating layer conv11_relu
I0922 16:12:00.036698  8100 net.cpp:100] Creating Layer conv11_relu
I0922 16:12:00.036698  8100 net.cpp:444] conv11_relu <- conv11
I0922 16:12:00.037696  8100 net.cpp:405] conv11_relu -> conv11 (in-place)
I0922 16:12:00.040688  8100 net.cpp:150] Setting up conv11_relu
I0922 16:12:00.041684  8100 net.cpp:157] Top shape: 20 64 128 128 (20971520)
I0922 16:12:00.041684  8100 net.cpp:165] Memory required for data: 1811548964
I0922 16:12:00.042688  8100 layer_factory.hpp:77] Creating layer pool11
I0922 16:12:00.042688  8100 net.cpp:100] Creating Layer pool11
I0922 16:12:00.042688  8100 net.cpp:444] pool11 <- conv11
I0922 16:12:00.043679  8100 net.cpp:418] pool11 -> pool11
I0922 16:12:00.043679  8100 net.cpp:150] Setting up pool11
I0922 16:12:00.045675  8100 net.cpp:157] Top shape: 20 64 64 64 (5242880)
I0922 16:12:00.045675  8100 net.cpp:165] Memory required for data: 1832520484
I0922 16:12:00.045675  8100 layer_factory.hpp:77] Creating layer pool11_pool11_0_split
I0922 16:12:00.046671  8100 net.cpp:100] Creating Layer pool11_pool11_0_split
I0922 16:12:00.046671  8100 net.cpp:444] pool11_pool11_0_split <- pool11
I0922 16:12:00.046671  8100 net.cpp:418] pool11_pool11_0_split -> pool11_pool11_0_split_0
I0922 16:12:00.047668  8100 net.cpp:418] pool11_pool11_0_split -> pool11_pool11_0_split_1
I0922 16:12:00.047668  8100 net.cpp:150] Setting up pool11_pool11_0_split
I0922 16:12:00.048666  8100 net.cpp:157] Top shape: 20 64 64 64 (5242880)
I0922 16:12:00.048666  8100 net.cpp:157] Top shape: 20 64 64 64 (5242880)
I0922 16:12:00.049664  8100 net.cpp:165] Memory required for data: 1874463524
I0922 16:12:00.049664  8100 layer_factory.hpp:77] Creating layer res2a_branch11
I0922 16:12:00.049664  8100 net.cpp:100] Creating Layer res2a_branch11
I0922 16:12:00.050660  8100 net.cpp:444] res2a_branch11 <- pool11_pool11_0_split_0
I0922 16:12:00.051657  8100 net.cpp:418] res2a_branch11 -> res2a_branch11
I0922 16:12:00.057642  8100 net.cpp:150] Setting up res2a_branch11
I0922 16:12:00.057642  8100 net.cpp:157] Top shape: 20 64 64 64 (5242880)
I0922 16:12:00.058640  8100 net.cpp:165] Memory required for data: 1895435044
I0922 16:12:00.058640  8100 layer_factory.hpp:77] Creating layer bn2a_branch11
I0922 16:12:00.058640  8100 net.cpp:100] Creating Layer bn2a_branch11
I0922 16:12:00.059636  8100 net.cpp:444] bn2a_branch11 <- res2a_branch11
I0922 16:12:00.059636  8100 net.cpp:405] bn2a_branch11 -> res2a_branch11 (in-place)
I0922 16:12:00.060633  8100 net.cpp:150] Setting up bn2a_branch11
I0922 16:12:00.060633  8100 net.cpp:157] Top shape: 20 64 64 64 (5242880)
I0922 16:12:00.060633  8100 net.cpp:165] Memory required for data: 1916406564
I0922 16:12:00.061631  8100 layer_factory.hpp:77] Creating layer scale2a_branch11
I0922 16:12:00.061631  8100 net.cpp:100] Creating Layer scale2a_branch11
I0922 16:12:00.061631  8100 net.cpp:444] scale2a_branch11 <- res2a_branch11
I0922 16:12:00.062628  8100 net.cpp:405] scale2a_branch11 -> res2a_branch11 (in-place)
I0922 16:12:00.062628  8100 layer_factory.hpp:77] Creating layer scale2a_branch11
I0922 16:12:00.063625  8100 net.cpp:150] Setting up scale2a_branch11
I0922 16:12:00.064623  8100 net.cpp:157] Top shape: 20 64 64 64 (5242880)
I0922 16:12:00.064623  8100 net.cpp:165] Memory required for data: 1937378084
I0922 16:12:00.065620  8100 layer_factory.hpp:77] Creating layer res2a_branch2a1
I0922 16:12:00.065620  8100 net.cpp:100] Creating Layer res2a_branch2a1
I0922 16:12:00.066617  8100 net.cpp:444] res2a_branch2a1 <- pool11_pool11_0_split_1
I0922 16:12:00.066617  8100 net.cpp:418] res2a_branch2a1 -> res2a_branch2a1
I0922 16:12:00.073601  8100 net.cpp:150] Setting up res2a_branch2a1
I0922 16:12:00.073601  8100 net.cpp:157] Top shape: 20 64 64 64 (5242880)
I0922 16:12:00.074596  8100 net.cpp:165] Memory required for data: 1958349604
I0922 16:12:00.074596  8100 layer_factory.hpp:77] Creating layer bn2a_branch2a1
I0922 16:12:00.075593  8100 net.cpp:100] Creating Layer bn2a_branch2a1
I0922 16:12:00.075593  8100 net.cpp:444] bn2a_branch2a1 <- res2a_branch2a1
I0922 16:12:00.076591  8100 net.cpp:405] bn2a_branch2a1 -> res2a_branch2a1 (in-place)
I0922 16:12:00.076591  8100 net.cpp:150] Setting up bn2a_branch2a1
I0922 16:12:00.076591  8100 net.cpp:157] Top shape: 20 64 64 64 (5242880)
I0922 16:12:00.077589  8100 net.cpp:165] Memory required for data: 1979321124
I0922 16:12:00.077589  8100 layer_factory.hpp:77] Creating layer scale2a_branch2a1
I0922 16:12:00.078585  8100 net.cpp:100] Creating Layer scale2a_branch2a1
I0922 16:12:00.078585  8100 net.cpp:444] scale2a_branch2a1 <- res2a_branch2a1
I0922 16:12:00.078585  8100 net.cpp:405] scale2a_branch2a1 -> res2a_branch2a1 (in-place)
I0922 16:12:00.079583  8100 layer_factory.hpp:77] Creating layer scale2a_branch2a1
I0922 16:12:00.079583  8100 net.cpp:150] Setting up scale2a_branch2a1
I0922 16:12:00.079583  8100 net.cpp:157] Top shape: 20 64 64 64 (5242880)
I0922 16:12:00.080580  8100 net.cpp:165] Memory required for data: 2000292644
I0922 16:12:00.080580  8100 layer_factory.hpp:77] Creating layer res2a_branch2a_relu1
I0922 16:12:00.081578  8100 net.cpp:100] Creating Layer res2a_branch2a_relu1
I0922 16:12:00.081578  8100 net.cpp:444] res2a_branch2a_relu1 <- res2a_branch2a1
I0922 16:12:00.083573  8100 net.cpp:405] res2a_branch2a_relu1 -> res2a_branch2a1 (in-place)
I0922 16:12:00.085568  8100 net.cpp:150] Setting up res2a_branch2a_relu1
I0922 16:12:00.085568  8100 net.cpp:157] Top shape: 20 64 64 64 (5242880)
I0922 16:12:00.086565  8100 net.cpp:165] Memory required for data: 2021264164
I0922 16:12:00.086565  8100 layer_factory.hpp:77] Creating layer res2a_branch2b1
I0922 16:12:00.087561  8100 net.cpp:100] Creating Layer res2a_branch2b1
I0922 16:12:00.087561  8100 net.cpp:444] res2a_branch2b1 <- res2a_branch2a1
I0922 16:12:00.088559  8100 net.cpp:418] res2a_branch2b1 -> res2a_branch2b1
I0922 16:12:00.092548  8100 net.cpp:150] Setting up res2a_branch2b1
I0922 16:12:00.092548  8100 net.cpp:157] Top shape: 20 64 64 64 (5242880)
I0922 16:12:00.093546  8100 net.cpp:165] Memory required for data: 2042235684
I0922 16:12:00.093546  8100 layer_factory.hpp:77] Creating layer bn2a_branch2b1
I0922 16:12:00.094543  8100 net.cpp:100] Creating Layer bn2a_branch2b1
I0922 16:12:00.094543  8100 net.cpp:444] bn2a_branch2b1 <- res2a_branch2b1
I0922 16:12:00.094543  8100 net.cpp:405] bn2a_branch2b1 -> res2a_branch2b1 (in-place)
I0922 16:12:00.095541  8100 net.cpp:150] Setting up bn2a_branch2b1
I0922 16:12:00.095541  8100 net.cpp:157] Top shape: 20 64 64 64 (5242880)
I0922 16:12:00.096539  8100 net.cpp:165] Memory required for data: 2063207204
I0922 16:12:00.096539  8100 layer_factory.hpp:77] Creating layer scale2a_branch2b1
I0922 16:12:00.096539  8100 net.cpp:100] Creating Layer scale2a_branch2b1
I0922 16:12:00.097535  8100 net.cpp:444] scale2a_branch2b1 <- res2a_branch2b1
I0922 16:12:00.097535  8100 net.cpp:405] scale2a_branch2b1 -> res2a_branch2b1 (in-place)
I0922 16:12:00.098532  8100 layer_factory.hpp:77] Creating layer scale2a_branch2b1
I0922 16:12:00.098532  8100 net.cpp:150] Setting up scale2a_branch2b1
I0922 16:12:00.098532  8100 net.cpp:157] Top shape: 20 64 64 64 (5242880)
I0922 16:12:00.099530  8100 net.cpp:165] Memory required for data: 2084178724
I0922 16:12:00.099530  8100 layer_factory.hpp:77] Creating layer res2a1
I0922 16:12:00.100527  8100 net.cpp:100] Creating Layer res2a1
I0922 16:12:00.100527  8100 net.cpp:444] res2a1 <- res2a_branch11
I0922 16:12:00.102522  8100 net.cpp:444] res2a1 <- res2a_branch2b1
I0922 16:12:00.103519  8100 net.cpp:418] res2a1 -> res2a1
I0922 16:12:00.103519  8100 net.cpp:150] Setting up res2a1
I0922 16:12:00.103519  8100 net.cpp:157] Top shape: 20 64 64 64 (5242880)
I0922 16:12:00.105515  8100 net.cpp:165] Memory required for data: 2105150244
I0922 16:12:00.106511  8100 layer_factory.hpp:77] Creating layer res2a_relu1
I0922 16:12:00.106511  8100 net.cpp:100] Creating Layer res2a_relu1
I0922 16:12:00.106511  8100 net.cpp:444] res2a_relu1 <- res2a1
I0922 16:12:00.107508  8100 net.cpp:405] res2a_relu1 -> res2a1 (in-place)
I0922 16:12:00.108505  8100 net.cpp:150] Setting up res2a_relu1
I0922 16:12:00.109503  8100 net.cpp:157] Top shape: 20 64 64 64 (5242880)
I0922 16:12:00.109503  8100 net.cpp:165] Memory required for data: 2126121764
I0922 16:12:00.109503  8100 layer_factory.hpp:77] Creating layer res2a1_res2a_relu1_0_split
I0922 16:12:00.110500  8100 net.cpp:100] Creating Layer res2a1_res2a_relu1_0_split
I0922 16:12:00.110500  8100 net.cpp:444] res2a1_res2a_relu1_0_split <- res2a1
I0922 16:12:00.110500  8100 net.cpp:418] res2a1_res2a_relu1_0_split -> res2a1_res2a_relu1_0_split_0
I0922 16:12:00.112495  8100 net.cpp:418] res2a1_res2a_relu1_0_split -> res2a1_res2a_relu1_0_split_1
I0922 16:12:00.112495  8100 net.cpp:150] Setting up res2a1_res2a_relu1_0_split
I0922 16:12:00.112495  8100 net.cpp:157] Top shape: 20 64 64 64 (5242880)
I0922 16:12:00.113492  8100 net.cpp:157] Top shape: 20 64 64 64 (5242880)
I0922 16:12:00.113492  8100 net.cpp:165] Memory required for data: 2168064804
I0922 16:12:00.114490  8100 layer_factory.hpp:77] Creating layer res2b_branch2a1
I0922 16:12:00.114490  8100 net.cpp:100] Creating Layer res2b_branch2a1
I0922 16:12:00.114490  8100 net.cpp:444] res2b_branch2a1 <- res2a1_res2a_relu1_0_split_0
I0922 16:12:00.115486  8100 net.cpp:418] res2b_branch2a1 -> res2b_branch2a1
I0922 16:12:00.119477  8100 net.cpp:150] Setting up res2b_branch2a1
I0922 16:12:00.119477  8100 net.cpp:157] Top shape: 20 64 64 64 (5242880)
I0922 16:12:00.121471  8100 net.cpp:165] Memory required for data: 2189036324
I0922 16:12:00.122469  8100 layer_factory.hpp:77] Creating layer bn2b_branch2a1
I0922 16:12:00.123466  8100 net.cpp:100] Creating Layer bn2b_branch2a1
I0922 16:12:00.123466  8100 net.cpp:444] bn2b_branch2a1 <- res2b_branch2a1
I0922 16:12:00.124464  8100 net.cpp:405] bn2b_branch2a1 -> res2b_branch2a1 (in-place)
I0922 16:12:00.125460  8100 net.cpp:150] Setting up bn2b_branch2a1
I0922 16:12:00.125460  8100 net.cpp:157] Top shape: 20 64 64 64 (5242880)
I0922 16:12:00.125460  8100 net.cpp:165] Memory required for data: 2210007844
I0922 16:12:00.126457  8100 layer_factory.hpp:77] Creating layer scale2b_branch2a1
I0922 16:12:00.126457  8100 net.cpp:100] Creating Layer scale2b_branch2a1
I0922 16:12:00.126457  8100 net.cpp:444] scale2b_branch2a1 <- res2b_branch2a1
I0922 16:12:00.127455  8100 net.cpp:405] scale2b_branch2a1 -> res2b_branch2a1 (in-place)
I0922 16:12:00.127455  8100 layer_factory.hpp:77] Creating layer scale2b_branch2a1
I0922 16:12:00.128453  8100 net.cpp:150] Setting up scale2b_branch2a1
I0922 16:12:00.128453  8100 net.cpp:157] Top shape: 20 64 64 64 (5242880)
I0922 16:12:00.128453  8100 net.cpp:165] Memory required for data: 2230979364
I0922 16:12:00.129449  8100 layer_factory.hpp:77] Creating layer res2b_branch2a_relu1
I0922 16:12:00.129449  8100 net.cpp:100] Creating Layer res2b_branch2a_relu1
I0922 16:12:00.129449  8100 net.cpp:444] res2b_branch2a_relu1 <- res2b_branch2a1
I0922 16:12:00.130446  8100 net.cpp:405] res2b_branch2a_relu1 -> res2b_branch2a1 (in-place)
I0922 16:12:00.131444  8100 net.cpp:150] Setting up res2b_branch2a_relu1
I0922 16:12:00.132442  8100 net.cpp:157] Top shape: 20 64 64 64 (5242880)
I0922 16:12:00.132442  8100 net.cpp:165] Memory required for data: 2251950884
I0922 16:12:00.133440  8100 layer_factory.hpp:77] Creating layer res2b_branch2b1
I0922 16:12:00.133440  8100 net.cpp:100] Creating Layer res2b_branch2b1
I0922 16:12:00.134436  8100 net.cpp:444] res2b_branch2b1 <- res2b_branch2a1
I0922 16:12:00.135435  8100 net.cpp:418] res2b_branch2b1 -> res2b_branch2b1
I0922 16:12:00.142416  8100 net.cpp:150] Setting up res2b_branch2b1
I0922 16:12:00.142416  8100 net.cpp:157] Top shape: 20 64 64 64 (5242880)
I0922 16:12:00.142416  8100 net.cpp:165] Memory required for data: 2272922404
I0922 16:12:00.143414  8100 layer_factory.hpp:77] Creating layer bn2b_branch2b1
I0922 16:12:00.143414  8100 net.cpp:100] Creating Layer bn2b_branch2b1
I0922 16:12:00.144410  8100 net.cpp:444] bn2b_branch2b1 <- res2b_branch2b1
I0922 16:12:00.144410  8100 net.cpp:405] bn2b_branch2b1 -> res2b_branch2b1 (in-place)
I0922 16:12:00.145407  8100 net.cpp:150] Setting up bn2b_branch2b1
I0922 16:12:00.145407  8100 net.cpp:157] Top shape: 20 64 64 64 (5242880)
I0922 16:12:00.145407  8100 net.cpp:165] Memory required for data: 2293893924
I0922 16:12:00.146404  8100 layer_factory.hpp:77] Creating layer scale2b_branch2b1
I0922 16:12:00.146404  8100 net.cpp:100] Creating Layer scale2b_branch2b1
I0922 16:12:00.146404  8100 net.cpp:444] scale2b_branch2b1 <- res2b_branch2b1
I0922 16:12:00.147402  8100 net.cpp:405] scale2b_branch2b1 -> res2b_branch2b1 (in-place)
I0922 16:12:00.147402  8100 layer_factory.hpp:77] Creating layer scale2b_branch2b1
I0922 16:12:00.148399  8100 net.cpp:150] Setting up scale2b_branch2b1
I0922 16:12:00.148399  8100 net.cpp:157] Top shape: 20 64 64 64 (5242880)
I0922 16:12:00.149396  8100 net.cpp:165] Memory required for data: 2314865444
I0922 16:12:00.149396  8100 layer_factory.hpp:77] Creating layer res2b1
I0922 16:12:00.150394  8100 net.cpp:100] Creating Layer res2b1
I0922 16:12:00.152388  8100 net.cpp:444] res2b1 <- res2a1_res2a_relu1_0_split_1
I0922 16:12:00.152388  8100 net.cpp:444] res2b1 <- res2b_branch2b1
I0922 16:12:00.152388  8100 net.cpp:418] res2b1 -> res2b1
I0922 16:12:00.153385  8100 net.cpp:150] Setting up res2b1
I0922 16:12:00.153385  8100 net.cpp:157] Top shape: 20 64 64 64 (5242880)
I0922 16:12:00.155381  8100 net.cpp:165] Memory required for data: 2335836964
I0922 16:12:00.156378  8100 layer_factory.hpp:77] Creating layer res2b_relu1
I0922 16:12:00.156378  8100 net.cpp:100] Creating Layer res2b_relu1
I0922 16:12:00.156378  8100 net.cpp:444] res2b_relu1 <- res2b1
I0922 16:12:00.157375  8100 net.cpp:405] res2b_relu1 -> res2b1 (in-place)
I0922 16:12:00.158372  8100 net.cpp:150] Setting up res2b_relu1
I0922 16:12:00.158372  8100 net.cpp:157] Top shape: 20 64 64 64 (5242880)
I0922 16:12:00.158372  8100 net.cpp:165] Memory required for data: 2356808484
I0922 16:12:00.159369  8100 layer_factory.hpp:77] Creating layer res2b1_res2b_relu1_0_split
I0922 16:12:00.159369  8100 net.cpp:100] Creating Layer res2b1_res2b_relu1_0_split
I0922 16:12:00.159369  8100 net.cpp:444] res2b1_res2b_relu1_0_split <- res2b1
I0922 16:12:00.161365  8100 net.cpp:418] res2b1_res2b_relu1_0_split -> res2b1_res2b_relu1_0_split_0
I0922 16:12:00.161365  8100 net.cpp:418] res2b1_res2b_relu1_0_split -> res2b1_res2b_relu1_0_split_1
I0922 16:12:00.162361  8100 net.cpp:150] Setting up res2b1_res2b_relu1_0_split
I0922 16:12:00.162361  8100 net.cpp:157] Top shape: 20 64 64 64 (5242880)
I0922 16:12:00.162361  8100 net.cpp:157] Top shape: 20 64 64 64 (5242880)
I0922 16:12:00.163359  8100 net.cpp:165] Memory required for data: 2398751524
I0922 16:12:00.163359  8100 layer_factory.hpp:77] Creating layer res3a_branch11
I0922 16:12:00.163359  8100 net.cpp:100] Creating Layer res3a_branch11
I0922 16:12:00.164356  8100 net.cpp:444] res3a_branch11 <- res2b1_res2b_relu1_0_split_0
I0922 16:12:00.164356  8100 net.cpp:418] res3a_branch11 -> res3a_branch11
I0922 16:12:00.169343  8100 net.cpp:150] Setting up res3a_branch11
I0922 16:12:00.169343  8100 net.cpp:157] Top shape: 20 128 32 32 (2621440)
I0922 16:12:00.172336  8100 net.cpp:165] Memory required for data: 2409237284
I0922 16:12:00.172336  8100 layer_factory.hpp:77] Creating layer bn3a_branch11
I0922 16:12:00.173332  8100 net.cpp:100] Creating Layer bn3a_branch11
I0922 16:12:00.174329  8100 net.cpp:444] bn3a_branch11 <- res3a_branch11
I0922 16:12:00.174329  8100 net.cpp:405] bn3a_branch11 -> res3a_branch11 (in-place)
I0922 16:12:00.175328  8100 net.cpp:150] Setting up bn3a_branch11
I0922 16:12:00.175328  8100 net.cpp:157] Top shape: 20 128 32 32 (2621440)
I0922 16:12:00.175328  8100 net.cpp:165] Memory required for data: 2419723044
I0922 16:12:00.175328  8100 layer_factory.hpp:77] Creating layer scale3a_branch11
I0922 16:12:00.176324  8100 net.cpp:100] Creating Layer scale3a_branch11
I0922 16:12:00.176324  8100 net.cpp:444] scale3a_branch11 <- res3a_branch11
I0922 16:12:00.177322  8100 net.cpp:405] scale3a_branch11 -> res3a_branch11 (in-place)
I0922 16:12:00.177322  8100 layer_factory.hpp:77] Creating layer scale3a_branch11
I0922 16:12:00.178318  8100 net.cpp:150] Setting up scale3a_branch11
I0922 16:12:00.178318  8100 net.cpp:157] Top shape: 20 128 32 32 (2621440)
I0922 16:12:00.178318  8100 net.cpp:165] Memory required for data: 2430208804
I0922 16:12:00.179316  8100 layer_factory.hpp:77] Creating layer res3a_branch2a1
I0922 16:12:00.179316  8100 net.cpp:100] Creating Layer res3a_branch2a1
I0922 16:12:00.179316  8100 net.cpp:444] res3a_branch2a1 <- res2b1_res2b_relu1_0_split_1
I0922 16:12:00.181311  8100 net.cpp:418] res3a_branch2a1 -> res3a_branch2a1
I0922 16:12:00.186298  8100 net.cpp:150] Setting up res3a_branch2a1
I0922 16:12:00.186298  8100 net.cpp:157] Top shape: 20 128 32 32 (2621440)
I0922 16:12:00.188292  8100 net.cpp:165] Memory required for data: 2440694564
I0922 16:12:00.189291  8100 layer_factory.hpp:77] Creating layer bn3a_branch2a1
I0922 16:12:00.189291  8100 net.cpp:100] Creating Layer bn3a_branch2a1
I0922 16:12:00.189291  8100 net.cpp:444] bn3a_branch2a1 <- res3a_branch2a1
I0922 16:12:00.190289  8100 net.cpp:405] bn3a_branch2a1 -> res3a_branch2a1 (in-place)
I0922 16:12:00.191284  8100 net.cpp:150] Setting up bn3a_branch2a1
I0922 16:12:00.191284  8100 net.cpp:157] Top shape: 20 128 32 32 (2621440)
I0922 16:12:00.191284  8100 net.cpp:165] Memory required for data: 2451180324
I0922 16:12:00.192281  8100 layer_factory.hpp:77] Creating layer scale3a_branch2a1
I0922 16:12:00.192281  8100 net.cpp:100] Creating Layer scale3a_branch2a1
I0922 16:12:00.193279  8100 net.cpp:444] scale3a_branch2a1 <- res3a_branch2a1
I0922 16:12:00.193279  8100 net.cpp:405] scale3a_branch2a1 -> res3a_branch2a1 (in-place)
I0922 16:12:00.194277  8100 layer_factory.hpp:77] Creating layer scale3a_branch2a1
I0922 16:12:00.194277  8100 net.cpp:150] Setting up scale3a_branch2a1
I0922 16:12:00.194277  8100 net.cpp:157] Top shape: 20 128 32 32 (2621440)
I0922 16:12:00.195273  8100 net.cpp:165] Memory required for data: 2461666084
I0922 16:12:00.195273  8100 layer_factory.hpp:77] Creating layer res3a_branch2a_relu1
I0922 16:12:00.195273  8100 net.cpp:100] Creating Layer res3a_branch2a_relu1
I0922 16:12:00.196270  8100 net.cpp:444] res3a_branch2a_relu1 <- res3a_branch2a1
I0922 16:12:00.196270  8100 net.cpp:405] res3a_branch2a_relu1 -> res3a_branch2a1 (in-place)
I0922 16:12:00.197268  8100 net.cpp:150] Setting up res3a_branch2a_relu1
I0922 16:12:00.197268  8100 net.cpp:157] Top shape: 20 128 32 32 (2621440)
I0922 16:12:00.198266  8100 net.cpp:165] Memory required for data: 2472151844
I0922 16:12:00.198266  8100 layer_factory.hpp:77] Creating layer res3a_branch2b1
I0922 16:12:00.200260  8100 net.cpp:100] Creating Layer res3a_branch2b1
I0922 16:12:00.201257  8100 net.cpp:444] res3a_branch2b1 <- res3a_branch2a1
I0922 16:12:00.201257  8100 net.cpp:418] res3a_branch2b1 -> res3a_branch2b1
I0922 16:12:00.207242  8100 net.cpp:150] Setting up res3a_branch2b1
I0922 16:12:00.207242  8100 net.cpp:157] Top shape: 20 128 32 32 (2621440)
I0922 16:12:00.207242  8100 net.cpp:165] Memory required for data: 2482637604
I0922 16:12:00.208240  8100 layer_factory.hpp:77] Creating layer bn3a_branch2b1
I0922 16:12:00.208240  8100 net.cpp:100] Creating Layer bn3a_branch2b1
I0922 16:12:00.208240  8100 net.cpp:444] bn3a_branch2b1 <- res3a_branch2b1
I0922 16:12:00.209236  8100 net.cpp:405] bn3a_branch2b1 -> res3a_branch2b1 (in-place)
I0922 16:12:00.210233  8100 net.cpp:150] Setting up bn3a_branch2b1
I0922 16:12:00.210233  8100 net.cpp:157] Top shape: 20 128 32 32 (2621440)
I0922 16:12:00.211231  8100 net.cpp:165] Memory required for data: 2493123364
I0922 16:12:00.211231  8100 layer_factory.hpp:77] Creating layer scale3a_branch2b1
I0922 16:12:00.211231  8100 net.cpp:100] Creating Layer scale3a_branch2b1
I0922 16:12:00.212229  8100 net.cpp:444] scale3a_branch2b1 <- res3a_branch2b1
I0922 16:12:00.212229  8100 net.cpp:405] scale3a_branch2b1 -> res3a_branch2b1 (in-place)
I0922 16:12:00.212229  8100 layer_factory.hpp:77] Creating layer scale3a_branch2b1
I0922 16:12:00.213225  8100 net.cpp:150] Setting up scale3a_branch2b1
I0922 16:12:00.213225  8100 net.cpp:157] Top shape: 20 128 32 32 (2621440)
I0922 16:12:00.213225  8100 net.cpp:165] Memory required for data: 2503609124
I0922 16:12:00.213225  8100 layer_factory.hpp:77] Creating layer res3a1
I0922 16:12:00.213225  8100 net.cpp:100] Creating Layer res3a1
I0922 16:12:00.213225  8100 net.cpp:444] res3a1 <- res3a_branch11
I0922 16:12:00.213225  8100 net.cpp:444] res3a1 <- res3a_branch2b1
I0922 16:12:00.213225  8100 net.cpp:418] res3a1 -> res3a1
I0922 16:12:00.214223  8100 net.cpp:150] Setting up res3a1
I0922 16:12:00.214223  8100 net.cpp:157] Top shape: 20 128 32 32 (2621440)
I0922 16:12:00.214223  8100 net.cpp:165] Memory required for data: 2514094884
I0922 16:12:00.214223  8100 layer_factory.hpp:77] Creating layer res3a_relu1
I0922 16:12:00.214223  8100 net.cpp:100] Creating Layer res3a_relu1
I0922 16:12:00.214223  8100 net.cpp:444] res3a_relu1 <- res3a1
I0922 16:12:00.214223  8100 net.cpp:405] res3a_relu1 -> res3a1 (in-place)
I0922 16:12:00.215220  8100 net.cpp:150] Setting up res3a_relu1
I0922 16:12:00.215220  8100 net.cpp:157] Top shape: 20 128 32 32 (2621440)
I0922 16:12:00.215220  8100 net.cpp:165] Memory required for data: 2524580644
I0922 16:12:00.215220  8100 layer_factory.hpp:77] Creating layer res3a1_res3a_relu1_0_split
I0922 16:12:00.215220  8100 net.cpp:100] Creating Layer res3a1_res3a_relu1_0_split
I0922 16:12:00.216217  8100 net.cpp:444] res3a1_res3a_relu1_0_split <- res3a1
I0922 16:12:00.216217  8100 net.cpp:418] res3a1_res3a_relu1_0_split -> res3a1_res3a_relu1_0_split_0
I0922 16:12:00.216217  8100 net.cpp:418] res3a1_res3a_relu1_0_split -> res3a1_res3a_relu1_0_split_1
I0922 16:12:00.216217  8100 net.cpp:150] Setting up res3a1_res3a_relu1_0_split
I0922 16:12:00.216217  8100 net.cpp:157] Top shape: 20 128 32 32 (2621440)
I0922 16:12:00.216217  8100 net.cpp:157] Top shape: 20 128 32 32 (2621440)
I0922 16:12:00.216217  8100 net.cpp:165] Memory required for data: 2545552164
I0922 16:12:00.216217  8100 layer_factory.hpp:77] Creating layer res3b_branch2a1
I0922 16:12:00.216217  8100 net.cpp:100] Creating Layer res3b_branch2a1
I0922 16:12:00.216217  8100 net.cpp:444] res3b_branch2a1 <- res3a1_res3a_relu1_0_split_0
I0922 16:12:00.216217  8100 net.cpp:418] res3b_branch2a1 -> res3b_branch2a1
I0922 16:12:00.224196  8100 net.cpp:150] Setting up res3b_branch2a1
I0922 16:12:00.224196  8100 net.cpp:157] Top shape: 20 128 32 32 (2621440)
I0922 16:12:00.225193  8100 net.cpp:165] Memory required for data: 2556037924
I0922 16:12:00.225193  8100 layer_factory.hpp:77] Creating layer bn3b_branch2a1
I0922 16:12:00.225193  8100 net.cpp:100] Creating Layer bn3b_branch2a1
I0922 16:12:00.225193  8100 net.cpp:444] bn3b_branch2a1 <- res3b_branch2a1
I0922 16:12:00.225193  8100 net.cpp:405] bn3b_branch2a1 -> res3b_branch2a1 (in-place)
I0922 16:12:00.225193  8100 net.cpp:150] Setting up bn3b_branch2a1
I0922 16:12:00.226191  8100 net.cpp:157] Top shape: 20 128 32 32 (2621440)
I0922 16:12:00.226191  8100 net.cpp:165] Memory required for data: 2566523684
I0922 16:12:00.226191  8100 layer_factory.hpp:77] Creating layer scale3b_branch2a1
I0922 16:12:00.226191  8100 net.cpp:100] Creating Layer scale3b_branch2a1
I0922 16:12:00.226191  8100 net.cpp:444] scale3b_branch2a1 <- res3b_branch2a1
I0922 16:12:00.226191  8100 net.cpp:405] scale3b_branch2a1 -> res3b_branch2a1 (in-place)
I0922 16:12:00.226191  8100 layer_factory.hpp:77] Creating layer scale3b_branch2a1
I0922 16:12:00.226191  8100 net.cpp:150] Setting up scale3b_branch2a1
I0922 16:12:00.226191  8100 net.cpp:157] Top shape: 20 128 32 32 (2621440)
I0922 16:12:00.227188  8100 net.cpp:165] Memory required for data: 2577009444
I0922 16:12:00.227188  8100 layer_factory.hpp:77] Creating layer res3b_branch2a_relu1
I0922 16:12:00.227188  8100 net.cpp:100] Creating Layer res3b_branch2a_relu1
I0922 16:12:00.227188  8100 net.cpp:444] res3b_branch2a_relu1 <- res3b_branch2a1
I0922 16:12:00.227188  8100 net.cpp:405] res3b_branch2a_relu1 -> res3b_branch2a1 (in-place)
I0922 16:12:00.228185  8100 net.cpp:150] Setting up res3b_branch2a_relu1
I0922 16:12:00.228185  8100 net.cpp:157] Top shape: 20 128 32 32 (2621440)
I0922 16:12:00.228185  8100 net.cpp:165] Memory required for data: 2587495204
I0922 16:12:00.228185  8100 layer_factory.hpp:77] Creating layer res3b_branch2b1
I0922 16:12:00.228185  8100 net.cpp:100] Creating Layer res3b_branch2b1
I0922 16:12:00.228185  8100 net.cpp:444] res3b_branch2b1 <- res3b_branch2a1
I0922 16:12:00.228185  8100 net.cpp:418] res3b_branch2b1 -> res3b_branch2b1
I0922 16:12:00.234170  8100 net.cpp:150] Setting up res3b_branch2b1
I0922 16:12:00.234170  8100 net.cpp:157] Top shape: 20 128 32 32 (2621440)
I0922 16:12:00.234170  8100 net.cpp:165] Memory required for data: 2597980964
I0922 16:12:00.234170  8100 layer_factory.hpp:77] Creating layer bn3b_branch2b1
I0922 16:12:00.235167  8100 net.cpp:100] Creating Layer bn3b_branch2b1
I0922 16:12:00.235167  8100 net.cpp:444] bn3b_branch2b1 <- res3b_branch2b1
I0922 16:12:00.235167  8100 net.cpp:405] bn3b_branch2b1 -> res3b_branch2b1 (in-place)
I0922 16:12:00.235167  8100 net.cpp:150] Setting up bn3b_branch2b1
I0922 16:12:00.235167  8100 net.cpp:157] Top shape: 20 128 32 32 (2621440)
I0922 16:12:00.235167  8100 net.cpp:165] Memory required for data: 2608466724
I0922 16:12:00.235167  8100 layer_factory.hpp:77] Creating layer scale3b_branch2b1
I0922 16:12:00.236165  8100 net.cpp:100] Creating Layer scale3b_branch2b1
I0922 16:12:00.236165  8100 net.cpp:444] scale3b_branch2b1 <- res3b_branch2b1
I0922 16:12:00.236165  8100 net.cpp:405] scale3b_branch2b1 -> res3b_branch2b1 (in-place)
I0922 16:12:00.236165  8100 layer_factory.hpp:77] Creating layer scale3b_branch2b1
I0922 16:12:00.236165  8100 net.cpp:150] Setting up scale3b_branch2b1
I0922 16:12:00.236165  8100 net.cpp:157] Top shape: 20 128 32 32 (2621440)
I0922 16:12:00.237174  8100 net.cpp:165] Memory required for data: 2618952484
I0922 16:12:00.237174  8100 layer_factory.hpp:77] Creating layer res3b1
I0922 16:12:00.237174  8100 net.cpp:100] Creating Layer res3b1
I0922 16:12:00.237174  8100 net.cpp:444] res3b1 <- res3a1_res3a_relu1_0_split_1
I0922 16:12:00.237174  8100 net.cpp:444] res3b1 <- res3b_branch2b1
I0922 16:12:00.237174  8100 net.cpp:418] res3b1 -> res3b1
I0922 16:12:00.237174  8100 net.cpp:150] Setting up res3b1
I0922 16:12:00.237174  8100 net.cpp:157] Top shape: 20 128 32 32 (2621440)
I0922 16:12:00.237174  8100 net.cpp:165] Memory required for data: 2629438244
I0922 16:12:00.237174  8100 layer_factory.hpp:77] Creating layer res3b_relu1
I0922 16:12:00.238159  8100 net.cpp:100] Creating Layer res3b_relu1
I0922 16:12:00.238159  8100 net.cpp:444] res3b_relu1 <- res3b1
I0922 16:12:00.238159  8100 net.cpp:405] res3b_relu1 -> res3b1 (in-place)
I0922 16:12:00.241152  8100 net.cpp:150] Setting up res3b_relu1
I0922 16:12:00.242151  8100 net.cpp:157] Top shape: 20 128 32 32 (2621440)
I0922 16:12:00.242151  8100 net.cpp:165] Memory required for data: 2639924004
I0922 16:12:00.242151  8100 layer_factory.hpp:77] Creating layer res3b1_res3b_relu1_0_split
I0922 16:12:00.242151  8100 net.cpp:100] Creating Layer res3b1_res3b_relu1_0_split
I0922 16:12:00.242151  8100 net.cpp:444] res3b1_res3b_relu1_0_split <- res3b1
I0922 16:12:00.242151  8100 net.cpp:418] res3b1_res3b_relu1_0_split -> res3b1_res3b_relu1_0_split_0
I0922 16:12:00.242151  8100 net.cpp:418] res3b1_res3b_relu1_0_split -> res3b1_res3b_relu1_0_split_1
I0922 16:12:00.242151  8100 net.cpp:150] Setting up res3b1_res3b_relu1_0_split
I0922 16:12:00.242151  8100 net.cpp:157] Top shape: 20 128 32 32 (2621440)
I0922 16:12:00.242151  8100 net.cpp:157] Top shape: 20 128 32 32 (2621440)
I0922 16:12:00.243145  8100 net.cpp:165] Memory required for data: 2660895524
I0922 16:12:00.243145  8100 layer_factory.hpp:77] Creating layer res4a_branch11
I0922 16:12:00.243145  8100 net.cpp:100] Creating Layer res4a_branch11
I0922 16:12:00.243145  8100 net.cpp:444] res4a_branch11 <- res3b1_res3b_relu1_0_split_0
I0922 16:12:00.243145  8100 net.cpp:418] res4a_branch11 -> res4a_branch11
I0922 16:12:00.246137  8100 net.cpp:150] Setting up res4a_branch11
I0922 16:12:00.247134  8100 net.cpp:157] Top shape: 20 256 16 16 (1310720)
I0922 16:12:00.247134  8100 net.cpp:165] Memory required for data: 2666138404
I0922 16:12:00.247134  8100 layer_factory.hpp:77] Creating layer bn4a_branch11
I0922 16:12:00.247134  8100 net.cpp:100] Creating Layer bn4a_branch11
I0922 16:12:00.247134  8100 net.cpp:444] bn4a_branch11 <- res4a_branch11
I0922 16:12:00.247134  8100 net.cpp:405] bn4a_branch11 -> res4a_branch11 (in-place)
I0922 16:12:00.247134  8100 net.cpp:150] Setting up bn4a_branch11
I0922 16:12:00.247134  8100 net.cpp:157] Top shape: 20 256 16 16 (1310720)
I0922 16:12:00.247134  8100 net.cpp:165] Memory required for data: 2671381284
I0922 16:12:00.247134  8100 layer_factory.hpp:77] Creating layer scale4a_branch11
I0922 16:12:00.248131  8100 net.cpp:100] Creating Layer scale4a_branch11
I0922 16:12:00.248131  8100 net.cpp:444] scale4a_branch11 <- res4a_branch11
I0922 16:12:00.248131  8100 net.cpp:405] scale4a_branch11 -> res4a_branch11 (in-place)
I0922 16:12:00.248131  8100 layer_factory.hpp:77] Creating layer scale4a_branch11
I0922 16:12:00.248131  8100 net.cpp:150] Setting up scale4a_branch11
I0922 16:12:00.248131  8100 net.cpp:157] Top shape: 20 256 16 16 (1310720)
I0922 16:12:00.248131  8100 net.cpp:165] Memory required for data: 2676624164
I0922 16:12:00.248131  8100 layer_factory.hpp:77] Creating layer res4a_branch2a1
I0922 16:12:00.248131  8100 net.cpp:100] Creating Layer res4a_branch2a1
I0922 16:12:00.248131  8100 net.cpp:444] res4a_branch2a1 <- res3b1_res3b_relu1_0_split_1
I0922 16:12:00.249130  8100 net.cpp:418] res4a_branch2a1 -> res4a_branch2a1
I0922 16:12:00.258106  8100 net.cpp:150] Setting up res4a_branch2a1
I0922 16:12:00.258106  8100 net.cpp:157] Top shape: 20 256 16 16 (1310720)
I0922 16:12:00.258106  8100 net.cpp:165] Memory required for data: 2681867044
I0922 16:12:00.258106  8100 layer_factory.hpp:77] Creating layer bn4a_branch2a1
I0922 16:12:00.258106  8100 net.cpp:100] Creating Layer bn4a_branch2a1
I0922 16:12:00.259102  8100 net.cpp:444] bn4a_branch2a1 <- res4a_branch2a1
I0922 16:12:00.259102  8100 net.cpp:405] bn4a_branch2a1 -> res4a_branch2a1 (in-place)
I0922 16:12:00.259102  8100 net.cpp:150] Setting up bn4a_branch2a1
I0922 16:12:00.260100  8100 net.cpp:157] Top shape: 20 256 16 16 (1310720)
I0922 16:12:00.260100  8100 net.cpp:165] Memory required for data: 2687109924
I0922 16:12:00.260100  8100 layer_factory.hpp:77] Creating layer scale4a_branch2a1
I0922 16:12:00.260100  8100 net.cpp:100] Creating Layer scale4a_branch2a1
I0922 16:12:00.260100  8100 net.cpp:444] scale4a_branch2a1 <- res4a_branch2a1
I0922 16:12:00.260100  8100 net.cpp:405] scale4a_branch2a1 -> res4a_branch2a1 (in-place)
I0922 16:12:00.260100  8100 layer_factory.hpp:77] Creating layer scale4a_branch2a1
I0922 16:12:00.260100  8100 net.cpp:150] Setting up scale4a_branch2a1
I0922 16:12:00.260100  8100 net.cpp:157] Top shape: 20 256 16 16 (1310720)
I0922 16:12:00.260100  8100 net.cpp:165] Memory required for data: 2692352804
I0922 16:12:00.260100  8100 layer_factory.hpp:77] Creating layer res4a_branch2a_relu1
I0922 16:12:00.260100  8100 net.cpp:100] Creating Layer res4a_branch2a_relu1
I0922 16:12:00.261097  8100 net.cpp:444] res4a_branch2a_relu1 <- res4a_branch2a1
I0922 16:12:00.261097  8100 net.cpp:405] res4a_branch2a_relu1 -> res4a_branch2a1 (in-place)
I0922 16:12:00.261097  8100 net.cpp:150] Setting up res4a_branch2a_relu1
I0922 16:12:00.261097  8100 net.cpp:157] Top shape: 20 256 16 16 (1310720)
I0922 16:12:00.262094  8100 net.cpp:165] Memory required for data: 2697595684
I0922 16:12:00.262094  8100 layer_factory.hpp:77] Creating layer res4a_branch2b1
I0922 16:12:00.262094  8100 net.cpp:100] Creating Layer res4a_branch2b1
I0922 16:12:00.262094  8100 net.cpp:444] res4a_branch2b1 <- res4a_branch2a1
I0922 16:12:00.262094  8100 net.cpp:418] res4a_branch2b1 -> res4a_branch2b1
I0922 16:12:00.275060  8100 net.cpp:150] Setting up res4a_branch2b1
I0922 16:12:00.275060  8100 net.cpp:157] Top shape: 20 256 16 16 (1310720)
I0922 16:12:00.275060  8100 net.cpp:165] Memory required for data: 2702838564
I0922 16:12:00.275060  8100 layer_factory.hpp:77] Creating layer bn4a_branch2b1
I0922 16:12:00.275060  8100 net.cpp:100] Creating Layer bn4a_branch2b1
I0922 16:12:00.275060  8100 net.cpp:444] bn4a_branch2b1 <- res4a_branch2b1
I0922 16:12:00.275060  8100 net.cpp:405] bn4a_branch2b1 -> res4a_branch2b1 (in-place)
I0922 16:12:00.276057  8100 net.cpp:150] Setting up bn4a_branch2b1
I0922 16:12:00.276057  8100 net.cpp:157] Top shape: 20 256 16 16 (1310720)
I0922 16:12:00.276057  8100 net.cpp:165] Memory required for data: 2708081444
I0922 16:12:00.276057  8100 layer_factory.hpp:77] Creating layer scale4a_branch2b1
I0922 16:12:00.276057  8100 net.cpp:100] Creating Layer scale4a_branch2b1
I0922 16:12:00.276057  8100 net.cpp:444] scale4a_branch2b1 <- res4a_branch2b1
I0922 16:12:00.276057  8100 net.cpp:405] scale4a_branch2b1 -> res4a_branch2b1 (in-place)
I0922 16:12:00.276057  8100 layer_factory.hpp:77] Creating layer scale4a_branch2b1
I0922 16:12:00.277055  8100 net.cpp:150] Setting up scale4a_branch2b1
I0922 16:12:00.277055  8100 net.cpp:157] Top shape: 20 256 16 16 (1310720)
I0922 16:12:00.277055  8100 net.cpp:165] Memory required for data: 2713324324
I0922 16:12:00.277055  8100 layer_factory.hpp:77] Creating layer res4a1
I0922 16:12:00.277055  8100 net.cpp:100] Creating Layer res4a1
I0922 16:12:00.277055  8100 net.cpp:444] res4a1 <- res4a_branch11
I0922 16:12:00.277055  8100 net.cpp:444] res4a1 <- res4a_branch2b1
I0922 16:12:00.277055  8100 net.cpp:418] res4a1 -> res4a1
I0922 16:12:00.277055  8100 net.cpp:150] Setting up res4a1
I0922 16:12:00.277055  8100 net.cpp:157] Top shape: 20 256 16 16 (1310720)
I0922 16:12:00.277055  8100 net.cpp:165] Memory required for data: 2718567204
I0922 16:12:00.277055  8100 layer_factory.hpp:77] Creating layer res4a_relu1
I0922 16:12:00.277055  8100 net.cpp:100] Creating Layer res4a_relu1
I0922 16:12:00.279049  8100 net.cpp:444] res4a_relu1 <- res4a1
I0922 16:12:00.279049  8100 net.cpp:405] res4a_relu1 -> res4a1 (in-place)
I0922 16:12:00.280046  8100 net.cpp:150] Setting up res4a_relu1
I0922 16:12:00.280046  8100 net.cpp:157] Top shape: 20 256 16 16 (1310720)
I0922 16:12:00.280046  8100 net.cpp:165] Memory required for data: 2723810084
I0922 16:12:00.280046  8100 layer_factory.hpp:77] Creating layer res4a1_res4a_relu1_0_split
I0922 16:12:00.280046  8100 net.cpp:100] Creating Layer res4a1_res4a_relu1_0_split
I0922 16:12:00.280046  8100 net.cpp:444] res4a1_res4a_relu1_0_split <- res4a1
I0922 16:12:00.280046  8100 net.cpp:418] res4a1_res4a_relu1_0_split -> res4a1_res4a_relu1_0_split_0
I0922 16:12:00.280046  8100 net.cpp:418] res4a1_res4a_relu1_0_split -> res4a1_res4a_relu1_0_split_1
I0922 16:12:00.280046  8100 net.cpp:150] Setting up res4a1_res4a_relu1_0_split
I0922 16:12:00.281044  8100 net.cpp:157] Top shape: 20 256 16 16 (1310720)
I0922 16:12:00.281044  8100 net.cpp:157] Top shape: 20 256 16 16 (1310720)
I0922 16:12:00.281044  8100 net.cpp:165] Memory required for data: 2734295844
I0922 16:12:00.281044  8100 layer_factory.hpp:77] Creating layer res4b_branch2a1
I0922 16:12:00.281044  8100 net.cpp:100] Creating Layer res4b_branch2a1
I0922 16:12:00.281044  8100 net.cpp:444] res4b_branch2a1 <- res4a1_res4a_relu1_0_split_0
I0922 16:12:00.281044  8100 net.cpp:418] res4b_branch2a1 -> res4b_branch2a1
I0922 16:12:00.293012  8100 net.cpp:150] Setting up res4b_branch2a1
I0922 16:12:00.293012  8100 net.cpp:157] Top shape: 20 256 16 16 (1310720)
I0922 16:12:00.293012  8100 net.cpp:165] Memory required for data: 2739538724
I0922 16:12:00.293012  8100 layer_factory.hpp:77] Creating layer bn4b_branch2a1
I0922 16:12:00.294009  8100 net.cpp:100] Creating Layer bn4b_branch2a1
I0922 16:12:00.294009  8100 net.cpp:444] bn4b_branch2a1 <- res4b_branch2a1
I0922 16:12:00.294009  8100 net.cpp:405] bn4b_branch2a1 -> res4b_branch2a1 (in-place)
I0922 16:12:00.294009  8100 net.cpp:150] Setting up bn4b_branch2a1
I0922 16:12:00.294009  8100 net.cpp:157] Top shape: 20 256 16 16 (1310720)
I0922 16:12:00.294009  8100 net.cpp:165] Memory required for data: 2744781604
I0922 16:12:00.294009  8100 layer_factory.hpp:77] Creating layer scale4b_branch2a1
I0922 16:12:00.294009  8100 net.cpp:100] Creating Layer scale4b_branch2a1
I0922 16:12:00.294009  8100 net.cpp:444] scale4b_branch2a1 <- res4b_branch2a1
I0922 16:12:00.294009  8100 net.cpp:405] scale4b_branch2a1 -> res4b_branch2a1 (in-place)
I0922 16:12:00.295006  8100 layer_factory.hpp:77] Creating layer scale4b_branch2a1
I0922 16:12:00.295006  8100 net.cpp:150] Setting up scale4b_branch2a1
I0922 16:12:00.295006  8100 net.cpp:157] Top shape: 20 256 16 16 (1310720)
I0922 16:12:00.295006  8100 net.cpp:165] Memory required for data: 2750024484
I0922 16:12:00.295006  8100 layer_factory.hpp:77] Creating layer res4b_branch2a_relu1
I0922 16:12:00.295006  8100 net.cpp:100] Creating Layer res4b_branch2a_relu1
I0922 16:12:00.295006  8100 net.cpp:444] res4b_branch2a_relu1 <- res4b_branch2a1
I0922 16:12:00.295006  8100 net.cpp:405] res4b_branch2a_relu1 -> res4b_branch2a1 (in-place)
I0922 16:12:00.297001  8100 net.cpp:150] Setting up res4b_branch2a_relu1
I0922 16:12:00.297001  8100 net.cpp:157] Top shape: 20 256 16 16 (1310720)
I0922 16:12:00.297001  8100 net.cpp:165] Memory required for data: 2755267364
I0922 16:12:00.297001  8100 layer_factory.hpp:77] Creating layer res4b_branch2b1
I0922 16:12:00.297001  8100 net.cpp:100] Creating Layer res4b_branch2b1
I0922 16:12:00.297001  8100 net.cpp:444] res4b_branch2b1 <- res4b_branch2a1
I0922 16:12:00.297001  8100 net.cpp:418] res4b_branch2b1 -> res4b_branch2b1
I0922 16:12:00.307971  8100 net.cpp:150] Setting up res4b_branch2b1
I0922 16:12:00.307971  8100 net.cpp:157] Top shape: 20 256 16 16 (1310720)
I0922 16:12:00.307971  8100 net.cpp:165] Memory required for data: 2760510244
I0922 16:12:00.308969  8100 layer_factory.hpp:77] Creating layer bn4b_branch2b1
I0922 16:12:00.308969  8100 net.cpp:100] Creating Layer bn4b_branch2b1
I0922 16:12:00.308969  8100 net.cpp:444] bn4b_branch2b1 <- res4b_branch2b1
I0922 16:12:00.308969  8100 net.cpp:405] bn4b_branch2b1 -> res4b_branch2b1 (in-place)
I0922 16:12:00.308969  8100 net.cpp:150] Setting up bn4b_branch2b1
I0922 16:12:00.308969  8100 net.cpp:157] Top shape: 20 256 16 16 (1310720)
I0922 16:12:00.308969  8100 net.cpp:165] Memory required for data: 2765753124
I0922 16:12:00.308969  8100 layer_factory.hpp:77] Creating layer scale4b_branch2b1
I0922 16:12:00.308969  8100 net.cpp:100] Creating Layer scale4b_branch2b1
I0922 16:12:00.308969  8100 net.cpp:444] scale4b_branch2b1 <- res4b_branch2b1
I0922 16:12:00.309967  8100 net.cpp:405] scale4b_branch2b1 -> res4b_branch2b1 (in-place)
I0922 16:12:00.309967  8100 layer_factory.hpp:77] Creating layer scale4b_branch2b1
I0922 16:12:00.309967  8100 net.cpp:150] Setting up scale4b_branch2b1
I0922 16:12:00.309967  8100 net.cpp:157] Top shape: 20 256 16 16 (1310720)
I0922 16:12:00.309967  8100 net.cpp:165] Memory required for data: 2770996004
I0922 16:12:00.309967  8100 layer_factory.hpp:77] Creating layer res4b1
I0922 16:12:00.309967  8100 net.cpp:100] Creating Layer res4b1
I0922 16:12:00.309967  8100 net.cpp:444] res4b1 <- res4a1_res4a_relu1_0_split_1
I0922 16:12:00.309967  8100 net.cpp:444] res4b1 <- res4b_branch2b1
I0922 16:12:00.309967  8100 net.cpp:418] res4b1 -> res4b1
I0922 16:12:00.309967  8100 net.cpp:150] Setting up res4b1
I0922 16:12:00.310964  8100 net.cpp:157] Top shape: 20 256 16 16 (1310720)
I0922 16:12:00.310964  8100 net.cpp:165] Memory required for data: 2776238884
I0922 16:12:00.310964  8100 layer_factory.hpp:77] Creating layer res4b_relu1
I0922 16:12:00.310964  8100 net.cpp:100] Creating Layer res4b_relu1
I0922 16:12:00.310964  8100 net.cpp:444] res4b_relu1 <- res4b1
I0922 16:12:00.310964  8100 net.cpp:405] res4b_relu1 -> res4b1 (in-place)
I0922 16:12:00.311961  8100 net.cpp:150] Setting up res4b_relu1
I0922 16:12:00.311961  8100 net.cpp:157] Top shape: 20 256 16 16 (1310720)
I0922 16:12:00.311961  8100 net.cpp:165] Memory required for data: 2781481764
I0922 16:12:00.311961  8100 layer_factory.hpp:77] Creating layer res4b1_res4b_relu1_0_split
I0922 16:12:00.311961  8100 net.cpp:100] Creating Layer res4b1_res4b_relu1_0_split
I0922 16:12:00.311961  8100 net.cpp:444] res4b1_res4b_relu1_0_split <- res4b1
I0922 16:12:00.311961  8100 net.cpp:418] res4b1_res4b_relu1_0_split -> res4b1_res4b_relu1_0_split_0
I0922 16:12:00.311961  8100 net.cpp:418] res4b1_res4b_relu1_0_split -> res4b1_res4b_relu1_0_split_1
I0922 16:12:00.311961  8100 net.cpp:150] Setting up res4b1_res4b_relu1_0_split
I0922 16:12:00.312958  8100 net.cpp:157] Top shape: 20 256 16 16 (1310720)
I0922 16:12:00.312958  8100 net.cpp:157] Top shape: 20 256 16 16 (1310720)
I0922 16:12:00.312958  8100 net.cpp:165] Memory required for data: 2791967524
I0922 16:12:00.312958  8100 layer_factory.hpp:77] Creating layer res5a_branch11
I0922 16:12:00.312958  8100 net.cpp:100] Creating Layer res5a_branch11
I0922 16:12:00.312958  8100 net.cpp:444] res5a_branch11 <- res4b1_res4b_relu1_0_split_0
I0922 16:12:00.312958  8100 net.cpp:418] res5a_branch11 -> res5a_branch11
I0922 16:12:00.318943  8100 net.cpp:150] Setting up res5a_branch11
I0922 16:12:00.318943  8100 net.cpp:157] Top shape: 20 512 8 8 (655360)
I0922 16:12:00.318943  8100 net.cpp:165] Memory required for data: 2794588964
I0922 16:12:00.318943  8100 layer_factory.hpp:77] Creating layer bn5a_branch11
I0922 16:12:00.319941  8100 net.cpp:100] Creating Layer bn5a_branch11
I0922 16:12:00.319941  8100 net.cpp:444] bn5a_branch11 <- res5a_branch11
I0922 16:12:00.319941  8100 net.cpp:405] bn5a_branch11 -> res5a_branch11 (in-place)
I0922 16:12:00.320937  8100 net.cpp:150] Setting up bn5a_branch11
I0922 16:12:00.320937  8100 net.cpp:157] Top shape: 20 512 8 8 (655360)
I0922 16:12:00.320937  8100 net.cpp:165] Memory required for data: 2797210404
I0922 16:12:00.320937  8100 layer_factory.hpp:77] Creating layer scale5a_branch11
I0922 16:12:00.320937  8100 net.cpp:100] Creating Layer scale5a_branch11
I0922 16:12:00.320937  8100 net.cpp:444] scale5a_branch11 <- res5a_branch11
I0922 16:12:00.320937  8100 net.cpp:405] scale5a_branch11 -> res5a_branch11 (in-place)
I0922 16:12:00.320937  8100 layer_factory.hpp:77] Creating layer scale5a_branch11
I0922 16:12:00.322933  8100 net.cpp:150] Setting up scale5a_branch11
I0922 16:12:00.323930  8100 net.cpp:157] Top shape: 20 512 8 8 (655360)
I0922 16:12:00.323930  8100 net.cpp:165] Memory required for data: 2799831844
I0922 16:12:00.323930  8100 layer_factory.hpp:77] Creating layer res5a_branch2a1
I0922 16:12:00.323930  8100 net.cpp:100] Creating Layer res5a_branch2a1
I0922 16:12:00.323930  8100 net.cpp:444] res5a_branch2a1 <- res4b1_res4b_relu1_0_split_1
I0922 16:12:00.323930  8100 net.cpp:418] res5a_branch2a1 -> res5a_branch2a1
I0922 16:12:00.341881  8100 net.cpp:150] Setting up res5a_branch2a1
I0922 16:12:00.341881  8100 net.cpp:157] Top shape: 20 512 8 8 (655360)
I0922 16:12:00.341881  8100 net.cpp:165] Memory required for data: 2802453284
I0922 16:12:00.341881  8100 layer_factory.hpp:77] Creating layer bn5a_branch2a1
I0922 16:12:00.341881  8100 net.cpp:100] Creating Layer bn5a_branch2a1
I0922 16:12:00.342878  8100 net.cpp:444] bn5a_branch2a1 <- res5a_branch2a1
I0922 16:12:00.342878  8100 net.cpp:405] bn5a_branch2a1 -> res5a_branch2a1 (in-place)
I0922 16:12:00.342878  8100 net.cpp:150] Setting up bn5a_branch2a1
I0922 16:12:00.342878  8100 net.cpp:157] Top shape: 20 512 8 8 (655360)
I0922 16:12:00.342878  8100 net.cpp:165] Memory required for data: 2805074724
I0922 16:12:00.342878  8100 layer_factory.hpp:77] Creating layer scale5a_branch2a1
I0922 16:12:00.342878  8100 net.cpp:100] Creating Layer scale5a_branch2a1
I0922 16:12:00.342878  8100 net.cpp:444] scale5a_branch2a1 <- res5a_branch2a1
I0922 16:12:00.342878  8100 net.cpp:405] scale5a_branch2a1 -> res5a_branch2a1 (in-place)
I0922 16:12:00.342878  8100 layer_factory.hpp:77] Creating layer scale5a_branch2a1
I0922 16:12:00.343876  8100 net.cpp:150] Setting up scale5a_branch2a1
I0922 16:12:00.343876  8100 net.cpp:157] Top shape: 20 512 8 8 (655360)
I0922 16:12:00.343876  8100 net.cpp:165] Memory required for data: 2807696164
I0922 16:12:00.343876  8100 layer_factory.hpp:77] Creating layer res5a_branch2a_relu1
I0922 16:12:00.343876  8100 net.cpp:100] Creating Layer res5a_branch2a_relu1
I0922 16:12:00.343876  8100 net.cpp:444] res5a_branch2a_relu1 <- res5a_branch2a1
I0922 16:12:00.343876  8100 net.cpp:405] res5a_branch2a_relu1 -> res5a_branch2a1 (in-place)
I0922 16:12:00.344873  8100 net.cpp:150] Setting up res5a_branch2a_relu1
I0922 16:12:00.344873  8100 net.cpp:157] Top shape: 20 512 8 8 (655360)
I0922 16:12:00.344873  8100 net.cpp:165] Memory required for data: 2810317604
I0922 16:12:00.344873  8100 layer_factory.hpp:77] Creating layer res5a_branch2b1
I0922 16:12:00.344873  8100 net.cpp:100] Creating Layer res5a_branch2b1
I0922 16:12:00.344873  8100 net.cpp:444] res5a_branch2b1 <- res5a_branch2a1
I0922 16:12:00.344873  8100 net.cpp:418] res5a_branch2b1 -> res5a_branch2b1
I0922 16:12:00.371801  8100 net.cpp:150] Setting up res5a_branch2b1
I0922 16:12:00.371801  8100 net.cpp:157] Top shape: 20 512 8 8 (655360)
I0922 16:12:00.372799  8100 net.cpp:165] Memory required for data: 2812939044
I0922 16:12:00.372799  8100 layer_factory.hpp:77] Creating layer bn5a_branch2b1
I0922 16:12:00.372799  8100 net.cpp:100] Creating Layer bn5a_branch2b1
I0922 16:12:00.372799  8100 net.cpp:444] bn5a_branch2b1 <- res5a_branch2b1
I0922 16:12:00.372799  8100 net.cpp:405] bn5a_branch2b1 -> res5a_branch2b1 (in-place)
I0922 16:12:00.372799  8100 net.cpp:150] Setting up bn5a_branch2b1
I0922 16:12:00.372799  8100 net.cpp:157] Top shape: 20 512 8 8 (655360)
I0922 16:12:00.372799  8100 net.cpp:165] Memory required for data: 2815560484
I0922 16:12:00.372799  8100 layer_factory.hpp:77] Creating layer scale5a_branch2b1
I0922 16:12:00.372799  8100 net.cpp:100] Creating Layer scale5a_branch2b1
I0922 16:12:00.373795  8100 net.cpp:444] scale5a_branch2b1 <- res5a_branch2b1
I0922 16:12:00.373795  8100 net.cpp:405] scale5a_branch2b1 -> res5a_branch2b1 (in-place)
I0922 16:12:00.373795  8100 layer_factory.hpp:77] Creating layer scale5a_branch2b1
I0922 16:12:00.373795  8100 net.cpp:150] Setting up scale5a_branch2b1
I0922 16:12:00.373795  8100 net.cpp:157] Top shape: 20 512 8 8 (655360)
I0922 16:12:00.373795  8100 net.cpp:165] Memory required for data: 2818181924
I0922 16:12:00.373795  8100 layer_factory.hpp:77] Creating layer res5a1
I0922 16:12:00.373795  8100 net.cpp:100] Creating Layer res5a1
I0922 16:12:00.373795  8100 net.cpp:444] res5a1 <- res5a_branch11
I0922 16:12:00.373795  8100 net.cpp:444] res5a1 <- res5a_branch2b1
I0922 16:12:00.373795  8100 net.cpp:418] res5a1 -> res5a1
I0922 16:12:00.374794  8100 net.cpp:150] Setting up res5a1
I0922 16:12:00.374794  8100 net.cpp:157] Top shape: 20 512 8 8 (655360)
I0922 16:12:00.374794  8100 net.cpp:165] Memory required for data: 2820803364
I0922 16:12:00.374794  8100 layer_factory.hpp:77] Creating layer res5a_relu1
I0922 16:12:00.374794  8100 net.cpp:100] Creating Layer res5a_relu1
I0922 16:12:00.374794  8100 net.cpp:444] res5a_relu1 <- res5a1
I0922 16:12:00.374794  8100 net.cpp:405] res5a_relu1 -> res5a1 (in-place)
I0922 16:12:00.375792  8100 net.cpp:150] Setting up res5a_relu1
I0922 16:12:00.375792  8100 net.cpp:157] Top shape: 20 512 8 8 (655360)
I0922 16:12:00.375792  8100 net.cpp:165] Memory required for data: 2823424804
I0922 16:12:00.375792  8100 layer_factory.hpp:77] Creating layer res5a1_res5a_relu1_0_split
I0922 16:12:00.375792  8100 net.cpp:100] Creating Layer res5a1_res5a_relu1_0_split
I0922 16:12:00.375792  8100 net.cpp:444] res5a1_res5a_relu1_0_split <- res5a1
I0922 16:12:00.375792  8100 net.cpp:418] res5a1_res5a_relu1_0_split -> res5a1_res5a_relu1_0_split_0
I0922 16:12:00.375792  8100 net.cpp:418] res5a1_res5a_relu1_0_split -> res5a1_res5a_relu1_0_split_1
I0922 16:12:00.375792  8100 net.cpp:150] Setting up res5a1_res5a_relu1_0_split
I0922 16:12:00.375792  8100 net.cpp:157] Top shape: 20 512 8 8 (655360)
I0922 16:12:00.375792  8100 net.cpp:157] Top shape: 20 512 8 8 (655360)
I0922 16:12:00.376788  8100 net.cpp:165] Memory required for data: 2828667684
I0922 16:12:00.376788  8100 layer_factory.hpp:77] Creating layer res5b_branch2a1
I0922 16:12:00.376788  8100 net.cpp:100] Creating Layer res5b_branch2a1
I0922 16:12:00.376788  8100 net.cpp:444] res5b_branch2a1 <- res5a1_res5a_relu1_0_split_0
I0922 16:12:00.376788  8100 net.cpp:418] res5b_branch2a1 -> res5b_branch2a1
I0922 16:12:00.404713  8100 net.cpp:150] Setting up res5b_branch2a1
I0922 16:12:00.404713  8100 net.cpp:157] Top shape: 20 512 8 8 (655360)
I0922 16:12:00.404713  8100 net.cpp:165] Memory required for data: 2831289124
I0922 16:12:00.404713  8100 layer_factory.hpp:77] Creating layer bn5b_branch2a1
I0922 16:12:00.404713  8100 net.cpp:100] Creating Layer bn5b_branch2a1
I0922 16:12:00.404713  8100 net.cpp:444] bn5b_branch2a1 <- res5b_branch2a1
I0922 16:12:00.405710  8100 net.cpp:405] bn5b_branch2a1 -> res5b_branch2a1 (in-place)
I0922 16:12:00.405710  8100 net.cpp:150] Setting up bn5b_branch2a1
I0922 16:12:00.405710  8100 net.cpp:157] Top shape: 20 512 8 8 (655360)
I0922 16:12:00.405710  8100 net.cpp:165] Memory required for data: 2833910564
I0922 16:12:00.405710  8100 layer_factory.hpp:77] Creating layer scale5b_branch2a1
I0922 16:12:00.405710  8100 net.cpp:100] Creating Layer scale5b_branch2a1
I0922 16:12:00.405710  8100 net.cpp:444] scale5b_branch2a1 <- res5b_branch2a1
I0922 16:12:00.405710  8100 net.cpp:405] scale5b_branch2a1 -> res5b_branch2a1 (in-place)
I0922 16:12:00.405710  8100 layer_factory.hpp:77] Creating layer scale5b_branch2a1
I0922 16:12:00.406708  8100 net.cpp:150] Setting up scale5b_branch2a1
I0922 16:12:00.406708  8100 net.cpp:157] Top shape: 20 512 8 8 (655360)
I0922 16:12:00.406708  8100 net.cpp:165] Memory required for data: 2836532004
I0922 16:12:00.406708  8100 layer_factory.hpp:77] Creating layer res5b_branch2a_relu1
I0922 16:12:00.406708  8100 net.cpp:100] Creating Layer res5b_branch2a_relu1
I0922 16:12:00.406708  8100 net.cpp:444] res5b_branch2a_relu1 <- res5b_branch2a1
I0922 16:12:00.406708  8100 net.cpp:405] res5b_branch2a_relu1 -> res5b_branch2a1 (in-place)
I0922 16:12:00.407706  8100 net.cpp:150] Setting up res5b_branch2a_relu1
I0922 16:12:00.407706  8100 net.cpp:157] Top shape: 20 512 8 8 (655360)
I0922 16:12:00.408702  8100 net.cpp:165] Memory required for data: 2839153444
I0922 16:12:00.408702  8100 layer_factory.hpp:77] Creating layer res5b_branch2b1
I0922 16:12:00.408702  8100 net.cpp:100] Creating Layer res5b_branch2b1
I0922 16:12:00.408702  8100 net.cpp:444] res5b_branch2b1 <- res5b_branch2a1
I0922 16:12:00.408702  8100 net.cpp:418] res5b_branch2b1 -> res5b_branch2b1
I0922 16:12:00.435631  8100 net.cpp:150] Setting up res5b_branch2b1
I0922 16:12:00.436630  8100 net.cpp:157] Top shape: 20 512 8 8 (655360)
I0922 16:12:00.436630  8100 net.cpp:165] Memory required for data: 2841774884
I0922 16:12:00.436630  8100 layer_factory.hpp:77] Creating layer bn5b_branch2b1
I0922 16:12:00.437626  8100 net.cpp:100] Creating Layer bn5b_branch2b1
I0922 16:12:00.437626  8100 net.cpp:444] bn5b_branch2b1 <- res5b_branch2b1
I0922 16:12:00.437626  8100 net.cpp:405] bn5b_branch2b1 -> res5b_branch2b1 (in-place)
I0922 16:12:00.438623  8100 net.cpp:150] Setting up bn5b_branch2b1
I0922 16:12:00.438623  8100 net.cpp:157] Top shape: 20 512 8 8 (655360)
I0922 16:12:00.438623  8100 net.cpp:165] Memory required for data: 2844396324
I0922 16:12:00.438623  8100 layer_factory.hpp:77] Creating layer scale5b_branch2b1
I0922 16:12:00.438623  8100 net.cpp:100] Creating Layer scale5b_branch2b1
I0922 16:12:00.438623  8100 net.cpp:444] scale5b_branch2b1 <- res5b_branch2b1
I0922 16:12:00.438623  8100 net.cpp:405] scale5b_branch2b1 -> res5b_branch2b1 (in-place)
I0922 16:12:00.438623  8100 layer_factory.hpp:77] Creating layer scale5b_branch2b1
I0922 16:12:00.438623  8100 net.cpp:150] Setting up scale5b_branch2b1
I0922 16:12:00.439620  8100 net.cpp:157] Top shape: 20 512 8 8 (655360)
I0922 16:12:00.439620  8100 net.cpp:165] Memory required for data: 2847017764
I0922 16:12:00.439620  8100 layer_factory.hpp:77] Creating layer res5b1
I0922 16:12:00.439620  8100 net.cpp:100] Creating Layer res5b1
I0922 16:12:00.439620  8100 net.cpp:444] res5b1 <- res5a1_res5a_relu1_0_split_1
I0922 16:12:00.439620  8100 net.cpp:444] res5b1 <- res5b_branch2b1
I0922 16:12:00.439620  8100 net.cpp:418] res5b1 -> res5b1
I0922 16:12:00.439620  8100 net.cpp:150] Setting up res5b1
I0922 16:12:00.439620  8100 net.cpp:157] Top shape: 20 512 8 8 (655360)
I0922 16:12:00.439620  8100 net.cpp:165] Memory required for data: 2849639204
I0922 16:12:00.439620  8100 layer_factory.hpp:77] Creating layer res5b_relu1
I0922 16:12:00.439620  8100 net.cpp:100] Creating Layer res5b_relu1
I0922 16:12:00.439620  8100 net.cpp:444] res5b_relu1 <- res5b1
I0922 16:12:00.440618  8100 net.cpp:405] res5b_relu1 -> res5b1 (in-place)
I0922 16:12:00.440618  8100 net.cpp:150] Setting up res5b_relu1
I0922 16:12:00.440618  8100 net.cpp:157] Top shape: 20 512 8 8 (655360)
I0922 16:12:00.441614  8100 net.cpp:165] Memory required for data: 2852260644
I0922 16:12:00.441614  8100 layer_factory.hpp:77] Creating layer c5_1
I0922 16:12:00.441614  8100 net.cpp:100] Creating Layer c5_1
I0922 16:12:00.441614  8100 net.cpp:444] c5_1 <- res5b1
I0922 16:12:00.441614  8100 net.cpp:418] c5_1 -> c5_1
I0922 16:12:00.444607  8100 net.cpp:150] Setting up c5_1
I0922 16:12:00.446601  8100 net.cpp:157] Top shape: 20 6 8 8 (7680)
I0922 16:12:00.446601  8100 net.cpp:165] Memory required for data: 2852291364
I0922 16:12:00.446601  8100 layer_factory.hpp:77] Creating layer res5
I0922 16:12:00.446601  8100 net.cpp:100] Creating Layer res5
I0922 16:12:00.447598  8100 net.cpp:444] res5 <- c5_1
I0922 16:12:00.447598  8100 net.cpp:444] res5 <- c5_c5_0_split_1
I0922 16:12:00.447598  8100 net.cpp:418] res5 -> res5
I0922 16:12:00.447598  8100 net.cpp:150] Setting up res5
I0922 16:12:00.447598  8100 net.cpp:157] Top shape: 20 6 8 8 (7680)
I0922 16:12:00.447598  8100 net.cpp:165] Memory required for data: 2852322084
I0922 16:12:00.447598  8100 layer_factory.hpp:77] Creating layer res5_relu
I0922 16:12:00.447598  8100 net.cpp:100] Creating Layer res5_relu
I0922 16:12:00.447598  8100 net.cpp:444] res5_relu <- res5
I0922 16:12:00.447598  8100 net.cpp:405] res5_relu -> res5 (in-place)
I0922 16:12:00.448596  8100 net.cpp:150] Setting up res5_relu
I0922 16:12:00.448596  8100 net.cpp:157] Top shape: 20 6 8 8 (7680)
I0922 16:12:00.448596  8100 net.cpp:165] Memory required for data: 2852352804
I0922 16:12:00.449594  8100 layer_factory.hpp:77] Creating layer pool5_1
I0922 16:12:00.449594  8100 net.cpp:100] Creating Layer pool5_1
I0922 16:12:00.449594  8100 net.cpp:444] pool5_1 <- res5
I0922 16:12:00.449594  8100 net.cpp:418] pool5_1 -> pool5_1
I0922 16:12:00.451588  8100 net.cpp:150] Setting up pool5_1
I0922 16:12:00.451588  8100 net.cpp:157] Top shape: 20 6 1 1 (120)
I0922 16:12:00.451588  8100 net.cpp:165] Memory required for data: 2852353284
I0922 16:12:00.451588  8100 layer_factory.hpp:77] Creating layer net_fc6
I0922 16:12:00.451588  8100 net.cpp:100] Creating Layer net_fc6
I0922 16:12:00.451588  8100 net.cpp:444] net_fc6 <- pool5_1
I0922 16:12:00.451588  8100 net.cpp:418] net_fc6 -> net_fc6
I0922 16:12:00.452585  8100 net.cpp:150] Setting up net_fc6
I0922 16:12:00.452585  8100 net.cpp:157] Top shape: 20 6 (120)
I0922 16:12:00.452585  8100 net.cpp:165] Memory required for data: 2852353764
I0922 16:12:00.452585  8100 layer_factory.hpp:77] Creating layer net_fc6_net_fc6_0_split
I0922 16:12:00.452585  8100 net.cpp:100] Creating Layer net_fc6_net_fc6_0_split
I0922 16:12:00.452585  8100 net.cpp:444] net_fc6_net_fc6_0_split <- net_fc6
I0922 16:12:00.452585  8100 net.cpp:418] net_fc6_net_fc6_0_split -> net_fc6_net_fc6_0_split_0
I0922 16:12:00.452585  8100 net.cpp:418] net_fc6_net_fc6_0_split -> net_fc6_net_fc6_0_split_1
I0922 16:12:00.452585  8100 net.cpp:150] Setting up net_fc6_net_fc6_0_split
I0922 16:12:00.453583  8100 net.cpp:157] Top shape: 20 6 (120)
I0922 16:12:00.453583  8100 net.cpp:157] Top shape: 20 6 (120)
I0922 16:12:00.453583  8100 net.cpp:165] Memory required for data: 2852354724
I0922 16:12:00.453583  8100 layer_factory.hpp:77] Creating layer accuracy
I0922 16:12:00.453583  8100 net.cpp:100] Creating Layer accuracy
…
I0922 16:12:00.942276  8100 layer_factory.hpp:77] Creating layer scale2a_branch2b1
I0922 16:12:00.942276  8100 net.cpp:150] Setting up scale2a_branch2b1
I0922 16:12:00.942276  8100 net.cpp:157] Top shape: 30 64 64 64 (7864320)
I0922 16:12:00.942276  8100 net.cpp:165] Memory required for data: 3126268084
I0922 16:12:00.943272  8100 layer_factory.hpp:77] Creating layer res2a1
I0922 16:12:00.943272  8100 net.cpp:100] Creating Layer res2a1
I0922 16:12:00.943272  8100 net.cpp:444] res2a1 <- res2a_branch11
I0922 16:12:00.943272  8100 net.cpp:444] res2a1 <- res2a_branch2b1
I0922 16:12:00.943272  8100 net.cpp:418] res2a1 -> res2a1
I0922 16:12:00.943272  8100 net.cpp:150] Setting up res2a1
I0922 16:12:00.943272  8100 net.cpp:157] Top shape: 30 64 64 64 (7864320)
I0922 16:12:00.943272  8100 net.cpp:165] Memory required for data: 3157725364
I0922 16:12:00.943272  8100 layer_factory.hpp:77] Creating layer res2a_relu1
I0922 16:12:00.943272  8100 net.cpp:100] Creating Layer res2a_relu1
I0922 16:12:00.943272  8100 net.cpp:444] res2a_relu1 <- res2a1
I0922 16:12:00.943272  8100 net.cpp:405] res2a_relu1 -> res2a1 (in-place)
I0922 16:12:00.944270  8100 net.cpp:150] Setting up res2a_relu1
I0922 16:12:00.944270  8100 net.cpp:157] Top shape: 30 64 64 64 (7864320)
I0922 16:12:00.944270  8100 net.cpp:165] Memory required for data: 3189182644
I0922 16:12:00.944270  8100 layer_factory.hpp:77] Creating layer res2a1_res2a_relu1_0_split
I0922 16:12:00.945267  8100 net.cpp:100] Creating Layer res2a1_res2a_relu1_0_split
I0922 16:12:00.945267  8100 net.cpp:444] res2a1_res2a_relu1_0_split <- res2a1
I0922 16:12:00.945267  8100 net.cpp:418] res2a1_res2a_relu1_0_split -> res2a1_res2a_relu1_0_split_0
I0922 16:12:00.945267  8100 net.cpp:418] res2a1_res2a_relu1_0_split -> res2a1_res2a_relu1_0_split_1
I0922 16:12:00.945267  8100 net.cpp:150] Setting up res2a1_res2a_relu1_0_split
I0922 16:12:00.945267  8100 net.cpp:157] Top shape: 30 64 64 64 (7864320)
I0922 16:12:00.945267  8100 net.cpp:157] Top shape: 30 64 64 64 (7864320)
I0922 16:12:00.945267  8100 net.cpp:165] Memory required for data: 3252097204
I0922 16:12:00.945267  8100 layer_factory.hpp:77] Creating layer res2b_branch2a1
I0922 16:12:00.945267  8100 net.cpp:100] Creating Layer res2b_branch2a1
I0922 16:12:00.945267  8100 net.cpp:444] res2b_branch2a1 <- res2a1_res2a_relu1_0_split_0
I0922 16:12:00.945267  8100 net.cpp:418] res2b_branch2a1 -> res2b_branch2a1
I0922 16:12:00.950254  8100 net.cpp:150] Setting up res2b_branch2a1
I0922 16:12:00.950254  8100 net.cpp:157] Top shape: 30 64 64 64 (7864320)
I0922 16:12:00.950254  8100 net.cpp:165] Memory required for data: 3283554484
I0922 16:12:00.950254  8100 layer_factory.hpp:77] Creating layer bn2b_branch2a1
I0922 16:12:00.950254  8100 net.cpp:100] Creating Layer bn2b_branch2a1
I0922 16:12:00.950254  8100 net.cpp:444] bn2b_branch2a1 <- res2b_branch2a1
I0922 16:12:00.950254  8100 net.cpp:405] bn2b_branch2a1 -> res2b_branch2a1 (in-place)
I0922 16:12:00.951251  8100 net.cpp:150] Setting up bn2b_branch2a1
I0922 16:12:00.951251  8100 net.cpp:157] Top shape: 30 64 64 64 (7864320)
I0922 16:12:00.951251  8100 net.cpp:165] Memory required for data: 3315011764
I0922 16:12:00.951251  8100 layer_factory.hpp:77] Creating layer scale2b_branch2a1
I0922 16:12:00.951251  8100 net.cpp:100] Creating Layer scale2b_branch2a1
I0922 16:12:00.951251  8100 net.cpp:444] scale2b_branch2a1 <- res2b_branch2a1
I0922 16:12:00.951251  8100 net.cpp:405] scale2b_branch2a1 -> res2b_branch2a1 (in-place)
I0922 16:12:00.951251  8100 layer_factory.hpp:77] Creating layer scale2b_branch2a1
I0922 16:12:00.952250  8100 net.cpp:150] Setting up scale2b_branch2a1
I0922 16:12:00.952250  8100 net.cpp:157] Top shape: 30 64 64 64 (7864320)
I0922 16:12:00.952250  8100 net.cpp:165] Memory required for data: 3346469044
I0922 16:12:00.952250  8100 layer_factory.hpp:77] Creating layer res2b_branch2a_relu1
I0922 16:12:00.952250  8100 net.cpp:100] Creating Layer res2b_branch2a_relu1
I0922 16:12:00.952250  8100 net.cpp:444] res2b_branch2a_relu1 <- res2b_branch2a1
I0922 16:12:00.952250  8100 net.cpp:405] res2b_branch2a_relu1 -> res2b_branch2a1 (in-place)
I0922 16:12:00.955240  8100 net.cpp:150] Setting up res2b_branch2a_relu1
I0922 16:12:00.955240  8100 net.cpp:157] Top shape: 30 64 64 64 (7864320)
I0922 16:12:00.956238  8100 net.cpp:165] Memory required for data: 3377926324
I0922 16:12:00.956238  8100 layer_factory.hpp:77] Creating layer res2b_branch2b1
I0922 16:12:00.956238  8100 net.cpp:100] Creating Layer res2b_branch2b1
I0922 16:12:00.956238  8100 net.cpp:444] res2b_branch2b1 <- res2b_branch2a1
I0922 16:12:00.956238  8100 net.cpp:418] res2b_branch2b1 -> res2b_branch2b1
I0922 16:12:00.959230  8100 net.cpp:150] Setting up res2b_branch2b1
I0922 16:12:00.960227  8100 net.cpp:157] Top shape: 30 64 64 64 (7864320)
I0922 16:12:00.960227  8100 net.cpp:165] Memory required for data: 3409383604
I0922 16:12:00.960227  8100 layer_factory.hpp:77] Creating layer bn2b_branch2b1
I0922 16:12:00.960227  8100 net.cpp:100] Creating Layer bn2b_branch2b1
I0922 16:12:00.960227  8100 net.cpp:444] bn2b_branch2b1 <- res2b_branch2b1
I0922 16:12:00.960227  8100 net.cpp:405] bn2b_branch2b1 -> res2b_branch2b1 (in-place)
I0922 16:12:00.960227  8100 net.cpp:150] Setting up bn2b_branch2b1
I0922 16:12:00.960227  8100 net.cpp:157] Top shape: 30 64 64 64 (7864320)
I0922 16:12:00.960227  8100 net.cpp:165] Memory required for data: 3440840884
I0922 16:12:00.961225  8100 layer_factory.hpp:77] Creating layer scale2b_branch2b1
I0922 16:12:00.961225  8100 net.cpp:100] Creating Layer scale2b_branch2b1
I0922 16:12:00.961225  8100 net.cpp:444] scale2b_branch2b1 <- res2b_branch2b1
I0922 16:12:00.961225  8100 net.cpp:405] scale2b_branch2b1 -> res2b_branch2b1 (in-place)
I0922 16:12:00.961225  8100 layer_factory.hpp:77] Creating layer scale2b_branch2b1
I0922 16:12:00.961225  8100 net.cpp:150] Setting up scale2b_branch2b1
I0922 16:12:00.961225  8100 net.cpp:157] Top shape: 30 64 64 64 (7864320)
I0922 16:12:00.961225  8100 net.cpp:165] Memory required for data: 3472298164
I0922 16:12:00.961225  8100 layer_factory.hpp:77] Creating layer res2b1
I0922 16:12:00.961225  8100 net.cpp:100] Creating Layer res2b1
I0922 16:12:00.962222  8100 net.cpp:444] res2b1 <- res2a1_res2a_relu1_0_split_1
I0922 16:12:00.962222  8100 net.cpp:444] res2b1 <- res2b_branch2b1
I0922 16:12:00.962222  8100 net.cpp:418] res2b1 -> res2b1
I0922 16:12:00.962222  8100 net.cpp:150] Setting up res2b1
I0922 16:12:00.962222  8100 net.cpp:157] Top shape: 30 64 64 64 (7864320)
I0922 16:12:00.962222  8100 net.cpp:165] Memory required for data: 3503755444
I0922 16:12:00.962222  8100 layer_factory.hpp:77] Creating layer res2b_relu1
I0922 16:12:00.962222  8100 net.cpp:100] Creating Layer res2b_relu1
I0922 16:12:00.962222  8100 net.cpp:444] res2b_relu1 <- res2b1
I0922 16:12:00.962222  8100 net.cpp:405] res2b_relu1 -> res2b1 (in-place)
I0922 16:12:00.963219  8100 net.cpp:150] Setting up res2b_relu1
I0922 16:12:00.963219  8100 net.cpp:157] Top shape: 30 64 64 64 (7864320)
I0922 16:12:00.963219  8100 net.cpp:165] Memory required for data: 3535212724
I0922 16:12:00.963219  8100 layer_factory.hpp:77] Creating layer res2b1_res2b_relu1_0_split
I0922 16:12:00.963219  8100 net.cpp:100] Creating Layer res2b1_res2b_relu1_0_split
I0922 16:12:00.963219  8100 net.cpp:444] res2b1_res2b_relu1_0_split <- res2b1
I0922 16:12:00.963219  8100 net.cpp:418] res2b1_res2b_relu1_0_split -> res2b1_res2b_relu1_0_split_0
I0922 16:12:00.963219  8100 net.cpp:418] res2b1_res2b_relu1_0_split -> res2b1_res2b_relu1_0_split_1
I0922 16:12:00.964216  8100 net.cpp:150] Setting up res2b1_res2b_relu1_0_split
I0922 16:12:00.964216  8100 net.cpp:157] Top shape: 30 64 64 64 (7864320)
I0922 16:12:00.964216  8100 net.cpp:157] Top shape: 30 64 64 64 (7864320)
I0922 16:12:00.964216  8100 net.cpp:165] Memory required for data: 3598127284
I0922 16:12:00.964216  8100 layer_factory.hpp:77] Creating layer res3a_branch11
I0922 16:12:00.964216  8100 net.cpp:100] Creating Layer res3a_branch11
I0922 16:12:00.964216  8100 net.cpp:444] res3a_branch11 <- res2b1_res2b_relu1_0_split_0
I0922 16:12:00.964216  8100 net.cpp:418] res3a_branch11 -> res3a_branch11
I0922 16:12:00.969204  8100 net.cpp:150] Setting up res3a_branch11
I0922 16:12:00.970201  8100 net.cpp:157] Top shape: 30 128 32 32 (3932160)
I0922 16:12:00.970201  8100 net.cpp:165] Memory required for data: 3613855924
I0922 16:12:00.970201  8100 layer_factory.hpp:77] Creating layer bn3a_branch11
I0922 16:12:00.970201  8100 net.cpp:100] Creating Layer bn3a_branch11
I0922 16:12:00.971199  8100 net.cpp:444] bn3a_branch11 <- res3a_branch11
I0922 16:12:00.971199  8100 net.cpp:405] bn3a_branch11 -> res3a_branch11 (in-place)
I0922 16:12:00.973192  8100 net.cpp:150] Setting up bn3a_branch11
I0922 16:12:00.973192  8100 net.cpp:157] Top shape: 30 128 32 32 (3932160)
I0922 16:12:00.974190  8100 net.cpp:165] Memory required for data: 3629584564
I0922 16:12:00.974190  8100 layer_factory.hpp:77] Creating layer scale3a_branch11
I0922 16:12:00.974190  8100 net.cpp:100] Creating Layer scale3a_branch11
I0922 16:12:00.974190  8100 net.cpp:444] scale3a_branch11 <- res3a_branch11
I0922 16:12:00.974190  8100 net.cpp:405] scale3a_branch11 -> res3a_branch11 (in-place)
I0922 16:12:00.974190  8100 layer_factory.hpp:77] Creating layer scale3a_branch11
I0922 16:12:00.974190  8100 net.cpp:150] Setting up scale3a_branch11
I0922 16:12:00.974190  8100 net.cpp:157] Top shape: 30 128 32 32 (3932160)
I0922 16:12:00.974190  8100 net.cpp:165] Memory required for data: 3645313204
I0922 16:12:00.974190  8100 layer_factory.hpp:77] Creating layer res3a_branch2a1
I0922 16:12:00.974190  8100 net.cpp:100] Creating Layer res3a_branch2a1
I0922 16:12:00.975188  8100 net.cpp:444] res3a_branch2a1 <- res2b1_res2b_relu1_0_split_1
I0922 16:12:00.975188  8100 net.cpp:418] res3a_branch2a1 -> res3a_branch2a1
I0922 16:12:00.978179  8100 net.cpp:150] Setting up res3a_branch2a1
I0922 16:12:00.980175  8100 net.cpp:157] Top shape: 30 128 32 32 (3932160)
I0922 16:12:00.980175  8100 net.cpp:165] Memory required for data: 3661041844
I0922 16:12:00.980175  8100 layer_factory.hpp:77] Creating layer bn3a_branch2a1
I0922 16:12:00.980175  8100 net.cpp:100] Creating Layer bn3a_branch2a1
I0922 16:12:00.980175  8100 net.cpp:444] bn3a_branch2a1 <- res3a_branch2a1
I0922 16:12:00.980175  8100 net.cpp:405] bn3a_branch2a1 -> res3a_branch2a1 (in-place)
I0922 16:12:00.981171  8100 net.cpp:150] Setting up bn3a_branch2a1
I0922 16:12:00.981171  8100 net.cpp:157] Top shape: 30 128 32 32 (3932160)
I0922 16:12:00.981171  8100 net.cpp:165] Memory required for data: 3676770484
I0922 16:12:00.981171  8100 layer_factory.hpp:77] Creating layer scale3a_branch2a1
I0922 16:12:00.981171  8100 net.cpp:100] Creating Layer scale3a_branch2a1
I0922 16:12:00.981171  8100 net.cpp:444] scale3a_branch2a1 <- res3a_branch2a1
I0922 16:12:00.981171  8100 net.cpp:405] scale3a_branch2a1 -> res3a_branch2a1 (in-place)
I0922 16:12:00.981171  8100 layer_factory.hpp:77] Creating layer scale3a_branch2a1
I0922 16:12:00.982168  8100 net.cpp:150] Setting up scale3a_branch2a1
I0922 16:12:00.982168  8100 net.cpp:157] Top shape: 30 128 32 32 (3932160)
I0922 16:12:00.982168  8100 net.cpp:165] Memory required for data: 3692499124
I0922 16:12:00.982168  8100 layer_factory.hpp:77] Creating layer res3a_branch2a_relu1
I0922 16:12:00.982168  8100 net.cpp:100] Creating Layer res3a_branch2a_relu1
I0922 16:12:00.982168  8100 net.cpp:444] res3a_branch2a_relu1 <- res3a_branch2a1
I0922 16:12:00.983166  8100 net.cpp:405] res3a_branch2a_relu1 -> res3a_branch2a1 (in-place)
I0922 16:12:00.984163  8100 net.cpp:150] Setting up res3a_branch2a_relu1
I0922 16:12:00.985162  8100 net.cpp:157] Top shape: 30 128 32 32 (3932160)
I0922 16:12:00.985162  8100 net.cpp:165] Memory required for data: 3708227764
I0922 16:12:00.985162  8100 layer_factory.hpp:77] Creating layer res3a_branch2b1
I0922 16:12:00.985162  8100 net.cpp:100] Creating Layer res3a_branch2b1
I0922 16:12:00.985162  8100 net.cpp:444] res3a_branch2b1 <- res3a_branch2a1
I0922 16:12:00.985162  8100 net.cpp:418] res3a_branch2b1 -> res3a_branch2b1
I0922 16:12:00.994136  8100 net.cpp:150] Setting up res3a_branch2b1
I0922 16:12:00.994136  8100 net.cpp:157] Top shape: 30 128 32 32 (3932160)
I0922 16:12:00.994136  8100 net.cpp:165] Memory required for data: 3723956404
I0922 16:12:00.994136  8100 layer_factory.hpp:77] Creating layer bn3a_branch2b1
I0922 16:12:00.994136  8100 net.cpp:100] Creating Layer bn3a_branch2b1
I0922 16:12:00.994136  8100 net.cpp:444] bn3a_branch2b1 <- res3a_branch2b1
I0922 16:12:00.994136  8100 net.cpp:405] bn3a_branch2b1 -> res3a_branch2b1 (in-place)
I0922 16:12:00.995134  8100 net.cpp:150] Setting up bn3a_branch2b1
I0922 16:12:00.995134  8100 net.cpp:157] Top shape: 30 128 32 32 (3932160)
I0922 16:12:00.995134  8100 net.cpp:165] Memory required for data: 3739685044
I0922 16:12:00.995134  8100 layer_factory.hpp:77] Creating layer scale3a_branch2b1
I0922 16:12:00.995134  8100 net.cpp:100] Creating Layer scale3a_branch2b1
I0922 16:12:00.995134  8100 net.cpp:444] scale3a_branch2b1 <- res3a_branch2b1
I0922 16:12:00.995134  8100 net.cpp:405] scale3a_branch2b1 -> res3a_branch2b1 (in-place)
I0922 16:12:00.995134  8100 layer_factory.hpp:77] Creating layer scale3a_branch2b1
I0922 16:12:00.995134  8100 net.cpp:150] Setting up scale3a_branch2b1
I0922 16:12:00.995134  8100 net.cpp:157] Top shape: 30 128 32 32 (3932160)
I0922 16:12:00.995134  8100 net.cpp:165] Memory required for data: 3755413684
I0922 16:12:00.996131  8100 layer_factory.hpp:77] Creating layer res3a1
I0922 16:12:00.996131  8100 net.cpp:100] Creating Layer res3a1
I0922 16:12:00.996131  8100 net.cpp:444] res3a1 <- res3a_branch11
I0922 16:12:00.996131  8100 net.cpp:444] res3a1 <- res3a_branch2b1
I0922 16:12:00.996131  8100 net.cpp:418] res3a1 -> res3a1
I0922 16:12:00.996131  8100 net.cpp:150] Setting up res3a1
I0922 16:12:00.996131  8100 net.cpp:157] Top shape: 30 128 32 32 (3932160)
I0922 16:12:00.996131  8100 net.cpp:165] Memory required for data: 3771142324
I0922 16:12:00.996131  8100 layer_factory.hpp:77] Creating layer res3a_relu1
I0922 16:12:00.996131  8100 net.cpp:100] Creating Layer res3a_relu1
I0922 16:12:00.996131  8100 net.cpp:444] res3a_relu1 <- res3a1
I0922 16:12:00.996131  8100 net.cpp:405] res3a_relu1 -> res3a1 (in-place)
I0922 16:12:00.997128  8100 net.cpp:150] Setting up res3a_relu1
I0922 16:12:00.997128  8100 net.cpp:157] Top shape: 30 128 32 32 (3932160)
I0922 16:12:00.997128  8100 net.cpp:165] Memory required for data: 3786870964
I0922 16:12:00.997128  8100 layer_factory.hpp:77] Creating layer res3a1_res3a_relu1_0_split
I0922 16:12:00.997128  8100 net.cpp:100] Creating Layer res3a1_res3a_relu1_0_split
I0922 16:12:00.998126  8100 net.cpp:444] res3a1_res3a_relu1_0_split <- res3a1
I0922 16:12:00.998126  8100 net.cpp:418] res3a1_res3a_relu1_0_split -> res3a1_res3a_relu1_0_split_0
I0922 16:12:00.998126  8100 net.cpp:418] res3a1_res3a_relu1_0_split -> res3a1_res3a_relu1_0_split_1
I0922 16:12:00.998126  8100 net.cpp:150] Setting up res3a1_res3a_relu1_0_split
I0922 16:12:00.998126  8100 net.cpp:157] Top shape: 30 128 32 32 (3932160)
I0922 16:12:00.998126  8100 net.cpp:157] Top shape: 30 128 32 32 (3932160)
I0922 16:12:00.998126  8100 net.cpp:165] Memory required for data: 3818328244
I0922 16:12:01.001118  8100 layer_factory.hpp:77] Creating layer res3b_branch2a1
I0922 16:12:01.001118  8100 net.cpp:100] Creating Layer res3b_branch2a1
I0922 16:12:01.001118  8100 net.cpp:444] res3b_branch2a1 <- res3a1_res3a_relu1_0_split_0
I0922 16:12:01.001118  8100 net.cpp:418] res3b_branch2a1 -> res3b_branch2a1
I0922 16:12:01.007102  8100 net.cpp:150] Setting up res3b_branch2a1
I0922 16:12:01.008100  8100 net.cpp:157] Top shape: 30 128 32 32 (3932160)
I0922 16:12:01.008100  8100 net.cpp:165] Memory required for data: 3834056884
I0922 16:12:01.008100  8100 layer_factory.hpp:77] Creating layer bn3b_branch2a1
I0922 16:12:01.008100  8100 net.cpp:100] Creating Layer bn3b_branch2a1
I0922 16:12:01.008100  8100 net.cpp:444] bn3b_branch2a1 <- res3b_branch2a1
I0922 16:12:01.008100  8100 net.cpp:405] bn3b_branch2a1 -> res3b_branch2a1 (in-place)
I0922 16:12:01.008100  8100 net.cpp:150] Setting up bn3b_branch2a1
I0922 16:12:01.008100  8100 net.cpp:157] Top shape: 30 128 32 32 (3932160)
I0922 16:12:01.008100  8100 net.cpp:165] Memory required for data: 3849785524
I0922 16:12:01.009096  8100 layer_factory.hpp:77] Creating layer scale3b_branch2a1
I0922 16:12:01.009096  8100 net.cpp:100] Creating Layer scale3b_branch2a1
I0922 16:12:01.009096  8100 net.cpp:444] scale3b_branch2a1 <- res3b_branch2a1
I0922 16:12:01.009096  8100 net.cpp:405] scale3b_branch2a1 -> res3b_branch2a1 (in-place)
I0922 16:12:01.009096  8100 layer_factory.hpp:77] Creating layer scale3b_branch2a1
I0922 16:12:01.009096  8100 net.cpp:150] Setting up scale3b_branch2a1
I0922 16:12:01.009096  8100 net.cpp:157] Top shape: 30 128 32 32 (3932160)
I0922 16:12:01.009096  8100 net.cpp:165] Memory required for data: 3865514164
I0922 16:12:01.009096  8100 layer_factory.hpp:77] Creating layer res3b_branch2a_relu1
I0922 16:12:01.009096  8100 net.cpp:100] Creating Layer res3b_branch2a_relu1
I0922 16:12:01.009096  8100 net.cpp:444] res3b_branch2a_relu1 <- res3b_branch2a1
I0922 16:12:01.010093  8100 net.cpp:405] res3b_branch2a_relu1 -> res3b_branch2a1 (in-place)
I0922 16:12:01.012089  8100 net.cpp:150] Setting up res3b_branch2a_relu1
I0922 16:12:01.012089  8100 net.cpp:157] Top shape: 30 128 32 32 (3932160)
I0922 16:12:01.012089  8100 net.cpp:165] Memory required for data: 3881242804
I0922 16:12:01.012089  8100 layer_factory.hpp:77] Creating layer res3b_branch2b1
I0922 16:12:01.012089  8100 net.cpp:100] Creating Layer res3b_branch2b1
I0922 16:12:01.012089  8100 net.cpp:444] res3b_branch2b1 <- res3b_branch2a1
I0922 16:12:01.012089  8100 net.cpp:418] res3b_branch2b1 -> res3b_branch2b1
I0922 16:12:01.018074  8100 net.cpp:150] Setting up res3b_branch2b1
I0922 16:12:01.018074  8100 net.cpp:157] Top shape: 30 128 32 32 (3932160)
I0922 16:12:01.018074  8100 net.cpp:165] Memory required for data: 3896971444
I0922 16:12:01.018074  8100 layer_factory.hpp:77] Creating layer bn3b_branch2b1
I0922 16:12:01.018074  8100 net.cpp:100] Creating Layer bn3b_branch2b1
I0922 16:12:01.018074  8100 net.cpp:444] bn3b_branch2b1 <- res3b_branch2b1
I0922 16:12:01.018074  8100 net.cpp:405] bn3b_branch2b1 -> res3b_branch2b1 (in-place)
I0922 16:12:01.019070  8100 net.cpp:150] Setting up bn3b_branch2b1
I0922 16:12:01.019070  8100 net.cpp:157] Top shape: 30 128 32 32 (3932160)
I0922 16:12:01.019070  8100 net.cpp:165] Memory required for data: 3912700084
I0922 16:12:01.019070  8100 layer_factory.hpp:77] Creating layer scale3b_branch2b1
I0922 16:12:01.019070  8100 net.cpp:100] Creating Layer scale3b_branch2b1
I0922 16:12:01.019070  8100 net.cpp:444] scale3b_branch2b1 <- res3b_branch2b1
I0922 16:12:01.019070  8100 net.cpp:405] scale3b_branch2b1 -> res3b_branch2b1 (in-place)
I0922 16:12:01.019070  8100 layer_factory.hpp:77] Creating layer scale3b_branch2b1
I0922 16:12:01.019070  8100 net.cpp:150] Setting up scale3b_branch2b1
I0922 16:12:01.022063  8100 net.cpp:157] Top shape: 30 128 32 32 (3932160)
I0922 16:12:01.023059  8100 net.cpp:165] Memory required for data: 3928428724
I0922 16:12:01.023059  8100 layer_factory.hpp:77] Creating layer res3b1
I0922 16:12:01.023059  8100 net.cpp:100] Creating Layer res3b1
I0922 16:12:01.024068  8100 net.cpp:444] res3b1 <- res3a1_res3a_relu1_0_split_1
I0922 16:12:01.024068  8100 net.cpp:444] res3b1 <- res3b_branch2b1
I0922 16:12:01.024068  8100 net.cpp:418] res3b1 -> res3b1
I0922 16:12:01.024068  8100 net.cpp:150] Setting up res3b1
I0922 16:12:01.024068  8100 net.cpp:157] Top shape: 30 128 32 32 (3932160)
I0922 16:12:01.024068  8100 net.cpp:165] Memory required for data: 3944157364
I0922 16:12:01.024068  8100 layer_factory.hpp:77] Creating layer res3b_relu1
I0922 16:12:01.024068  8100 net.cpp:100] Creating Layer res3b_relu1
I0922 16:12:01.024068  8100 net.cpp:444] res3b_relu1 <- res3b1
I0922 16:12:01.024068  8100 net.cpp:405] res3b_relu1 -> res3b1 (in-place)
I0922 16:12:01.025054  8100 net.cpp:150] Setting up res3b_relu1
I0922 16:12:01.025054  8100 net.cpp:157] Top shape: 30 128 32 32 (3932160)
I0922 16:12:01.026051  8100 net.cpp:165] Memory required for data: 3959886004
I0922 16:12:01.026051  8100 layer_factory.hpp:77] Creating layer res3b1_res3b_relu1_0_split
I0922 16:12:01.026051  8100 net.cpp:100] Creating Layer res3b1_res3b_relu1_0_split
I0922 16:12:01.026051  8100 net.cpp:444] res3b1_res3b_relu1_0_split <- res3b1
I0922 16:12:01.026051  8100 net.cpp:418] res3b1_res3b_relu1_0_split -> res3b1_res3b_relu1_0_split_0
I0922 16:12:01.026051  8100 net.cpp:418] res3b1_res3b_relu1_0_split -> res3b1_res3b_relu1_0_split_1
I0922 16:12:01.026051  8100 net.cpp:150] Setting up res3b1_res3b_relu1_0_split
I0922 16:12:01.026051  8100 net.cpp:157] Top shape: 30 128 32 32 (3932160)
I0922 16:12:01.026051  8100 net.cpp:157] Top shape: 30 128 32 32 (3932160)
I0922 16:12:01.026051  8100 net.cpp:165] Memory required for data: 3991343284
I0922 16:12:01.026051  8100 layer_factory.hpp:77] Creating layer res4a_branch11
I0922 16:12:01.026051  8100 net.cpp:100] Creating Layer res4a_branch11
I0922 16:12:01.027048  8100 net.cpp:444] res4a_branch11 <- res3b1_res3b_relu1_0_split_0
I0922 16:12:01.027048  8100 net.cpp:418] res4a_branch11 -> res4a_branch11
I0922 16:12:01.030040  8100 net.cpp:150] Setting up res4a_branch11
I0922 16:12:01.031039  8100 net.cpp:157] Top shape: 30 256 16 16 (1966080)
I0922 16:12:01.031039  8100 net.cpp:165] Memory required for data: 3999207604
I0922 16:12:01.031039  8100 layer_factory.hpp:77] Creating layer bn4a_branch11
I0922 16:12:01.031039  8100 net.cpp:100] Creating Layer bn4a_branch11
I0922 16:12:01.031039  8100 net.cpp:444] bn4a_branch11 <- res4a_branch11
I0922 16:12:01.032035  8100 net.cpp:405] bn4a_branch11 -> res4a_branch11 (in-place)
I0922 16:12:01.032035  8100 net.cpp:150] Setting up bn4a_branch11
I0922 16:12:01.033032  8100 net.cpp:157] Top shape: 30 256 16 16 (1966080)
I0922 16:12:01.033032  8100 net.cpp:165] Memory required for data: 4007071924
I0922 16:12:01.033032  8100 layer_factory.hpp:77] Creating layer scale4a_branch11
I0922 16:12:01.033032  8100 net.cpp:100] Creating Layer scale4a_branch11
I0922 16:12:01.033032  8100 net.cpp:444] scale4a_branch11 <- res4a_branch11
I0922 16:12:01.033032  8100 net.cpp:405] scale4a_branch11 -> res4a_branch11 (in-place)
I0922 16:12:01.034030  8100 layer_factory.hpp:77] Creating layer scale4a_branch11
I0922 16:12:01.034030  8100 net.cpp:150] Setting up scale4a_branch11
I0922 16:12:01.034030  8100 net.cpp:157] Top shape: 30 256 16 16 (1966080)
I0922 16:12:01.034030  8100 net.cpp:165] Memory required for data: 4014936244
I0922 16:12:01.034030  8100 layer_factory.hpp:77] Creating layer res4a_branch2a1
I0922 16:12:01.035027  8100 net.cpp:100] Creating Layer res4a_branch2a1
I0922 16:12:01.035027  8100 net.cpp:444] res4a_branch2a1 <- res3b1_res3b_relu1_0_split_1
I0922 16:12:01.035027  8100 net.cpp:418] res4a_branch2a1 -> res4a_branch2a1
I0922 16:12:01.044003  8100 net.cpp:150] Setting up res4a_branch2a1
I0922 16:12:01.044003  8100 net.cpp:157] Top shape: 30 256 16 16 (1966080)
I0922 16:12:01.044003  8100 net.cpp:165] Memory required for data: 4022800564
I0922 16:12:01.044003  8100 layer_factory.hpp:77] Creating layer bn4a_branch2a1
I0922 16:12:01.044003  8100 net.cpp:100] Creating Layer bn4a_branch2a1
I0922 16:12:01.044003  8100 net.cpp:444] bn4a_branch2a1 <- res4a_branch2a1
I0922 16:12:01.044003  8100 net.cpp:405] bn4a_branch2a1 -> res4a_branch2a1 (in-place)
I0922 16:12:01.044003  8100 net.cpp:150] Setting up bn4a_branch2a1
I0922 16:12:01.045001  8100 net.cpp:157] Top shape: 30 256 16 16 (1966080)
I0922 16:12:01.045001  8100 net.cpp:165] Memory required for data: 4030664884
I0922 16:12:01.045001  8100 layer_factory.hpp:77] Creating layer scale4a_branch2a1
I0922 16:12:01.045001  8100 net.cpp:100] Creating Layer scale4a_branch2a1
I0922 16:12:01.045001  8100 net.cpp:444] scale4a_branch2a1 <- res4a_branch2a1
I0922 16:12:01.045001  8100 net.cpp:405] scale4a_branch2a1 -> res4a_branch2a1 (in-place)
I0922 16:12:01.045001  8100 layer_factory.hpp:77] Creating layer scale4a_branch2a1
I0922 16:12:01.045001  8100 net.cpp:150] Setting up scale4a_branch2a1
I0922 16:12:01.045001  8100 net.cpp:157] Top shape: 30 256 16 16 (1966080)
I0922 16:12:01.045001  8100 net.cpp:165] Memory required for data: 4038529204
I0922 16:12:01.045001  8100 layer_factory.hpp:77] Creating layer res4a_branch2a_relu1
I0922 16:12:01.045998  8100 net.cpp:100] Creating Layer res4a_branch2a_relu1
I0922 16:12:01.045998  8100 net.cpp:444] res4a_branch2a_relu1 <- res4a_branch2a1
I0922 16:12:01.045998  8100 net.cpp:405] res4a_branch2a_relu1 -> res4a_branch2a1 (in-place)
I0922 16:12:01.045998  8100 net.cpp:150] Setting up res4a_branch2a_relu1
I0922 16:12:01.046994  8100 net.cpp:157] Top shape: 30 256 16 16 (1966080)
I0922 16:12:01.046994  8100 net.cpp:165] Memory required for data: 4046393524
I0922 16:12:01.046994  8100 layer_factory.hpp:77] Creating layer res4a_branch2b1
I0922 16:12:01.046994  8100 net.cpp:100] Creating Layer res4a_branch2b1
I0922 16:12:01.046994  8100 net.cpp:444] res4a_branch2b1 <- res4a_branch2a1
I0922 16:12:01.046994  8100 net.cpp:418] res4a_branch2b1 -> res4a_branch2b1
I0922 16:12:01.059960  8100 net.cpp:150] Setting up res4a_branch2b1
I0922 16:12:01.059960  8100 net.cpp:157] Top shape: 30 256 16 16 (1966080)
I0922 16:12:01.059960  8100 net.cpp:165] Memory required for data: 4054257844
I0922 16:12:01.059960  8100 layer_factory.hpp:77] Creating layer bn4a_branch2b1
I0922 16:12:01.060957  8100 net.cpp:100] Creating Layer bn4a_branch2b1
I0922 16:12:01.060957  8100 net.cpp:444] bn4a_branch2b1 <- res4a_branch2b1
I0922 16:12:01.060957  8100 net.cpp:405] bn4a_branch2b1 -> res4a_branch2b1 (in-place)
I0922 16:12:01.060957  8100 net.cpp:150] Setting up bn4a_branch2b1
I0922 16:12:01.060957  8100 net.cpp:157] Top shape: 30 256 16 16 (1966080)
I0922 16:12:01.060957  8100 net.cpp:165] Memory required for data: 4062122164
I0922 16:12:01.060957  8100 layer_factory.hpp:77] Creating layer scale4a_branch2b1
I0922 16:12:01.060957  8100 net.cpp:100] Creating Layer scale4a_branch2b1
I0922 16:12:01.060957  8100 net.cpp:444] scale4a_branch2b1 <- res4a_branch2b1
I0922 16:12:01.061954  8100 net.cpp:405] scale4a_branch2b1 -> res4a_branch2b1 (in-place)
I0922 16:12:01.061954  8100 layer_factory.hpp:77] Creating layer scale4a_branch2b1
I0922 16:12:01.061954  8100 net.cpp:150] Setting up scale4a_branch2b1
I0922 16:12:01.061954  8100 net.cpp:157] Top shape: 30 256 16 16 (1966080)
I0922 16:12:01.061954  8100 net.cpp:165] Memory required for data: 4069986484
I0922 16:12:01.061954  8100 layer_factory.hpp:77] Creating layer res4a1
I0922 16:12:01.061954  8100 net.cpp:100] Creating Layer res4a1
I0922 16:12:01.061954  8100 net.cpp:444] res4a1 <- res4a_branch11
I0922 16:12:01.061954  8100 net.cpp:444] res4a1 <- res4a_branch2b1
I0922 16:12:01.061954  8100 net.cpp:418] res4a1 -> res4a1
I0922 16:12:01.062953  8100 net.cpp:150] Setting up res4a1
I0922 16:12:01.062953  8100 net.cpp:157] Top shape: 30 256 16 16 (1966080)
I0922 16:12:01.062953  8100 net.cpp:165] Memory required for data: 4077850804
I0922 16:12:01.062953  8100 layer_factory.hpp:77] Creating layer res4a_relu1
I0922 16:12:01.062953  8100 net.cpp:100] Creating Layer res4a_relu1
I0922 16:12:01.062953  8100 net.cpp:444] res4a_relu1 <- res4a1
I0922 16:12:01.062953  8100 net.cpp:405] res4a_relu1 -> res4a1 (in-place)
I0922 16:12:01.063951  8100 net.cpp:150] Setting up res4a_relu1
I0922 16:12:01.063951  8100 net.cpp:157] Top shape: 30 256 16 16 (1966080)
I0922 16:12:01.063951  8100 net.cpp:165] Memory required for data: 4085715124
I0922 16:12:01.063951  8100 layer_factory.hpp:77] Creating layer res4a1_res4a_relu1_0_split
I0922 16:12:01.063951  8100 net.cpp:100] Creating Layer res4a1_res4a_relu1_0_split
I0922 16:12:01.063951  8100 net.cpp:444] res4a1_res4a_relu1_0_split <- res4a1
I0922 16:12:01.063951  8100 net.cpp:418] res4a1_res4a_relu1_0_split -> res4a1_res4a_relu1_0_split_0
I0922 16:12:01.063951  8100 net.cpp:418] res4a1_res4a_relu1_0_split -> res4a1_res4a_relu1_0_split_1
I0922 16:12:01.064947  8100 net.cpp:150] Setting up res4a1_res4a_relu1_0_split
I0922 16:12:01.064947  8100 net.cpp:157] Top shape: 30 256 16 16 (1966080)
I0922 16:12:01.064947  8100 net.cpp:157] Top shape: 30 256 16 16 (1966080)
I0922 16:12:01.064947  8100 net.cpp:165] Memory required for data: 4101443764
I0922 16:12:01.064947  8100 layer_factory.hpp:77] Creating layer res4b_branch2a1
I0922 16:12:01.064947  8100 net.cpp:100] Creating Layer res4b_branch2a1
I0922 16:12:01.064947  8100 net.cpp:444] res4b_branch2a1 <- res4a1_res4a_relu1_0_split_0
I0922 16:12:01.065948  8100 net.cpp:418] res4b_branch2a1 -> res4b_branch2a1
I0922 16:12:01.076915  8100 net.cpp:150] Setting up res4b_branch2a1
I0922 16:12:01.076915  8100 net.cpp:157] Top shape: 30 256 16 16 (1966080)
I0922 16:12:01.077913  8100 net.cpp:165] Memory required for data: 4109308084
I0922 16:12:01.077913  8100 layer_factory.hpp:77] Creating layer bn4b_branch2a1
I0922 16:12:01.077913  8100 net.cpp:100] Creating Layer bn4b_branch2a1
I0922 16:12:01.077913  8100 net.cpp:444] bn4b_branch2a1 <- res4b_branch2a1
I0922 16:12:01.077913  8100 net.cpp:405] bn4b_branch2a1 -> res4b_branch2a1 (in-place)
I0922 16:12:01.077913  8100 net.cpp:150] Setting up bn4b_branch2a1
I0922 16:12:01.077913  8100 net.cpp:157] Top shape: 30 256 16 16 (1966080)
I0922 16:12:01.077913  8100 net.cpp:165] Memory required for data: 4117172404
I0922 16:12:01.077913  8100 layer_factory.hpp:77] Creating layer scale4b_branch2a1
I0922 16:12:01.078910  8100 net.cpp:100] Creating Layer scale4b_branch2a1
I0922 16:12:01.078910  8100 net.cpp:444] scale4b_branch2a1 <- res4b_branch2a1
I0922 16:12:01.078910  8100 net.cpp:405] scale4b_branch2a1 -> res4b_branch2a1 (in-place)
I0922 16:12:01.078910  8100 layer_factory.hpp:77] Creating layer scale4b_branch2a1
I0922 16:12:01.078910  8100 net.cpp:150] Setting up scale4b_branch2a1
I0922 16:12:01.078910  8100 net.cpp:157] Top shape: 30 256 16 16 (1966080)
I0922 16:12:01.078910  8100 net.cpp:165] Memory required for data: 4125036724
I0922 16:12:01.078910  8100 layer_factory.hpp:77] Creating layer res4b_branch2a_relu1
I0922 16:12:01.078910  8100 net.cpp:100] Creating Layer res4b_branch2a_relu1
I0922 16:12:01.078910  8100 net.cpp:444] res4b_branch2a_relu1 <- res4b_branch2a1
I0922 16:12:01.078910  8100 net.cpp:405] res4b_branch2a_relu1 -> res4b_branch2a1 (in-place)
I0922 16:12:01.080904  8100 net.cpp:150] Setting up res4b_branch2a_relu1
I0922 16:12:01.080904  8100 net.cpp:157] Top shape: 30 256 16 16 (1966080)
I0922 16:12:01.080904  8100 net.cpp:165] Memory required for data: 4132901044
I0922 16:12:01.080904  8100 layer_factory.hpp:77] Creating layer res4b_branch2b1
I0922 16:12:01.080904  8100 net.cpp:100] Creating Layer res4b_branch2b1
I0922 16:12:01.080904  8100 net.cpp:444] res4b_branch2b1 <- res4b_branch2a1
I0922 16:12:01.080904  8100 net.cpp:418] res4b_branch2b1 -> res4b_branch2b1
I0922 16:12:01.093869  8100 net.cpp:150] Setting up res4b_branch2b1
I0922 16:12:01.093869  8100 net.cpp:157] Top shape: 30 256 16 16 (1966080)
I0922 16:12:01.093869  8100 net.cpp:165] Memory required for data: 4140765364
I0922 16:12:01.093869  8100 layer_factory.hpp:77] Creating layer bn4b_branch2b1
I0922 16:12:01.094866  8100 net.cpp:100] Creating Layer bn4b_branch2b1
I0922 16:12:01.094866  8100 net.cpp:444] bn4b_branch2b1 <- res4b_branch2b1
I0922 16:12:01.094866  8100 net.cpp:405] bn4b_branch2b1 -> res4b_branch2b1 (in-place)
I0922 16:12:01.094866  8100 net.cpp:150] Setting up bn4b_branch2b1
I0922 16:12:01.094866  8100 net.cpp:157] Top shape: 30 256 16 16 (1966080)
I0922 16:12:01.094866  8100 net.cpp:165] Memory required for data: 4148629684
I0922 16:12:01.094866  8100 layer_factory.hpp:77] Creating layer scale4b_branch2b1
I0922 16:12:01.094866  8100 net.cpp:100] Creating Layer scale4b_branch2b1
I0922 16:12:01.094866  8100 net.cpp:444] scale4b_branch2b1 <- res4b_branch2b1
I0922 16:12:01.094866  8100 net.cpp:405] scale4b_branch2b1 -> res4b_branch2b1 (in-place)
I0922 16:12:01.095865  8100 layer_factory.hpp:77] Creating layer scale4b_branch2b1
I0922 16:12:01.095865  8100 net.cpp:150] Setting up scale4b_branch2b1
I0922 16:12:01.095865  8100 net.cpp:157] Top shape: 30 256 16 16 (1966080)
I0922 16:12:01.095865  8100 net.cpp:165] Memory required for data: 4156494004
I0922 16:12:01.095865  8100 layer_factory.hpp:77] Creating layer res4b1
I0922 16:12:01.095865  8100 net.cpp:100] Creating Layer res4b1
I0922 16:12:01.095865  8100 net.cpp:444] res4b1 <- res4a1_res4a_relu1_0_split_1
I0922 16:12:01.095865  8100 net.cpp:444] res4b1 <- res4b_branch2b1
I0922 16:12:01.095865  8100 net.cpp:418] res4b1 -> res4b1
I0922 16:12:01.096861  8100 net.cpp:150] Setting up res4b1
I0922 16:12:01.096861  8100 net.cpp:157] Top shape: 30 256 16 16 (1966080)
I0922 16:12:01.096861  8100 net.cpp:165] Memory required for data: 4164358324
I0922 16:12:01.096861  8100 layer_factory.hpp:77] Creating layer res4b_relu1
I0922 16:12:01.096861  8100 net.cpp:100] Creating Layer res4b_relu1
I0922 16:12:01.096861  8100 net.cpp:444] res4b_relu1 <- res4b1
I0922 16:12:01.096861  8100 net.cpp:405] res4b_relu1 -> res4b1 (in-place)
I0922 16:12:01.097859  8100 net.cpp:150] Setting up res4b_relu1
I0922 16:12:01.097859  8100 net.cpp:157] Top shape: 30 256 16 16 (1966080)
I0922 16:12:01.097859  8100 net.cpp:165] Memory required for data: 4172222644
I0922 16:12:01.097859  8100 layer_factory.hpp:77] Creating layer res4b1_res4b_relu1_0_split
I0922 16:12:01.097859  8100 net.cpp:100] Creating Layer res4b1_res4b_relu1_0_split
I0922 16:12:01.097859  8100 net.cpp:444] res4b1_res4b_relu1_0_split <- res4b1
I0922 16:12:01.100852  8100 net.cpp:418] res4b1_res4b_relu1_0_split -> res4b1_res4b_relu1_0_split_0
I0922 16:12:01.100852  8100 net.cpp:418] res4b1_res4b_relu1_0_split -> res4b1_res4b_relu1_0_split_1
I0922 16:12:01.100852  8100 net.cpp:150] Setting up res4b1_res4b_relu1_0_split
I0922 16:12:01.100852  8100 net.cpp:157] Top shape: 30 256 16 16 (1966080)
I0922 16:12:01.100852  8100 net.cpp:157] Top shape: 30 256 16 16 (1966080)
I0922 16:12:01.100852  8100 net.cpp:165] Memory required for data: 4187951284
I0922 16:12:01.100852  8100 layer_factory.hpp:77] Creating layer res5a_branch11
I0922 16:12:01.100852  8100 net.cpp:100] Creating Layer res5a_branch11
I0922 16:12:01.100852  8100 net.cpp:444] res5a_branch11 <- res4b1_res4b_relu1_0_split_0
I0922 16:12:01.101851  8100 net.cpp:418] res5a_branch11 -> res5a_branch11
I0922 16:12:01.106835  8100 net.cpp:150] Setting up res5a_branch11
I0922 16:12:01.106835  8100 net.cpp:157] Top shape: 30 512 8 8 (983040)
I0922 16:12:01.106835  8100 net.cpp:165] Memory required for data: 4191883444
I0922 16:12:01.106835  8100 layer_factory.hpp:77] Creating layer bn5a_branch11
I0922 16:12:01.106835  8100 net.cpp:100] Creating Layer bn5a_branch11
I0922 16:12:01.106835  8100 net.cpp:444] bn5a_branch11 <- res5a_branch11
I0922 16:12:01.106835  8100 net.cpp:405] bn5a_branch11 -> res5a_branch11 (in-place)
I0922 16:12:01.107832  8100 net.cpp:150] Setting up bn5a_branch11
I0922 16:12:01.107832  8100 net.cpp:157] Top shape: 30 512 8 8 (983040)
I0922 16:12:01.107832  8100 net.cpp:165] Memory required for data: 4195815604
I0922 16:12:01.107832  8100 layer_factory.hpp:77] Creating layer scale5a_branch11
I0922 16:12:01.107832  8100 net.cpp:100] Creating Layer scale5a_branch11
I0922 16:12:01.107832  8100 net.cpp:444] scale5a_branch11 <- res5a_branch11
I0922 16:12:01.107832  8100 net.cpp:405] scale5a_branch11 -> res5a_branch11 (in-place)
I0922 16:12:01.107832  8100 layer_factory.hpp:77] Creating layer scale5a_branch11
I0922 16:12:01.108829  8100 net.cpp:150] Setting up scale5a_branch11
I0922 16:12:01.108829  8100 net.cpp:157] Top shape: 30 512 8 8 (983040)
I0922 16:12:01.108829  8100 net.cpp:165] Memory required for data: 4199747764
I0922 16:12:01.108829  8100 layer_factory.hpp:77] Creating layer res5a_branch2a1
I0922 16:12:01.108829  8100 net.cpp:100] Creating Layer res5a_branch2a1
I0922 16:12:01.108829  8100 net.cpp:444] res5a_branch2a1 <- res4b1_res4b_relu1_0_split_1
I0922 16:12:01.108829  8100 net.cpp:418] res5a_branch2a1 -> res5a_branch2a1
I0922 16:12:01.125784  8100 net.cpp:150] Setting up res5a_branch2a1
I0922 16:12:01.125784  8100 net.cpp:157] Top shape: 30 512 8 8 (983040)
I0922 16:12:01.126782  8100 net.cpp:165] Memory required for data: 4203679924
I0922 16:12:01.126782  8100 layer_factory.hpp:77] Creating layer bn5a_branch2a1
I0922 16:12:01.126782  8100 net.cpp:100] Creating Layer bn5a_branch2a1
I0922 16:12:01.126782  8100 net.cpp:444] bn5a_branch2a1 <- res5a_branch2a1
I0922 16:12:01.126782  8100 net.cpp:405] bn5a_branch2a1 -> res5a_branch2a1 (in-place)
I0922 16:12:01.126782  8100 net.cpp:150] Setting up bn5a_branch2a1
I0922 16:12:01.127779  8100 net.cpp:157] Top shape: 30 512 8 8 (983040)
I0922 16:12:01.127779  8100 net.cpp:165] Memory required for data: 4207612084
I0922 16:12:01.127779  8100 layer_factory.hpp:77] Creating layer scale5a_branch2a1
I0922 16:12:01.127779  8100 net.cpp:100] Creating Layer scale5a_branch2a1
I0922 16:12:01.127779  8100 net.cpp:444] scale5a_branch2a1 <- res5a_branch2a1
I0922 16:12:01.127779  8100 net.cpp:405] scale5a_branch2a1 -> res5a_branch2a1 (in-place)
I0922 16:12:01.127779  8100 layer_factory.hpp:77] Creating layer scale5a_branch2a1
I0922 16:12:01.127779  8100 net.cpp:150] Setting up scale5a_branch2a1
I0922 16:12:01.127779  8100 net.cpp:157] Top shape: 30 512 8 8 (983040)
I0922 16:12:01.127779  8100 net.cpp:165] Memory required for data: 4211544244
I0922 16:12:01.128777  8100 layer_factory.hpp:77] Creating layer res5a_branch2a_relu1
I0922 16:12:01.128777  8100 net.cpp:100] Creating Layer res5a_branch2a_relu1
I0922 16:12:01.128777  8100 net.cpp:444] res5a_branch2a_relu1 <- res5a_branch2a1
I0922 16:12:01.128777  8100 net.cpp:405] res5a_branch2a_relu1 -> res5a_branch2a1 (in-place)
I0922 16:12:01.129773  8100 net.cpp:150] Setting up res5a_branch2a_relu1
I0922 16:12:01.129773  8100 net.cpp:157] Top shape: 30 512 8 8 (983040)
I0922 16:12:01.129773  8100 net.cpp:165] Memory required for data: 4215476404
I0922 16:12:01.129773  8100 layer_factory.hpp:77] Creating layer res5a_branch2b1
I0922 16:12:01.129773  8100 net.cpp:100] Creating Layer res5a_branch2b1
I0922 16:12:01.129773  8100 net.cpp:444] res5a_branch2b1 <- res5a_branch2a1
I0922 16:12:01.129773  8100 net.cpp:418] res5a_branch2b1 -> res5a_branch2b1
I0922 16:12:01.159693  8100 net.cpp:150] Setting up res5a_branch2b1
I0922 16:12:01.159693  8100 net.cpp:157] Top shape: 30 512 8 8 (983040)
I0922 16:12:01.159693  8100 net.cpp:165] Memory required for data: 4219408564
I0922 16:12:01.159693  8100 layer_factory.hpp:77] Creating layer bn5a_branch2b1
I0922 16:12:01.159693  8100 net.cpp:100] Creating Layer bn5a_branch2b1
I0922 16:12:01.159693  8100 net.cpp:444] bn5a_branch2b1 <- res5a_branch2b1
I0922 16:12:01.159693  8100 net.cpp:405] bn5a_branch2b1 -> res5a_branch2b1 (in-place)
I0922 16:12:01.160691  8100 net.cpp:150] Setting up bn5a_branch2b1
I0922 16:12:01.160691  8100 net.cpp:157] Top shape: 30 512 8 8 (983040)
I0922 16:12:01.160691  8100 net.cpp:165] Memory required for data: 4223340724
I0922 16:12:01.160691  8100 layer_factory.hpp:77] Creating layer scale5a_branch2b1
I0922 16:12:01.160691  8100 net.cpp:100] Creating Layer scale5a_branch2b1
I0922 16:12:01.160691  8100 net.cpp:444] scale5a_branch2b1 <- res5a_branch2b1
I0922 16:12:01.160691  8100 net.cpp:405] scale5a_branch2b1 -> res5a_branch2b1 (in-place)
I0922 16:12:01.160691  8100 layer_factory.hpp:77] Creating layer scale5a_branch2b1
I0922 16:12:01.161689  8100 net.cpp:150] Setting up scale5a_branch2b1
I0922 16:12:01.161689  8100 net.cpp:157] Top shape: 30 512 8 8 (983040)
I0922 16:12:01.161689  8100 net.cpp:165] Memory required for data: 4227272884
I0922 16:12:01.161689  8100 layer_factory.hpp:77] Creating layer res5a1
I0922 16:12:01.161689  8100 net.cpp:100] Creating Layer res5a1
I0922 16:12:01.161689  8100 net.cpp:444] res5a1 <- res5a_branch11
I0922 16:12:01.161689  8100 net.cpp:444] res5a1 <- res5a_branch2b1
I0922 16:12:01.161689  8100 net.cpp:418] res5a1 -> res5a1
I0922 16:12:01.161689  8100 net.cpp:150] Setting up res5a1
I0922 16:12:01.161689  8100 net.cpp:157] Top shape: 30 512 8 8 (983040)
I0922 16:12:01.161689  8100 net.cpp:165] Memory required for data: 4231205044
I0922 16:12:01.161689  8100 layer_factory.hpp:77] Creating layer res5a_relu1
I0922 16:12:01.161689  8100 net.cpp:100] Creating Layer res5a_relu1
I0922 16:12:01.162685  8100 net.cpp:444] res5a_relu1 <- res5a1
I0922 16:12:01.162685  8100 net.cpp:405] res5a_relu1 -> res5a1 (in-place)
I0922 16:12:01.162685  8100 net.cpp:150] Setting up res5a_relu1
I0922 16:12:01.162685  8100 net.cpp:157] Top shape: 30 512 8 8 (983040)
I0922 16:12:01.162685  8100 net.cpp:165] Memory required for data: 4235137204
I0922 16:12:01.163682  8100 layer_factory.hpp:77] Creating layer res5a1_res5a_relu1_0_split
I0922 16:12:01.163682  8100 net.cpp:100] Creating Layer res5a1_res5a_relu1_0_split
I0922 16:12:01.163682  8100 net.cpp:444] res5a1_res5a_relu1_0_split <- res5a1
I0922 16:12:01.163682  8100 net.cpp:418] res5a1_res5a_relu1_0_split -> res5a1_res5a_relu1_0_split_0
I0922 16:12:01.163682  8100 net.cpp:418] res5a1_res5a_relu1_0_split -> res5a1_res5a_relu1_0_split_1
I0922 16:12:01.163682  8100 net.cpp:150] Setting up res5a1_res5a_relu1_0_split
I0922 16:12:01.163682  8100 net.cpp:157] Top shape: 30 512 8 8 (983040)
I0922 16:12:01.163682  8100 net.cpp:157] Top shape: 30 512 8 8 (983040)
I0922 16:12:01.163682  8100 net.cpp:165] Memory required for data: 4243001524
I0922 16:12:01.163682  8100 layer_factory.hpp:77] Creating layer res5b_branch2a1
I0922 16:12:01.163682  8100 net.cpp:100] Creating Layer res5b_branch2a1
I0922 16:12:01.163682  8100 net.cpp:444] res5b_branch2a1 <- res5a1_res5a_relu1_0_split_0
I0922 16:12:01.164680  8100 net.cpp:418] res5b_branch2a1 -> res5b_branch2a1
I0922 16:12:01.192605  8100 net.cpp:150] Setting up res5b_branch2a1
I0922 16:12:01.192605  8100 net.cpp:157] Top shape: 30 512 8 8 (983040)
I0922 16:12:01.193603  8100 net.cpp:165] Memory required for data: 4246933684
I0922 16:12:01.193603  8100 layer_factory.hpp:77] Creating layer bn5b_branch2a1
I0922 16:12:01.193603  8100 net.cpp:100] Creating Layer bn5b_branch2a1
I0922 16:12:01.193603  8100 net.cpp:444] bn5b_branch2a1 <- res5b_branch2a1
I0922 16:12:01.193603  8100 net.cpp:405] bn5b_branch2a1 -> res5b_branch2a1 (in-place)
I0922 16:12:01.193603  8100 net.cpp:150] Setting up bn5b_branch2a1
I0922 16:12:01.193603  8100 net.cpp:157] Top shape: 30 512 8 8 (983040)
I0922 16:12:01.193603  8100 net.cpp:165] Memory required for data: 4250865844
I0922 16:12:01.194600  8100 layer_factory.hpp:77] Creating layer scale5b_branch2a1
I0922 16:12:01.194600  8100 net.cpp:100] Creating Layer scale5b_branch2a1
I0922 16:12:01.194600  8100 net.cpp:444] scale5b_branch2a1 <- res5b_branch2a1
I0922 16:12:01.194600  8100 net.cpp:405] scale5b_branch2a1 -> res5b_branch2a1 (in-place)
I0922 16:12:01.194600  8100 layer_factory.hpp:77] Creating layer scale5b_branch2a1
I0922 16:12:01.194600  8100 net.cpp:150] Setting up scale5b_branch2a1
I0922 16:12:01.195597  8100 net.cpp:157] Top shape: 30 512 8 8 (983040)
I0922 16:12:01.195597  8100 net.cpp:165] Memory required for data: 4254798004
I0922 16:12:01.195597  8100 layer_factory.hpp:77] Creating layer res5b_branch2a_relu1
I0922 16:12:01.195597  8100 net.cpp:100] Creating Layer res5b_branch2a_relu1
I0922 16:12:01.195597  8100 net.cpp:444] res5b_branch2a_relu1 <- res5b_branch2a1
I0922 16:12:01.195597  8100 net.cpp:405] res5b_branch2a_relu1 -> res5b_branch2a1 (in-place)
I0922 16:12:01.196595  8100 net.cpp:150] Setting up res5b_branch2a_relu1
I0922 16:12:01.196595  8100 net.cpp:157] Top shape: 30 512 8 8 (983040)
I0922 16:12:01.196595  8100 net.cpp:165] Memory required for data: 4258730164
I0922 16:12:01.196595  8100 layer_factory.hpp:77] Creating layer res5b_branch2b1
I0922 16:12:01.196595  8100 net.cpp:100] Creating Layer res5b_branch2b1
I0922 16:12:01.196595  8100 net.cpp:444] res5b_branch2b1 <- res5b_branch2a1
I0922 16:12:01.196595  8100 net.cpp:418] res5b_branch2b1 -> res5b_branch2b1
I0922 16:12:01.225517  8100 net.cpp:150] Setting up res5b_branch2b1
I0922 16:12:01.225517  8100 net.cpp:157] Top shape: 30 512 8 8 (983040)
I0922 16:12:01.225517  8100 net.cpp:165] Memory required for data: 4262662324
I0922 16:12:01.225517  8100 layer_factory.hpp:77] Creating layer bn5b_branch2b1
I0922 16:12:01.225517  8100 net.cpp:100] Creating Layer bn5b_branch2b1
I0922 16:12:01.225517  8100 net.cpp:444] bn5b_branch2b1 <- res5b_branch2b1
I0922 16:12:01.226516  8100 net.cpp:405] bn5b_branch2b1 -> res5b_branch2b1 (in-place)
I0922 16:12:01.226516  8100 net.cpp:150] Setting up bn5b_branch2b1
I0922 16:12:01.226516  8100 net.cpp:157] Top shape: 30 512 8 8 (983040)
I0922 16:12:01.226516  8100 net.cpp:165] Memory required for data: 4266594484
I0922 16:12:01.226516  8100 layer_factory.hpp:77] Creating layer scale5b_branch2b1
I0922 16:12:01.226516  8100 net.cpp:100] Creating Layer scale5b_branch2b1
I0922 16:12:01.227511  8100 net.cpp:444] scale5b_branch2b1 <- res5b_branch2b1
I0922 16:12:01.227511  8100 net.cpp:405] scale5b_branch2b1 -> res5b_branch2b1 (in-place)
I0922 16:12:01.227511  8100 layer_factory.hpp:77] Creating layer scale5b_branch2b1
I0922 16:12:01.227511  8100 net.cpp:150] Setting up scale5b_branch2b1
I0922 16:12:01.227511  8100 net.cpp:157] Top shape: 30 512 8 8 (983040)
I0922 16:12:01.227511  8100 net.cpp:165] Memory required for data: 4270526644
I0922 16:12:01.227511  8100 layer_factory.hpp:77] Creating layer res5b1
I0922 16:12:01.227511  8100 net.cpp:100] Creating Layer res5b1
I0922 16:12:01.227511  8100 net.cpp:444] res5b1 <- res5a1_res5a_relu1_0_split_1
I0922 16:12:01.227511  8100 net.cpp:444] res5b1 <- res5b_branch2b1
I0922 16:12:01.228509  8100 net.cpp:418] res5b1 -> res5b1
I0922 16:12:01.228509  8100 net.cpp:150] Setting up res5b1
I0922 16:12:01.228509  8100 net.cpp:157] Top shape: 30 512 8 8 (983040)
I0922 16:12:01.228509  8100 net.cpp:165] Memory required for data: 4274458804
I0922 16:12:01.228509  8100 layer_factory.hpp:77] Creating layer res5b_relu1
I0922 16:12:01.228509  8100 net.cpp:100] Creating Layer res5b_relu1
I0922 16:12:01.228509  8100 net.cpp:444] res5b_relu1 <- res5b1
I0922 16:12:01.228509  8100 net.cpp:405] res5b_relu1 -> res5b1 (in-place)
I0922 16:12:01.229507  8100 net.cpp:150] Setting up res5b_relu1
I0922 16:12:01.229507  8100 net.cpp:157] Top shape: 30 512 8 8 (983040)
I0922 16:12:01.230504  8100 net.cpp:165] Memory required for data: 4278390964
I0922 16:12:01.230504  8100 layer_factory.hpp:77] Creating layer c5_1
I0922 16:12:01.230504  8100 net.cpp:100] Creating Layer c5_1
I0922 16:12:01.230504  8100 net.cpp:444] c5_1 <- res5b1
I0922 16:12:01.230504  8100 net.cpp:418] c5_1 -> c5_1
I0922 16:12:01.235491  8100 net.cpp:150] Setting up c5_1
I0922 16:12:01.236490  8100 net.cpp:157] Top shape: 30 6 8 8 (11520)
I0922 16:12:01.236490  8100 net.cpp:165] Memory required for data: 4278437044
I0922 16:12:01.237486  8100 layer_factory.hpp:77] Creating layer res5
I0922 16:12:01.237486  8100 net.cpp:100] Creating Layer res5
I0922 16:12:01.237486  8100 net.cpp:444] res5 <- c5_1
I0922 16:12:01.238483  8100 net.cpp:444] res5 <- c5_c5_0_split_1
I0922 16:12:01.239480  8100 net.cpp:418] res5 -> res5
I0922 16:12:01.239480  8100 net.cpp:150] Setting up res5
I0922 16:12:01.239480  8100 net.cpp:157] Top shape: 30 6 8 8 (11520)
I0922 16:12:01.239480  8100 net.cpp:165] Memory required for data: 4278483124
I0922 16:12:01.239480  8100 layer_factory.hpp:77] Creating layer res5_relu
I0922 16:12:01.239480  8100 net.cpp:100] Creating Layer res5_relu
I0922 16:12:01.239480  8100 net.cpp:444] res5_relu <- res5
I0922 16:12:01.240478  8100 net.cpp:405] res5_relu -> res5 (in-place)
I0922 16:12:01.241480  8100 net.cpp:150] Setting up res5_relu
I0922 16:12:01.241480  8100 net.cpp:157] Top shape: 30 6 8 8 (11520)
I0922 16:12:01.241480  8100 net.cpp:165] Memory required for data: 4278529204
I0922 16:12:01.241480  8100 layer_factory.hpp:77] Creating layer pool5_1
I0922 16:12:01.241480  8100 net.cpp:100] Creating Layer pool5_1
I0922 16:12:01.241480  8100 net.cpp:444] pool5_1 <- res5
I0922 16:12:01.241480  8100 net.cpp:418] pool5_1 -> pool5_1
I0922 16:12:01.243469  8100 net.cpp:150] Setting up pool5_1
I0922 16:12:01.243469  8100 net.cpp:157] Top shape: 30 6 1 1 (180)
I0922 16:12:01.243469  8100 net.cpp:165] Memory required for data: 4278529924
I0922 16:12:01.243469  8100 layer_factory.hpp:77] Creating layer net_fc6
I0922 16:12:01.243469  8100 net.cpp:100] Creating Layer net_fc6
I0922 16:12:01.243469  8100 net.cpp:444] net_fc6 <- pool5_1
I0922 16:12:01.243469  8100 net.cpp:418] net_fc6 -> net_fc6
I0922 16:12:01.243469  8100 net.cpp:150] Setting up net_fc6
I0922 16:12:01.243469  8100 net.cpp:157] Top shape: 30 6 (180)
I0922 16:12:01.244467  8100 net.cpp:165] Memory required for data: 4278530644
I0922 16:12:01.244467  8100 layer_factory.hpp:77] Creating layer net_fc6_net_fc6_0_split
I0922 16:12:01.244467  8100 net.cpp:100] Creating Layer net_fc6_net_fc6_0_split
I0922 16:12:01.244467  8100 net.cpp:444] net_fc6_net_fc6_0_split <- net_fc6
I0922 16:12:01.244467  8100 net.cpp:418] net_fc6_net_fc6_0_split -> net_fc6_net_fc6_0_split_0
I0922 16:12:01.244467  8100 net.cpp:418] net_fc6_net_fc6_0_split -> net_fc6_net_fc6_0_split_1
I0922 16:12:01.244467  8100 net.cpp:150] Setting up net_fc6_net_fc6_0_split
I0922 16:12:01.244467  8100 net.cpp:157] Top shape: 30 6 (180)
I0922 16:12:01.244467  8100 net.cpp:157] Top shape: 30 6 (180)
I0922 16:12:01.244467  8100 net.cpp:165] Memory required for data: 4278532084
I0922 16:12:01.244467  8100 layer_factory.hpp:77] Creating layer accuracy
I0922 16:12:01.245465  8100 net.cpp:100] Creating Layer accuracy
I0922 16:12:01.246461  8100 net.cpp:444] accuracy <- net_fc6_net_fc6_0_split_0
I0922 16:12:01.246461  8100 net.cpp:444] accuracy <- label_data_1_split_1
I0922 16:12:01.247459  8100 net.cpp:418] accuracy -> accuracy
…
