…
I0921 06:14:15.307725  8984 net.cpp:58] Initializing net from parameters: 
name: "RA_CNN"
state {
  phase: TRAIN
  level: 0
  stage: ""
}
layer {
  name: "data"
  type: "Data"
  top: "data"
  top: "label"
  include {
    phase: TRAIN
  }
  transform_param {
    mirror: false
    crop_size: 227
    mean_file: "D:\\Profiles\\Huang-project\\WheatClass\\Train-File\\Wheatnet_img\\trainimgmean.binaryproto"
  }
  data_param {
    source: "D:\\Profiles\\Huang-project\\WheatClass\\Train-File\\Wheatnet_img\\trainldb"
    batch_size: 30
    backend: LEVELDB
  }
}
layer {
  name: "conv1_1"
  type: "Convolution"
  bottom: "data"
  top: "conv1_1"
  param {
    lr_mult: 0
    decay_mult: 0
  }
  param {
    lr_mult: 0
    decay_mult: 0
  }
  convolution_param {
    num_output: 64
    pad: 1
    kernel_size: 3
    weight_filler {
      type: "gaussian"
      std: 0.01
    }
    bias_filler {
      type: "constant"
      value: 0
    }
  }
}
layer {
  name: "relu1_1"
  type: "ReLU"
  bottom: "conv1_1"
  top: "conv1_1"
}
layer {
  name: "conv1_2"
  type: "Convolution"
  bottom: "conv1_1"
  top: "conv1_2"
  param {
    lr_mult: 0
    decay_mult: 0
  }
  param {
    lr_mult: 0
    decay_mult: 0
  }
  convolution_param {
    num_output: 64
    pad: 1
    kernel_size: 3
    weight_filler {
      type: "gaussian"
      std: 0.01
    }
    bias_filler {
      type: "constant"
      value: 0
    }
  }
}
layer {
  name: "relu1_2"
  type: "ReLU"
  bottom: "conv1_2"
  top: "conv1_2"
}
layer {
  name: "pool1"
  type: "Pooling"
  bottom: "conv1_2"
  top: "pool1"
  pooling_param {
    pool: MAX
    kernel_size: 2
    stride: 2
  }
}
layer {
  name: "conv2_1"
  type: "Convolution"
  bottom: "pool1"
  top: "conv2_1"
  param {
    lr_mult: 0
    decay_mult: 0
  }
  param {
    lr_mult: 0
    decay_mult: 0
  }
  convolution_param {
    num_output: 128
    pad: 1
    kernel_size: 3
    weight_filler {
      type: "gaussian"
      std: 0.01
    }
    bias_filler {
      type: "constant"
      value: 0
    }
  }
}
layer {
  name: "relu2_1"
  type: "ReLU"
  bottom: "conv2_1"
  top: "conv2_1"
}
layer {
  name: "conv2_2"
  type: "Convolution"
  bottom: "conv2_1"
  top: "conv2_2"
  param {
    lr_mult: 0
    decay_mult: 0
  }
  param {
    lr_mult: 0
    decay_mult: 0
  }
  convolution_param {
    num_output: 128
    pad: 1
    kernel_size: 3
    weight_filler {
      type: "gaussian"
      std: 0.01
    }
    bias_filler {
      type: "constant"
      value: 0
    }
  }
}
layer {
  name: "relu2_2"
  type: "ReLU"
  bottom: "conv2_2"
  top: "conv2_2"
}
layer {
  name: "pool2"
  type: "Pooling"
  bottom: "conv2_2"
  top: "pool2"
  pooling_param {
    pool: MAX
    kernel_size: 2
    stride: 2
  }
}
layer {
  name: "conv3_1"
  type: "Convolution"
  bottom: "pool2"
  top: "conv3_1"
  param {
    lr_mult: 0
    decay_mult: 0
  }
  param {
    lr_mult: 0
    decay_mult: 0
  }
  convolution_param {
    num_output: 256
    pad: 1
    kernel_size: 3
    weight_filler {
      type: "gaussian"
      std: 0.01
    }
    bias_filler {
      type: "constant"
      value: 0
    }
  }
}
layer {
  name: "relu3_1"
  type: "ReLU"
  bottom: "conv3_1"
  top: "conv3_1"
}
layer {
  name: "conv3_2"
  type: "Convolution"
  bottom: "conv3_1"
  top: "conv3_2"
  param {
    lr_mult: 0
    decay_mult: 0
  }
  param {
    lr_mult: 0
    decay_mult: 0
  }
  convolution_param {
    num_output: 256
    pad: 1
    kernel_size: 3
    weight_filler {
      type: "gaussian"
      std: 0.01
    }
    bias_filler {
      type: "constant"
      value: 0
    }
  }
}
layer {
  name: "relu3_2"
  type: "ReLU"
  bottom: "conv3_2"
  top: "conv3_2"
}
layer {
  name: "conv3_3"
  type: "Convolution"
  bottom: "conv3_2"
  top: "conv3_3"
  param {
    lr_mult: 2
    decay_mult: 0
  }
  param {
    lr_mult: 2
    decay_mult: 0
  }
  convolution_param {
    num_output: 256
    pad: 1
    kernel_size: 3
    weight_filler {
      type: "gaussian"
      std: 0.01
    }
    bias_filler {
      type: "constant"
      value: 0
    }
  }
}
layer {
  name: "relu3_3"
  type: "ReLU"
  bottom: "conv3_3"
  top: "conv3_3"
}
layer {
  name: "conv3_4"
  type: "Convolution"
  bottom: "conv3_3"
  top: "conv3_4"
  param {
    lr_mult: 2
    decay_mult: 0
  }
  param {
    lr_mult: 2
    decay_mult: 0
  }
  convolution_param {
    num_output: 256
    pad: 1
    kernel_size: 3
    weight_filler {
      type: "gaussian"
      std: 0.01
    }
    bias_filler {
      type: "constant"
      value: 0
    }
  }
}
layer {
  name: "relu3_4"
  type: "ReLU"
  bottom: "conv3_4"
  top: "conv3_4"
}
layer {
  name: "pool3"
  type: "Pooling"
  bottom: "conv3_4"
  top: "pool3"
  pooling_param {
    pool: MAX
    kernel_size: 2
    stride: 2
  }
}
layer {
  name: "conv4_1"
  type: "Convolution"
  bottom: "pool3"
  top: "conv4_1"
  param {
    lr_mult: 2
    decay_mult: 0
  }
  param {
    lr_mult: 1
    decay_mult: 0
  }
  convolution_param {
    num_output: 512
    pad: 1
    kernel_size: 3
    weight_filler {
      type: "gaussian"
      std: 0.01
    }
    bias_filler {
      type: "constant"
      value: 0
    }
  }
}
layer {
  name: "relu4_1"
  type: "ReLU"
  bottom: "conv4_1"
  top: "conv4_1"
}
layer {
  name: "conv4_2"
  type: "Convolution"
  bottom: "conv4_1"
  top: "conv4_2"
  param {
    lr_mult: 2
    decay_mult: 0
  }
  param {
    lr_mult: 1
    decay_mult: 0
  }
  convolution_param {
    num_output: 512
    pad: 1
    kernel_size: 3
    weight_filler {
      type: "gaussian"
      std: 0.01
    }
    bias_filler {
      type: "constant"
      value: 0
    }
  }
}
layer {
  name: "relu4_2"
  type: "ReLU"
  bottom: "conv4_2"
  top: "conv4_2"
}
layer {
  name: "conv4_3"
  type: "Convolution"
  bottom: "conv4_2"
  top: "conv4_3"
  param {
    lr_mult: 2
    decay_mult: 0
  }
  param {
    lr_mult: 2
    decay_mult: 0
  }
  convolution_param {
    num_output: 512
    pad: 1
    kernel_size: 3
    weight_filler {
      type: "gaussian"
      std: 0.01
    }
    bias_filler {
      type: "constant"
      value: 0
    }
  }
}
layer {
  name: "relu4_3"
  type: "ReLU"
  bottom: "conv4_3"
  top: "conv4_3"
}
layer {
  name: "conv4_4"
  type: "Convolution"
  bottom: "conv4_3"
  top: "conv4_4"
  param {
    lr_mult: 2
    decay_mult: 0
  }
  param {
    lr_mult: 1
    decay_mult: 0
  }
  convolution_param {
    num_output: 512
    pad: 1
    kernel_size: 3
    weight_filler {
      type: "gaussian"
      std: 0.01
    }
    bias_filler {
      type: "constant"
      value: 0
    }
  }
}
layer {
  name: "relu4_4"
  type: "ReLU"
  bottom: "conv4_4"
  top: "conv4_4"
}
layer {
  name: "pool4"
  type: "Pooling"
  bottom: "conv4_4"
  top: "pool4"
  pooling_param {
    pool: MAX
    kernel_size: 2
    stride: 2
  }
}
layer {
  name: "conv5_1"
  type: "Convolution"
  bottom: "pool4"
  top: "conv5_1"
  param {
    lr_mult: 2
    decay_mult: 0
  }
  param {
    lr_mult: 1
    decay_mult: 0
  }
  convolution_param {
    num_output: 512
    pad: 1
    kernel_size: 3
    weight_filler {
      type: "gaussian"
      std: 0.01
    }
    bias_filler {
      type: "constant"
      value: 0
    }
  }
}
layer {
  name: "relu5_1"
  type: "ReLU"
  bottom: "conv5_1"
  top: "conv5_1"
}
layer {
  name: "conv5_2"
  type: "Convolution"
  bottom: "conv5_1"
  top: "conv5_2"
  param {
    lr_mult: 2
    decay_mult: 0
  }
  param {
    lr_mult: 1
    decay_mult: 0
  }
  convolution_param {
    num_output: 512
    pad: 1
    kernel_size: 3
    weight_filler {
      type: "gaussian"
      std: 0.01
    }
    bias_filler {
      type: "constant"
      value: 0
    }
  }
}
layer {
  name: "relu5_2"
  type: "ReLU"
  bottom: "conv5_2"
  top: "conv5_2"
}
layer {
  name: "conv5_3"
  type: "Convolution"
  bottom: "conv5_2"
  top: "conv5_3"
  param {
    lr_mult: 3
    decay_mult: 0
  }
  param {
    lr_mult: 2
    decay_mult: 0
  }
  convolution_param {
    num_output: 512
    pad: 1
    kernel_size: 3
    weight_filler {
      type: "gaussian"
      std: 0.01
    }
    bias_filler {
      type: "constant"
      value: 0
    }
  }
}
layer {
  name: "relu5_3"
  type: "ReLU"
  bottom: "conv5_3"
  top: "conv5_3"
}
layer {
  name: "conv5_4"
  type: "Convolution"
  bottom: "conv5_3"
  top: "conv5_4"
  param {
    lr_mult: 2
    decay_mult: 0
  }
  param {
    lr_mult: 2
    decay_mult: 0
  }
  convolution_param {
    num_output: 512
    pad: 1
    kernel_size: 3
    weight_filler {
      type: "gaussian"
      std: 0.01
    }
    bias_filler {
      type: "constant"
      value: 0
    }
  }
}
layer {
  name: "relu5_4"
  type: "ReLU"
  bottom: "conv5_4"
  top: "conv5_4"
}
layer {
  name: "pool5"
  type: "Pooling"
  bottom: "conv5_4"
  top: "pool5"
  pooling_param {
    pool: AVE
    kernel_size: 28
    stride: 28
  }
}
layer {
  name: "anp_pool"
  type: "Pooling"
  bottom: "conv5_4"
  top: "anp_pool"
  pooling_param {
    pool: MAX
    kernel_size: 2
    stride: 2
  }
}
layer {
  name: "get_abc1_wheat"
  type: "InnerProduct"
  bottom: "anp_pool"
  top: "get_abc1_wheat"
  param {
    lr_mult: 2
    decay_mult: 0
  }
  param {
    lr_mult: 1
    decay_mult: 0
  }
  inner_product_param {
    num_output: 1024
    weight_filler {
      type: "gaussian"
      std: 0.001
    }
    bias_filler {
      type: "constant"
      value: 0
    }
  }
}
layer {
  name: "tanh"
  type: "TanH"
  bottom: "get_abc1_wheat"
  top: "tanh"
}
layer {
  name: "get_abc2_wheat"
  type: "InnerProduct"
  bottom: "tanh"
  top: "get_abc2_wheat"
  param {
    lr_mult: 1
    decay_mult: 0
  }
  param {
    lr_mult: 2
    decay_mult: 0
  }
  inner_product_param {
    num_output: 2
    weight_filler {
      type: "gaussian"
      std: 0.001
    }
    bias_filler {
      type: "constant"
      value: 0
    }
  }
}
layer {
  name: "sigmoid"
  type: "Sigmoid"
  bottom: "get_abc2_wheat"
  top: "sig_abc"
}
layer {
  name: "get448"
  type: "Power"
  bottom: "sig_abc"
  top: "get448"
  power_param {
    power: 1
    scale: 227
    shift: 0
  }
}
layer {
  name: "atten_crop"
  type: "AttentionCrop"
  bottom: "data"
  bottom: "get448"
  top: "scale2_data"
}
layer {
  name: "conv1_1_A"
  type: "Convolution"
  bottom: "scale2_data"
  top: "conv1_1_A"
  param {
    lr_mult: 2
    decay_mult: 0
  }
  param {
    lr_mult: 3
    decay_mult: 0
  }
  convolution_param {
    num_output: 64
    pad: 1
    kernel_size: 3
    weight_filler {
      type: "gaussian"
      std: 0.01
    }
    bias_filler {
      type: "constant"
      value: 0
    }
  }
}
layer {
  name: "relu1_1_A"
  type: "ReLU"
  bottom: "conv1_1_A"
  top: "conv1_1_A"
}
layer {
  name: "conv1_2_A_wheat"
  type: "Convolution"
  bottom: "conv1_1_A"
  top: "conv1_2_A_wheat"
  param {
    lr_mult: 2
    decay_mult: 0
  }
  param {
    lr_mult: 2
    decay_mult: 0
  }
  convolution_param {
    num_output: 64
    pad: 1
    kernel_size: 9
    weight_filler {
      type: "gaussian"
      std: 0.01
    }
    bias_filler {
      type: "constant"
      value: 0
    }
  }
}
layer {
  name: "relu1_2_A_wheat"
  type: "ReLU"
  bottom: "conv1_2_A_wheat"
  top: "conv1_2_A_wheat"
}
layer {
  name: "pool1_A_wheat"
  type: "Pooling"
  bottom: "conv1_2_A_wheat"
  top: "pool1_A_wheat"
  pooling_param {
    pool: MAX
    kernel_size: 6
    stride: 6
  }
}
layer {
  name: "conv2_1_A_wheat"
  type: "Convolution"
  bottom: "pool1_A_wheat"
  top: "conv2_1_A_wheat"
  param {
    lr_mult: 2
    decay_mult: 0
  }
  param {
    lr_mult: 3
    decay_mult: 0
  }
  convolution_param {
    num_output: 128
    pad: 1
    kernel_size: 13
    weight_filler {
      type: "gaussian"
      std: 0.01
    }
    bias_filler {
      type: "constant"
      value: 0
    }
  }
}
layer {
  name: "relu2_1_A_wheat"
  type: "ReLU"
  bottom: "conv2_1_A_wheat"
  top: "conv2_1_A_wheat"
}
layer {
  name: "conv2_2_A_wheat"
  type: "Convolution"
  bottom: "conv2_1_A_wheat"
  top: "conv2_2_A_wheat"
  param {
    lr_mult: 2
    decay_mult: 0
  }
  param {
    lr_mult: 3
    decay_mult: 0
  }
  convolution_param {
    num_output: 512
    pad: 1
    kernel_size: 15
    weight_filler {
      type: "gaussian"
      std: 0.01
    }
    bias_filler {
      type: "constant"
      value: 0
    }
  }
}
layer {
  name: "relu2_2_A_wheat"
  type: "ReLU"
  bottom: "conv2_2_A_wheat"
  top: "conv2_2_A_wheat"
}
layer {
  name: "pool5_A_A_wheat"
  type: "Pooling"
  bottom: "conv2_2_A_wheat"
  top: "pool5_A_A_wheat"
  pooling_param {
    pool: AVE
    kernel_size: 15
    stride: 15
  }
}
layer {
  name: "reshape1_wheat"
  type: "Reshape"
  bottom: "pool5"
  top: "reshape1_wheat"
  reshape_param {
    shape {
      dim: -1
      dim: 512
    }
  }
}
layer {
  name: "reshape2_wheat"
  type: "Reshape"
  bottom: "pool5_A_A_wheat"
  top: "reshape2_wheat"
  reshape_param {
    shape {
      dim: -1
      dim: 512
    }
  }
}
layer {
  name: "pow1_wheat"
  type: "Power"
  bottom: "reshape1_wheat"
  top: "pow1_wheat"
  power_param {
    power: 1
    scale: 0.1
    shift: 0
  }
}
layer {
  name: "pow2_wheat"
  type: "Power"
  bottom: "reshape2_wheat"
  top: "pow2_wheat"
  power_param {
    power: 1
    scale: 0.1
    shift: 0
  }
}
layer {
  name: "scale1+2"
  type: "Concat"
  bottom: "pow2_wheat"
  bottom: "pow1_wheat"
  top: "scale1+2"
  concat_param {
    axis: 1
  }
}
layer {
  name: "fc2_wheat"
  type: "InnerProduct"
  bottom: "scale1+2"
  top: "fc2_wheat"
  param {
    lr_mult: 3
    decay_mult: 0
  }
  param {
    lr_mult: 4
    decay_mult: 0
  }
  inner_product_param {
    num_output: 6
    weight_filler {
      type: "gaussian"
      std: 0.01
    }
    bias_filler {
      type: "constant"
      value: 0
    }
  }
}
layer {
  name: "accuracy"
  type: "Accuracy"
  bottom: "fc2_wheat"
  bottom: "label"
  top: "accuracy"
}
layer {
  name: "loss"
  type: "SoftmaxWithLoss"
  bottom: "fc2_wheat"
  bottom: "label"
  top: "loss"
}
I0921 06:14:15.317726  8984 layer_factory.hpp:77] Creating layer data
I0921 06:14:15.327730  8984 net.cpp:100] Creating Layer data
I0921 06:14:15.327730  8984 net.cpp:418] data -> data
I0921 06:14:15.327730  8984 net.cpp:418] data -> label
I0921 06:14:15.337756  8984 data_transformer.cpp:25] Loading mean file from: D:\Profiles\Huang-project\WheatClass\Train-File\Wheatnet_img\trainimgmean.binaryproto
I0921 06:14:15.367728  7076 db_leveldb.cpp:18] Opened leveldb D:\Profiles\Huang-project\WheatClass\Train-File\Wheatnet_img\trainldb
I0921 06:14:15.397759  8984 data_layer.cpp:41] output data size: 30,3,227,227
I0921 06:14:15.437726  8984 net.cpp:150] Setting up data
I0921 06:14:15.437726  8984 net.cpp:157] Top shape: 30 3 227 227 (4637610)
I0921 06:14:15.437726  8984 net.cpp:157] Top shape: 30 (30)
I0921 06:14:15.437726  8984 net.cpp:165] Memory required for data: 18550560
I0921 06:14:15.437726  8984 layer_factory.hpp:77] Creating layer data_data_0_split
I0921 06:14:15.437726  8984 net.cpp:100] Creating Layer data_data_0_split
I0921 06:14:15.437726  8984 net.cpp:444] data_data_0_split <- data
I0921 06:14:15.437726  8984 net.cpp:418] data_data_0_split -> data_data_0_split_0
I0921 06:14:15.437726  8984 net.cpp:418] data_data_0_split -> data_data_0_split_1
I0921 06:14:15.437726  8984 net.cpp:150] Setting up data_data_0_split
I0921 06:14:15.437726  8984 net.cpp:157] Top shape: 30 3 227 227 (4637610)
I0921 06:14:15.437726  8984 net.cpp:157] Top shape: 30 3 227 227 (4637610)
I0921 06:14:15.437726  8984 net.cpp:165] Memory required for data: 55651440
I0921 06:14:15.437726  8984 layer_factory.hpp:77] Creating layer label_data_1_split
I0921 06:14:15.437726  8984 net.cpp:100] Creating Layer label_data_1_split
I0921 06:14:15.437726  8984 net.cpp:444] label_data_1_split <- label
I0921 06:14:15.437726  8984 net.cpp:418] label_data_1_split -> label_data_1_split_0
I0921 06:14:15.437726  8984 net.cpp:418] label_data_1_split -> label_data_1_split_1
I0921 06:14:15.447726  8984 net.cpp:150] Setting up label_data_1_split
I0921 06:14:15.447726  8984 net.cpp:157] Top shape: 30 (30)
I0921 06:14:15.447726  8984 net.cpp:157] Top shape: 30 (30)
I0921 06:14:15.447726  8984 net.cpp:165] Memory required for data: 55651680
I0921 06:14:15.447726  8984 layer_factory.hpp:77] Creating layer conv1_1
I0921 06:14:15.447726  8984 net.cpp:100] Creating Layer conv1_1
I0921 06:14:15.447726  8984 net.cpp:444] conv1_1 <- data_data_0_split_0
I0921 06:14:15.447726  8984 net.cpp:418] conv1_1 -> conv1_1
I0921 06:14:16.297725  8984 net.cpp:150] Setting up conv1_1
I0921 06:14:16.297725  8984 net.cpp:157] Top shape: 30 64 227 227 (98935680)
I0921 06:14:16.297725  8984 net.cpp:165] Memory required for data: 451394400
I0921 06:14:16.297725  8984 layer_factory.hpp:77] Creating layer relu1_1
I0921 06:14:16.297725  8984 net.cpp:100] Creating Layer relu1_1
I0921 06:14:16.297725  8984 net.cpp:444] relu1_1 <- conv1_1
I0921 06:14:16.297725  8984 net.cpp:405] relu1_1 -> conv1_1 (in-place)
I0921 06:14:16.297725  8984 net.cpp:150] Setting up relu1_1
I0921 06:14:16.297725  8984 net.cpp:157] Top shape: 30 64 227 227 (98935680)
I0921 06:14:16.297725  8984 net.cpp:165] Memory required for data: 847137120
I0921 06:14:16.297725  8984 layer_factory.hpp:77] Creating layer conv1_2
I0921 06:14:16.297725  8984 net.cpp:100] Creating Layer conv1_2
I0921 06:14:16.297725  8984 net.cpp:444] conv1_2 <- conv1_1
I0921 06:14:16.297725  8984 net.cpp:418] conv1_2 -> conv1_2
I0921 06:14:16.297725  8984 net.cpp:150] Setting up conv1_2
I0921 06:14:16.297725  8984 net.cpp:157] Top shape: 30 64 227 227 (98935680)
I0921 06:14:16.297725  8984 net.cpp:165] Memory required for data: 1242879840
I0921 06:14:16.307725  8984 layer_factory.hpp:77] Creating layer relu1_2
I0921 06:14:16.307725  8984 net.cpp:100] Creating Layer relu1_2
I0921 06:14:16.307725  8984 net.cpp:444] relu1_2 <- conv1_2
I0921 06:14:16.307725  8984 net.cpp:405] relu1_2 -> conv1_2 (in-place)
I0921 06:14:16.307725  8984 net.cpp:150] Setting up relu1_2
I0921 06:14:16.307725  8984 net.cpp:157] Top shape: 30 64 227 227 (98935680)
I0921 06:14:16.307725  8984 net.cpp:165] Memory required for data: 1638622560
I0921 06:14:16.307725  8984 layer_factory.hpp:77] Creating layer pool1
I0921 06:14:16.307725  8984 net.cpp:100] Creating Layer pool1
I0921 06:14:16.307725  8984 net.cpp:444] pool1 <- conv1_2
I0921 06:14:16.307725  8984 net.cpp:418] pool1 -> pool1
I0921 06:14:16.307725  8984 net.cpp:150] Setting up pool1
I0921 06:14:16.307725  8984 net.cpp:157] Top shape: 30 64 114 114 (24952320)
I0921 06:14:16.307725  8984 net.cpp:165] Memory required for data: 1738431840
I0921 06:14:16.307725  8984 layer_factory.hpp:77] Creating layer conv2_1
I0921 06:14:16.307725  8984 net.cpp:100] Creating Layer conv2_1
I0921 06:14:16.307725  8984 net.cpp:444] conv2_1 <- pool1
I0921 06:14:16.307725  8984 net.cpp:418] conv2_1 -> conv2_1
I0921 06:14:16.317725  8984 net.cpp:150] Setting up conv2_1
I0921 06:14:16.317725  8984 net.cpp:157] Top shape: 30 128 114 114 (49904640)
I0921 06:14:16.317725  8984 net.cpp:165] Memory required for data: 1938050400
I0921 06:14:16.317725  8984 layer_factory.hpp:77] Creating layer relu2_1
I0921 06:14:16.317725  8984 net.cpp:100] Creating Layer relu2_1
I0921 06:14:16.317725  8984 net.cpp:444] relu2_1 <- conv2_1
I0921 06:14:16.317725  8984 net.cpp:405] relu2_1 -> conv2_1 (in-place)
I0921 06:14:16.317725  8984 net.cpp:150] Setting up relu2_1
I0921 06:14:16.317725  8984 net.cpp:157] Top shape: 30 128 114 114 (49904640)
I0921 06:14:16.317725  8984 net.cpp:165] Memory required for data: 2137668960
I0921 06:14:16.317725  8984 layer_factory.hpp:77] Creating layer conv2_2
I0921 06:14:16.317725  8984 net.cpp:100] Creating Layer conv2_2
I0921 06:14:16.327738  8984 net.cpp:444] conv2_2 <- conv2_1
I0921 06:14:16.327738  8984 net.cpp:418] conv2_2 -> conv2_2
I0921 06:14:16.327738  8984 net.cpp:150] Setting up conv2_2
I0921 06:14:16.327738  8984 net.cpp:157] Top shape: 30 128 114 114 (49904640)
I0921 06:14:16.327738  8984 net.cpp:165] Memory required for data: 2337287520
I0921 06:14:16.327738  8984 layer_factory.hpp:77] Creating layer relu2_2
I0921 06:14:16.327738  8984 net.cpp:100] Creating Layer relu2_2
I0921 06:14:16.327738  8984 net.cpp:444] relu2_2 <- conv2_2
I0921 06:14:16.327738  8984 net.cpp:405] relu2_2 -> conv2_2 (in-place)
I0921 06:14:16.337725  8984 net.cpp:150] Setting up relu2_2
I0921 06:14:16.337725  8984 net.cpp:157] Top shape: 30 128 114 114 (49904640)
I0921 06:14:16.337725  8984 net.cpp:165] Memory required for data: 2536906080
I0921 06:14:16.337725  8984 layer_factory.hpp:77] Creating layer pool2
I0921 06:14:16.337725  8984 net.cpp:100] Creating Layer pool2
I0921 06:14:16.337725  8984 net.cpp:444] pool2 <- conv2_2
I0921 06:14:16.337725  8984 net.cpp:418] pool2 -> pool2
I0921 06:14:16.337725  8984 net.cpp:150] Setting up pool2
I0921 06:14:16.337725  8984 net.cpp:157] Top shape: 30 128 57 57 (12476160)
I0921 06:14:16.337725  8984 net.cpp:165] Memory required for data: 2586810720
I0921 06:14:16.337725  8984 layer_factory.hpp:77] Creating layer conv3_1
I0921 06:14:16.337725  8984 net.cpp:100] Creating Layer conv3_1
I0921 06:14:16.337725  8984 net.cpp:444] conv3_1 <- pool2
I0921 06:14:16.337725  8984 net.cpp:418] conv3_1 -> conv3_1
I0921 06:14:16.347725  8984 net.cpp:150] Setting up conv3_1
I0921 06:14:16.347725  8984 net.cpp:157] Top shape: 30 256 57 57 (24952320)
I0921 06:14:16.347725  8984 net.cpp:165] Memory required for data: 2686620000
I0921 06:14:16.347725  8984 layer_factory.hpp:77] Creating layer relu3_1
I0921 06:14:16.347725  8984 net.cpp:100] Creating Layer relu3_1
I0921 06:14:16.347725  8984 net.cpp:444] relu3_1 <- conv3_1
I0921 06:14:16.347725  8984 net.cpp:405] relu3_1 -> conv3_1 (in-place)
I0921 06:14:16.347725  8984 net.cpp:150] Setting up relu3_1
I0921 06:14:16.347725  8984 net.cpp:157] Top shape: 30 256 57 57 (24952320)
I0921 06:14:16.347725  8984 net.cpp:165] Memory required for data: 2786429280
I0921 06:14:16.347725  8984 layer_factory.hpp:77] Creating layer conv3_2
I0921 06:14:16.347725  8984 net.cpp:100] Creating Layer conv3_2
I0921 06:14:16.347725  8984 net.cpp:444] conv3_2 <- conv3_1
I0921 06:14:16.347725  8984 net.cpp:418] conv3_2 -> conv3_2
I0921 06:14:16.357725  8984 net.cpp:150] Setting up conv3_2
I0921 06:14:16.357725  8984 net.cpp:157] Top shape: 30 256 57 57 (24952320)
I0921 06:14:16.357725  8984 net.cpp:165] Memory required for data: 2886238560
I0921 06:14:16.357725  8984 layer_factory.hpp:77] Creating layer relu3_2
I0921 06:14:16.367725  8984 net.cpp:100] Creating Layer relu3_2
I0921 06:14:16.367725  8984 net.cpp:444] relu3_2 <- conv3_2
I0921 06:14:16.367725  8984 net.cpp:405] relu3_2 -> conv3_2 (in-place)
I0921 06:14:16.367725  8984 net.cpp:150] Setting up relu3_2
I0921 06:14:16.367725  8984 net.cpp:157] Top shape: 30 256 57 57 (24952320)
I0921 06:14:16.367725  8984 net.cpp:165] Memory required for data: 2986047840
I0921 06:14:16.367725  8984 layer_factory.hpp:77] Creating layer conv3_3
I0921 06:14:16.367725  8984 net.cpp:100] Creating Layer conv3_3
I0921 06:14:16.367725  8984 net.cpp:444] conv3_3 <- conv3_2
I0921 06:14:16.367725  8984 net.cpp:418] conv3_3 -> conv3_3
I0921 06:14:16.377727  8984 net.cpp:150] Setting up conv3_3
I0921 06:14:16.377727  8984 net.cpp:157] Top shape: 30 256 57 57 (24952320)
I0921 06:14:16.377727  8984 net.cpp:165] Memory required for data: 3085857120
I0921 06:14:16.377727  8984 layer_factory.hpp:77] Creating layer relu3_3
I0921 06:14:16.377727  8984 net.cpp:100] Creating Layer relu3_3
I0921 06:14:16.377727  8984 net.cpp:444] relu3_3 <- conv3_3
I0921 06:14:16.377727  8984 net.cpp:405] relu3_3 -> conv3_3 (in-place)
I0921 06:14:16.387725  8984 net.cpp:150] Setting up relu3_3
I0921 06:14:16.387725  8984 net.cpp:157] Top shape: 30 256 57 57 (24952320)
I0921 06:14:16.387725  8984 net.cpp:165] Memory required for data: 3185666400
I0921 06:14:16.387725  8984 layer_factory.hpp:77] Creating layer conv3_4
I0921 06:14:16.387725  8984 net.cpp:100] Creating Layer conv3_4
I0921 06:14:16.387725  8984 net.cpp:444] conv3_4 <- conv3_3
I0921 06:14:16.387725  8984 net.cpp:418] conv3_4 -> conv3_4
I0921 06:14:16.397725  8984 net.cpp:150] Setting up conv3_4
I0921 06:14:16.397725  8984 net.cpp:157] Top shape: 30 256 57 57 (24952320)
I0921 06:14:16.397725  8984 net.cpp:165] Memory required for data: 3285475680
I0921 06:14:16.397725  8984 layer_factory.hpp:77] Creating layer relu3_4
I0921 06:14:16.397725  8984 net.cpp:100] Creating Layer relu3_4
I0921 06:14:16.397725  8984 net.cpp:444] relu3_4 <- conv3_4
I0921 06:14:16.397725  8984 net.cpp:405] relu3_4 -> conv3_4 (in-place)
I0921 06:14:16.397725  8984 net.cpp:150] Setting up relu3_4
I0921 06:14:16.397725  8984 net.cpp:157] Top shape: 30 256 57 57 (24952320)
I0921 06:14:16.397725  8984 net.cpp:165] Memory required for data: 3385284960
I0921 06:14:16.397725  8984 layer_factory.hpp:77] Creating layer pool3
I0921 06:14:16.397725  8984 net.cpp:100] Creating Layer pool3
I0921 06:14:16.397725  8984 net.cpp:444] pool3 <- conv3_4
I0921 06:14:16.397725  8984 net.cpp:418] pool3 -> pool3
I0921 06:14:16.397725  8984 net.cpp:150] Setting up pool3
I0921 06:14:16.397725  8984 net.cpp:157] Top shape: 30 256 29 29 (6458880)
I0921 06:14:16.397725  8984 net.cpp:165] Memory required for data: 3411120480
I0921 06:14:16.407725  8984 layer_factory.hpp:77] Creating layer conv4_1
I0921 06:14:16.407725  8984 net.cpp:100] Creating Layer conv4_1
I0921 06:14:16.407725  8984 net.cpp:444] conv4_1 <- pool3
I0921 06:14:16.407725  8984 net.cpp:418] conv4_1 -> conv4_1
I0921 06:14:16.427728  8984 net.cpp:150] Setting up conv4_1
I0921 06:14:16.427728  8984 net.cpp:157] Top shape: 30 512 29 29 (12917760)
I0921 06:14:16.427728  8984 net.cpp:165] Memory required for data: 3462791520
I0921 06:14:16.427728  8984 layer_factory.hpp:77] Creating layer relu4_1
I0921 06:14:16.427728  8984 net.cpp:100] Creating Layer relu4_1
I0921 06:14:16.427728  8984 net.cpp:444] relu4_1 <- conv4_1
I0921 06:14:16.427728  8984 net.cpp:405] relu4_1 -> conv4_1 (in-place)
I0921 06:14:16.427728  8984 net.cpp:150] Setting up relu4_1
I0921 06:14:16.427728  8984 net.cpp:157] Top shape: 30 512 29 29 (12917760)
I0921 06:14:16.427728  8984 net.cpp:165] Memory required for data: 3514462560
I0921 06:14:16.427728  8984 layer_factory.hpp:77] Creating layer conv4_2
I0921 06:14:16.427728  8984 net.cpp:100] Creating Layer conv4_2
I0921 06:14:16.427728  8984 net.cpp:444] conv4_2 <- conv4_1
I0921 06:14:16.427728  8984 net.cpp:418] conv4_2 -> conv4_2
I0921 06:14:16.457726  8984 net.cpp:150] Setting up conv4_2
I0921 06:14:16.457726  8984 net.cpp:157] Top shape: 30 512 29 29 (12917760)
I0921 06:14:16.457726  8984 net.cpp:165] Memory required for data: 3566133600
I0921 06:14:16.457726  8984 layer_factory.hpp:77] Creating layer relu4_2
I0921 06:14:16.457726  8984 net.cpp:100] Creating Layer relu4_2
I0921 06:14:16.457726  8984 net.cpp:444] relu4_2 <- conv4_2
I0921 06:14:16.457726  8984 net.cpp:405] relu4_2 -> conv4_2 (in-place)
I0921 06:14:16.457726  8984 net.cpp:150] Setting up relu4_2
I0921 06:14:16.457726  8984 net.cpp:157] Top shape: 30 512 29 29 (12917760)
I0921 06:14:16.457726  8984 net.cpp:165] Memory required for data: 3617804640
I0921 06:14:16.457726  8984 layer_factory.hpp:77] Creating layer conv4_3
I0921 06:14:16.457726  8984 net.cpp:100] Creating Layer conv4_3
I0921 06:14:16.457726  8984 net.cpp:444] conv4_3 <- conv4_2
I0921 06:14:16.467726  8984 net.cpp:418] conv4_3 -> conv4_3
I0921 06:14:16.487726  8984 net.cpp:150] Setting up conv4_3
I0921 06:14:16.487726  8984 net.cpp:157] Top shape: 30 512 29 29 (12917760)
I0921 06:14:16.487726  8984 net.cpp:165] Memory required for data: 3669475680
I0921 06:14:16.487726  8984 layer_factory.hpp:77] Creating layer relu4_3
I0921 06:14:16.487726  8984 net.cpp:100] Creating Layer relu4_3
I0921 06:14:16.487726  8984 net.cpp:444] relu4_3 <- conv4_3
I0921 06:14:16.497725  8984 net.cpp:405] relu4_3 -> conv4_3 (in-place)
I0921 06:14:16.497725  8984 net.cpp:150] Setting up relu4_3
I0921 06:14:16.497725  8984 net.cpp:157] Top shape: 30 512 29 29 (12917760)
I0921 06:14:16.497725  8984 net.cpp:165] Memory required for data: 3721146720
I0921 06:14:16.497725  8984 layer_factory.hpp:77] Creating layer conv4_4
I0921 06:14:16.497725  8984 net.cpp:100] Creating Layer conv4_4
I0921 06:14:16.497725  8984 net.cpp:444] conv4_4 <- conv4_3
I0921 06:14:16.497725  8984 net.cpp:418] conv4_4 -> conv4_4
I0921 06:14:16.527725  8984 net.cpp:150] Setting up conv4_4
I0921 06:14:16.527725  8984 net.cpp:157] Top shape: 30 512 29 29 (12917760)
I0921 06:14:16.527725  8984 net.cpp:165] Memory required for data: 3772817760
I0921 06:14:16.527725  8984 layer_factory.hpp:77] Creating layer relu4_4
I0921 06:14:16.527725  8984 net.cpp:100] Creating Layer relu4_4
I0921 06:14:16.527725  8984 net.cpp:444] relu4_4 <- conv4_4
I0921 06:14:16.527725  8984 net.cpp:405] relu4_4 -> conv4_4 (in-place)
I0921 06:14:16.527725  8984 net.cpp:150] Setting up relu4_4
I0921 06:14:16.527725  8984 net.cpp:157] Top shape: 30 512 29 29 (12917760)
I0921 06:14:16.527725  8984 net.cpp:165] Memory required for data: 3824488800
I0921 06:14:16.527725  8984 layer_factory.hpp:77] Creating layer pool4
I0921 06:14:16.527725  8984 net.cpp:100] Creating Layer pool4
I0921 06:14:16.527725  8984 net.cpp:444] pool4 <- conv4_4
I0921 06:14:16.527725  8984 net.cpp:418] pool4 -> pool4
I0921 06:14:16.527725  8984 net.cpp:150] Setting up pool4
I0921 06:14:16.527725  8984 net.cpp:157] Top shape: 30 512 15 15 (3456000)
I0921 06:14:16.527725  8984 net.cpp:165] Memory required for data: 3838312800
I0921 06:14:16.527725  8984 layer_factory.hpp:77] Creating layer conv5_1
I0921 06:14:16.527725  8984 net.cpp:100] Creating Layer conv5_1
I0921 06:14:16.527725  8984 net.cpp:444] conv5_1 <- pool4
I0921 06:14:16.537729  8984 net.cpp:418] conv5_1 -> conv5_1
I0921 06:14:16.557725  8984 net.cpp:150] Setting up conv5_1
I0921 06:14:16.557725  8984 net.cpp:157] Top shape: 30 512 15 15 (3456000)
I0921 06:14:16.557725  8984 net.cpp:165] Memory required for data: 3852136800
I0921 06:14:16.557725  8984 layer_factory.hpp:77] Creating layer relu5_1
I0921 06:14:16.567725  8984 net.cpp:100] Creating Layer relu5_1
I0921 06:14:16.567725  8984 net.cpp:444] relu5_1 <- conv5_1
I0921 06:14:16.567725  8984 net.cpp:405] relu5_1 -> conv5_1 (in-place)
I0921 06:14:16.567725  8984 net.cpp:150] Setting up relu5_1
I0921 06:14:16.567725  8984 net.cpp:157] Top shape: 30 512 15 15 (3456000)
I0921 06:14:16.567725  8984 net.cpp:165] Memory required for data: 3865960800
I0921 06:14:16.567725  8984 layer_factory.hpp:77] Creating layer conv5_2
I0921 06:14:16.567725  8984 net.cpp:100] Creating Layer conv5_2
I0921 06:14:16.567725  8984 net.cpp:444] conv5_2 <- conv5_1
I0921 06:14:16.567725  8984 net.cpp:418] conv5_2 -> conv5_2
I0921 06:14:16.597724  8984 net.cpp:150] Setting up conv5_2
I0921 06:14:16.597724  8984 net.cpp:157] Top shape: 30 512 15 15 (3456000)
I0921 06:14:16.597724  8984 net.cpp:165] Memory required for data: 3879784800
I0921 06:14:16.597724  8984 layer_factory.hpp:77] Creating layer relu5_2
I0921 06:14:16.597724  8984 net.cpp:100] Creating Layer relu5_2
I0921 06:14:16.597724  8984 net.cpp:444] relu5_2 <- conv5_2
I0921 06:14:16.597724  8984 net.cpp:405] relu5_2 -> conv5_2 (in-place)
I0921 06:14:16.597724  8984 net.cpp:150] Setting up relu5_2
I0921 06:14:16.597724  8984 net.cpp:157] Top shape: 30 512 15 15 (3456000)
I0921 06:14:16.597724  8984 net.cpp:165] Memory required for data: 3893608800
I0921 06:14:16.597724  8984 layer_factory.hpp:77] Creating layer conv5_3
I0921 06:14:16.597724  8984 net.cpp:100] Creating Layer conv5_3
I0921 06:14:16.597724  8984 net.cpp:444] conv5_3 <- conv5_2
I0921 06:14:16.607725  8984 net.cpp:418] conv5_3 -> conv5_3
I0921 06:14:16.627725  8984 net.cpp:150] Setting up conv5_3
I0921 06:14:16.627725  8984 net.cpp:157] Top shape: 30 512 15 15 (3456000)
I0921 06:14:16.627725  8984 net.cpp:165] Memory required for data: 3907432800
I0921 06:14:16.627725  8984 layer_factory.hpp:77] Creating layer relu5_3
I0921 06:14:16.637725  8984 net.cpp:100] Creating Layer relu5_3
I0921 06:14:16.637725  8984 net.cpp:444] relu5_3 <- conv5_3
I0921 06:14:16.637725  8984 net.cpp:405] relu5_3 -> conv5_3 (in-place)
I0921 06:14:16.637725  8984 net.cpp:150] Setting up relu5_3
I0921 06:14:16.637725  8984 net.cpp:157] Top shape: 30 512 15 15 (3456000)
I0921 06:14:16.637725  8984 net.cpp:165] Memory required for data: 3921256800
I0921 06:14:16.637725  8984 layer_factory.hpp:77] Creating layer conv5_4
I0921 06:14:16.637725  8984 net.cpp:100] Creating Layer conv5_4
I0921 06:14:16.637725  8984 net.cpp:444] conv5_4 <- conv5_3
I0921 06:14:16.637725  8984 net.cpp:418] conv5_4 -> conv5_4
I0921 06:14:16.667724  8984 net.cpp:150] Setting up conv5_4
I0921 06:14:16.667724  8984 net.cpp:157] Top shape: 30 512 15 15 (3456000)
I0921 06:14:16.667724  8984 net.cpp:165] Memory required for data: 3935080800
I0921 06:14:16.667724  8984 layer_factory.hpp:77] Creating layer relu5_4
I0921 06:14:16.667724  8984 net.cpp:100] Creating Layer relu5_4
I0921 06:14:16.667724  8984 net.cpp:444] relu5_4 <- conv5_4
I0921 06:14:16.667724  8984 net.cpp:405] relu5_4 -> conv5_4 (in-place)
I0921 06:14:16.667724  8984 net.cpp:150] Setting up relu5_4
I0921 06:14:16.667724  8984 net.cpp:157] Top shape: 30 512 15 15 (3456000)
I0921 06:14:16.667724  8984 net.cpp:165] Memory required for data: 3948904800
I0921 06:14:16.667724  8984 layer_factory.hpp:77] Creating layer conv5_4_relu5_4_0_split
I0921 06:14:16.667724  8984 net.cpp:100] Creating Layer conv5_4_relu5_4_0_split
I0921 06:14:16.667724  8984 net.cpp:444] conv5_4_relu5_4_0_split <- conv5_4
I0921 06:14:16.667724  8984 net.cpp:418] conv5_4_relu5_4_0_split -> conv5_4_relu5_4_0_split_0
I0921 06:14:16.667724  8984 net.cpp:418] conv5_4_relu5_4_0_split -> conv5_4_relu5_4_0_split_1
I0921 06:14:16.667724  8984 net.cpp:150] Setting up conv5_4_relu5_4_0_split
I0921 06:14:16.677726  8984 net.cpp:157] Top shape: 30 512 15 15 (3456000)
I0921 06:14:16.677726  8984 net.cpp:157] Top shape: 30 512 15 15 (3456000)
I0921 06:14:16.677726  8984 net.cpp:165] Memory required for data: 3976552800
I0921 06:14:16.677726  8984 layer_factory.hpp:77] Creating layer pool5
I0921 06:14:16.677726  8984 net.cpp:100] Creating Layer pool5
I0921 06:14:16.677726  8984 net.cpp:444] pool5 <- conv5_4_relu5_4_0_split_0
I0921 06:14:16.677726  8984 net.cpp:418] pool5 -> pool5
I0921 06:14:16.677726  8984 net.cpp:150] Setting up pool5
I0921 06:14:16.677726  8984 net.cpp:157] Top shape: 30 512 1 1 (15360)
I0921 06:14:16.677726  8984 net.cpp:165] Memory required for data: 3976614240
I0921 06:14:16.677726  8984 layer_factory.hpp:77] Creating layer anp_pool
I0921 06:14:16.677726  8984 net.cpp:100] Creating Layer anp_pool
I0921 06:14:16.677726  8984 net.cpp:444] anp_pool <- conv5_4_relu5_4_0_split_1
I0921 06:14:16.677726  8984 net.cpp:418] anp_pool -> anp_pool
I0921 06:14:16.677726  8984 net.cpp:150] Setting up anp_pool
I0921 06:14:16.677726  8984 net.cpp:157] Top shape: 30 512 8 8 (983040)
I0921 06:14:16.677726  8984 net.cpp:165] Memory required for data: 3980546400
I0921 06:14:16.677726  8984 layer_factory.hpp:77] Creating layer get_abc1_wheat
I0921 06:14:16.677726  8984 net.cpp:100] Creating Layer get_abc1_wheat
I0921 06:14:16.677726  8984 net.cpp:444] get_abc1_wheat <- anp_pool
I0921 06:14:16.677726  8984 net.cpp:418] get_abc1_wheat -> get_abc1_wheat
I0921 06:14:16.977725  8984 net.cpp:150] Setting up get_abc1_wheat
I0921 06:14:16.977725  8984 net.cpp:157] Top shape: 30 1024 (30720)
I0921 06:14:16.977725  8984 net.cpp:165] Memory required for data: 3980669280
I0921 06:14:16.977725  8984 layer_factory.hpp:77] Creating layer tanh
I0921 06:14:16.977725  8984 net.cpp:100] Creating Layer tanh
I0921 06:14:16.977725  8984 net.cpp:444] tanh <- get_abc1_wheat
I0921 06:14:16.977725  8984 net.cpp:418] tanh -> tanh
I0921 06:14:16.977725  8984 net.cpp:150] Setting up tanh
I0921 06:14:16.977725  8984 net.cpp:157] Top shape: 30 1024 (30720)
I0921 06:14:16.977725  8984 net.cpp:165] Memory required for data: 3980792160
I0921 06:14:16.977725  8984 layer_factory.hpp:77] Creating layer get_abc2_wheat
I0921 06:14:16.987725  8984 net.cpp:100] Creating Layer get_abc2_wheat
I0921 06:14:16.987725  8984 net.cpp:444] get_abc2_wheat <- tanh
I0921 06:14:16.987725  8984 net.cpp:418] get_abc2_wheat -> get_abc2_wheat
I0921 06:14:16.987725  8984 net.cpp:150] Setting up get_abc2_wheat
I0921 06:14:16.987725  8984 net.cpp:157] Top shape: 30 2 (60)
I0921 06:14:16.987725  8984 net.cpp:165] Memory required for data: 3980792400
I0921 06:14:16.987725  8984 layer_factory.hpp:77] Creating layer sigmoid
I0921 06:14:16.987725  8984 net.cpp:100] Creating Layer sigmoid
I0921 06:14:16.987725  8984 net.cpp:444] sigmoid <- get_abc2_wheat
I0921 06:14:16.987725  8984 net.cpp:418] sigmoid -> sig_abc
I0921 06:14:16.987725  8984 net.cpp:150] Setting up sigmoid
I0921 06:14:16.987725  8984 net.cpp:157] Top shape: 30 2 (60)
I0921 06:14:16.987725  8984 net.cpp:165] Memory required for data: 3980792640
I0921 06:14:16.987725  8984 layer_factory.hpp:77] Creating layer get448
I0921 06:14:16.987725  8984 net.cpp:100] Creating Layer get448
I0921 06:14:16.987725  8984 net.cpp:444] get448 <- sig_abc
I0921 06:14:16.987725  8984 net.cpp:418] get448 -> get448
I0921 06:14:16.987725  8984 net.cpp:150] Setting up get448
I0921 06:14:16.987725  8984 net.cpp:157] Top shape: 30 2 (60)
I0921 06:14:16.987725  8984 net.cpp:165] Memory required for data: 3980792880
I0921 06:14:16.987725  8984 layer_factory.hpp:77] Creating layer atten_crop
I0921 06:14:16.987725  8984 net.cpp:100] Creating Layer atten_crop
I0921 06:14:16.987725  8984 net.cpp:444] atten_crop <- data_data_0_split_1
I0921 06:14:16.987725  8984 net.cpp:444] atten_crop <- get448
I0921 06:14:16.987725  8984 net.cpp:418] atten_crop -> scale2_data
I0921 06:14:16.987725  8984 net.cpp:150] Setting up atten_crop
I0921 06:14:16.987725  8984 net.cpp:157] Top shape: 30 3 224 224 (4515840)
I0921 06:14:16.987725  8984 net.cpp:165] Memory required for data: 3998856240
I0921 06:14:16.987725  8984 layer_factory.hpp:77] Creating layer conv1_1_A
I0921 06:14:16.997725  8984 net.cpp:100] Creating Layer conv1_1_A
I0921 06:14:16.997725  8984 net.cpp:444] conv1_1_A <- scale2_data
I0921 06:14:16.997725  8984 net.cpp:418] conv1_1_A -> conv1_1_A
I0921 06:14:16.997725  8984 net.cpp:150] Setting up conv1_1_A
I0921 06:14:16.997725  8984 net.cpp:157] Top shape: 30 64 224 224 (96337920)
I0921 06:14:16.997725  8984 net.cpp:165] Memory required for data: 4384207920
I0921 06:14:16.997725  8984 layer_factory.hpp:77] Creating layer relu1_1_A
I0921 06:14:16.997725  8984 net.cpp:100] Creating Layer relu1_1_A
I0921 06:14:16.997725  8984 net.cpp:444] relu1_1_A <- conv1_1_A
I0921 06:14:16.997725  8984 net.cpp:405] relu1_1_A -> conv1_1_A (in-place)
I0921 06:14:16.997725  8984 net.cpp:150] Setting up relu1_1_A
I0921 06:14:16.997725  8984 net.cpp:157] Top shape: 30 64 224 224 (96337920)
I0921 06:14:16.997725  8984 net.cpp:165] Memory required for data: 4769559600
I0921 06:14:17.007725  8984 layer_factory.hpp:77] Creating layer conv1_2_A_wheat
I0921 06:14:17.007725  8984 net.cpp:100] Creating Layer conv1_2_A_wheat
I0921 06:14:17.007725  8984 net.cpp:444] conv1_2_A_wheat <- conv1_1_A
I0921 06:14:17.007725  8984 net.cpp:418] conv1_2_A_wheat -> conv1_2_A_wheat
I0921 06:14:17.007725  8984 net.cpp:150] Setting up conv1_2_A_wheat
I0921 06:14:17.007725  8984 net.cpp:157] Top shape: 30 64 218 218 (91246080)
I0921 06:14:17.007725  8984 net.cpp:165] Memory required for data: 5134543920
I0921 06:14:17.017737  8984 layer_factory.hpp:77] Creating layer relu1_2_A_wheat
I0921 06:14:17.017737  8984 net.cpp:100] Creating Layer relu1_2_A_wheat
I0921 06:14:17.017737  8984 net.cpp:444] relu1_2_A_wheat <- conv1_2_A_wheat
I0921 06:14:17.017737  8984 net.cpp:405] relu1_2_A_wheat -> conv1_2_A_wheat (in-place)
I0921 06:14:17.017737  8984 net.cpp:150] Setting up relu1_2_A_wheat
I0921 06:14:17.017737  8984 net.cpp:157] Top shape: 30 64 218 218 (91246080)
I0921 06:14:17.017737  8984 net.cpp:165] Memory required for data: 5499528240
I0921 06:14:17.017737  8984 layer_factory.hpp:77] Creating layer pool1_A_wheat
I0921 06:14:17.017737  8984 net.cpp:100] Creating Layer pool1_A_wheat
I0921 06:14:17.017737  8984 net.cpp:444] pool1_A_wheat <- conv1_2_A_wheat
I0921 06:14:17.017737  8984 net.cpp:418] pool1_A_wheat -> pool1_A_wheat
I0921 06:14:17.017737  8984 net.cpp:150] Setting up pool1_A_wheat
I0921 06:14:17.017737  8984 net.cpp:157] Top shape: 30 64 37 37 (2628480)
I0921 06:14:17.017737  8984 net.cpp:165] Memory required for data: 5510042160
I0921 06:14:17.017737  8984 layer_factory.hpp:77] Creating layer conv2_1_A_wheat
I0921 06:14:17.017737  8984 net.cpp:100] Creating Layer conv2_1_A_wheat
I0921 06:14:17.017737  8984 net.cpp:444] conv2_1_A_wheat <- pool1_A_wheat
I0921 06:14:17.017737  8984 net.cpp:418] conv2_1_A_wheat -> conv2_1_A_wheat
I0921 06:14:17.037725  8984 net.cpp:150] Setting up conv2_1_A_wheat
I0921 06:14:17.037725  8984 net.cpp:157] Top shape: 30 128 27 27 (2799360)
I0921 06:14:17.037725  8984 net.cpp:165] Memory required for data: 5521239600
I0921 06:14:17.037725  8984 layer_factory.hpp:77] Creating layer relu2_1_A_wheat
I0921 06:14:17.037725  8984 net.cpp:100] Creating Layer relu2_1_A_wheat
I0921 06:14:17.037725  8984 net.cpp:444] relu2_1_A_wheat <- conv2_1_A_wheat
I0921 06:14:17.047739  8984 net.cpp:405] relu2_1_A_wheat -> conv2_1_A_wheat (in-place)
I0921 06:14:17.047739  8984 net.cpp:150] Setting up relu2_1_A_wheat
I0921 06:14:17.047739  8984 net.cpp:157] Top shape: 30 128 27 27 (2799360)
I0921 06:14:17.047739  8984 net.cpp:165] Memory required for data: 5532437040
I0921 06:14:17.047739  8984 layer_factory.hpp:77] Creating layer conv2_2_A_wheat
I0921 06:14:17.047739  8984 net.cpp:100] Creating Layer conv2_2_A_wheat
I0921 06:14:17.047739  8984 net.cpp:444] conv2_2_A_wheat <- conv2_1_A_wheat
I0921 06:14:17.047739  8984 net.cpp:418] conv2_2_A_wheat -> conv2_2_A_wheat
I0921 06:14:17.197726  8984 net.cpp:150] Setting up conv2_2_A_wheat
I0921 06:14:17.197726  8984 net.cpp:157] Top shape: 30 512 15 15 (3456000)
I0921 06:14:17.197726  8984 net.cpp:165] Memory required for data: 5546261040
I0921 06:14:17.197726  8984 layer_factory.hpp:77] Creating layer relu2_2_A_wheat
I0921 06:14:17.197726  8984 net.cpp:100] Creating Layer relu2_2_A_wheat
I0921 06:14:17.207726  8984 net.cpp:444] relu2_2_A_wheat <- conv2_2_A_wheat
I0921 06:14:17.207726  8984 net.cpp:405] relu2_2_A_wheat -> conv2_2_A_wheat (in-place)
I0921 06:14:17.207726  8984 net.cpp:150] Setting up relu2_2_A_wheat
I0921 06:14:17.207726  8984 net.cpp:157] Top shape: 30 512 15 15 (3456000)
I0921 06:14:17.207726  8984 net.cpp:165] Memory required for data: 5560085040
I0921 06:14:17.207726  8984 layer_factory.hpp:77] Creating layer pool5_A_A_wheat
I0921 06:14:17.207726  8984 net.cpp:100] Creating Layer pool5_A_A_wheat
I0921 06:14:17.207726  8984 net.cpp:444] pool5_A_A_wheat <- conv2_2_A_wheat
I0921 06:14:17.207726  8984 net.cpp:418] pool5_A_A_wheat -> pool5_A_A_wheat
I0921 06:14:17.207726  8984 net.cpp:150] Setting up pool5_A_A_wheat
I0921 06:14:17.207726  8984 net.cpp:157] Top shape: 30 512 1 1 (15360)
I0921 06:14:17.207726  8984 net.cpp:165] Memory required for data: 5560146480
I0921 06:14:17.207726  8984 layer_factory.hpp:77] Creating layer reshape1_wheat
I0921 06:14:17.207726  8984 net.cpp:100] Creating Layer reshape1_wheat
I0921 06:14:17.207726  8984 net.cpp:444] reshape1_wheat <- pool5
I0921 06:14:17.207726  8984 net.cpp:418] reshape1_wheat -> reshape1_wheat
I0921 06:14:17.207726  8984 net.cpp:150] Setting up reshape1_wheat
I0921 06:14:17.207726  8984 net.cpp:157] Top shape: 30 512 (15360)
I0921 06:14:17.207726  8984 net.cpp:165] Memory required for data: 5560207920
I0921 06:14:17.207726  8984 layer_factory.hpp:77] Creating layer reshape2_wheat
I0921 06:14:17.207726  8984 net.cpp:100] Creating Layer reshape2_wheat
I0921 06:14:17.207726  8984 net.cpp:444] reshape2_wheat <- pool5_A_A_wheat
I0921 06:14:17.207726  8984 net.cpp:418] reshape2_wheat -> reshape2_wheat
I0921 06:14:17.207726  8984 net.cpp:150] Setting up reshape2_wheat
I0921 06:14:17.217725  8984 net.cpp:157] Top shape: 30 512 (15360)
I0921 06:14:17.217725  8984 net.cpp:165] Memory required for data: 5560269360
I0921 06:14:17.217725  8984 layer_factory.hpp:77] Creating layer pow1_wheat
I0921 06:14:17.217725  8984 net.cpp:100] Creating Layer pow1_wheat
I0921 06:14:17.217725  8984 net.cpp:444] pow1_wheat <- reshape1_wheat
I0921 06:14:17.217725  8984 net.cpp:418] pow1_wheat -> pow1_wheat
I0921 06:14:17.217725  8984 net.cpp:150] Setting up pow1_wheat
I0921 06:14:17.217725  8984 net.cpp:157] Top shape: 30 512 (15360)
I0921 06:14:17.217725  8984 net.cpp:165] Memory required for data: 5560330800
I0921 06:14:17.217725  8984 layer_factory.hpp:77] Creating layer pow2_wheat
I0921 06:14:17.217725  8984 net.cpp:100] Creating Layer pow2_wheat
I0921 06:14:17.217725  8984 net.cpp:444] pow2_wheat <- reshape2_wheat
I0921 06:14:17.217725  8984 net.cpp:418] pow2_wheat -> pow2_wheat
I0921 06:14:17.217725  8984 net.cpp:150] Setting up pow2_wheat
I0921 06:14:17.217725  8984 net.cpp:157] Top shape: 30 512 (15360)
I0921 06:14:17.217725  8984 net.cpp:165] Memory required for data: 5560392240
I0921 06:14:17.217725  8984 layer_factory.hpp:77] Creating layer scale1+2
I0921 06:14:17.217725  8984 net.cpp:100] Creating Layer scale1+2
I0921 06:14:17.217725  8984 net.cpp:444] scale1+2 <- pow2_wheat
I0921 06:14:17.217725  8984 net.cpp:444] scale1+2 <- pow1_wheat
I0921 06:14:17.217725  8984 net.cpp:418] scale1+2 -> scale1+2
I0921 06:14:17.217725  8984 net.cpp:150] Setting up scale1+2
I0921 06:14:17.217725  8984 net.cpp:157] Top shape: 30 1024 (30720)
I0921 06:14:17.217725  8984 net.cpp:165] Memory required for data: 5560515120
I0921 06:14:17.217725  8984 layer_factory.hpp:77] Creating layer fc2_wheat
I0921 06:14:17.217725  8984 net.cpp:100] Creating Layer fc2_wheat
I0921 06:14:17.227725  8984 net.cpp:444] fc2_wheat <- scale1+2
I0921 06:14:17.227725  8984 net.cpp:418] fc2_wheat -> fc2_wheat
I0921 06:14:17.227725  8984 net.cpp:150] Setting up fc2_wheat
I0921 06:14:17.227725  8984 net.cpp:157] Top shape: 30 6 (180)
I0921 06:14:17.227725  8984 net.cpp:165] Memory required for data: 5560515840
I0921 06:14:17.227725  8984 layer_factory.hpp:77] Creating layer fc2_wheat_fc2_wheat_0_split
I0921 06:14:17.227725  8984 net.cpp:100] Creating Layer fc2_wheat_fc2_wheat_0_split
I0921 06:14:17.227725  8984 net.cpp:444] fc2_wheat_fc2_wheat_0_split <- fc2_wheat
I0921 06:14:17.227725  8984 net.cpp:418] fc2_wheat_fc2_wheat_0_split -> fc2_wheat_fc2_wheat_0_split_0
I0921 06:14:17.227725  8984 net.cpp:418] fc2_wheat_fc2_wheat_0_split -> fc2_wheat_fc2_wheat_0_split_1
I0921 06:14:17.227725  8984 net.cpp:150] Setting up fc2_wheat_fc2_wheat_0_split
I0921 06:14:17.227725  8984 net.cpp:157] Top shape: 30 6 (180)
I0921 06:14:17.227725  8984 net.cpp:157] Top shape: 30 6 (180)
I0921 06:14:17.227725  8984 net.cpp:165] Memory required for data: 5560517280
I0921 06:14:17.227725  8984 layer_factory.hpp:77] Creating layer accuracy
I0921 06:14:17.227725  8984 net.cpp:100] Creating Layer accuracy
I0921 06:14:17.227725  8984 net.cpp:444] accuracy <- fc2_wheat_fc2_wheat_0_split_0
I0921 06:14:17.227725  8984 net.cpp:444] accuracy <- label_data_1_split_0
I0921 06:14:17.227725  8984 net.cpp:418] accuracy -> accuracy
…
